{"format": "graph-model", "generatedBy": "2.17.0", "convertedBy": "TensorFlow.js Converter v4.21.0", "signature": {"inputs": {"xs_6:0": {"name": "xs_6:0", "dtype": "DT_BOOL", "tensorShape": {"dim": [{"size": "-1"}]}}, "xs_10": {"name": "xs_10:0", "dtype": "DT_BOOL", "tensorShape": {"dim": [{"size": "4"}, {"size": "-1"}, {"size": "-1"}]}}, "xs_2": {"name": "xs_2:0", "dtype": "DT_FLOAT", "tensorShape": {"dim": [{"size": "-1"}, {"size": "19"}]}}, "xs_8:0": {"name": "xs_8:0", "dtype": "DT_BOOL", "tensorShape": {"dim": [{"size": "-1"}]}}, "xs_11": {"name": "xs_11:0", "dtype": "DT_INT32", "tensorShape": {"dim": [{"size": "-1"}, {"size": "2"}]}}, "xs_3": {"name": "xs_3:0", "dtype": "DT_FLOAT", "tensorShape": {"dim": [{"size": "-1"}, {"size": "27"}]}}, "xs_1": {"name": "xs_1:0", "dtype": "DT_FLOAT", "tensorShape": {"dim": [{"size": "1"}]}}, "xs_4": {"name": "xs_4:0", "dtype": "DT_FLOAT", "tensorShape": {"dim": [{"size": "-1"}, {"size": "76"}]}}, "xs_5": {"name": "xs_5:0", "dtype": "DT_FLOAT", "tensorShape": {"dim": [{"size": "-1"}, {"size": "35"}]}}, "xs_7:0": {"name": "xs_7:0", "dtype": "DT_BOOL", "tensorShape": {"dim": [{"size": "-1"}]}}, "xs_0": {"name": "xs_0:0", "dtype": "DT_FLOAT", "tensorShape": {"dim": [{"size": "1"}, {"size": "256"}]}}, "xs_12": {"name": "xs_12:0", "dtype": "DT_INT32", "tensorShape": {"dim": [{"size": "-1"}]}}, "xs_9:0": {"name": "xs_9:0", "dtype": "DT_BOOL", "tensorShape": {"dim": [{"size": "-1"}]}}}, "outputs": {"output_2": {"name": "Identity_2:0", "dtype": "DT_FLOAT", "tensorShape": {}}, "output_1": {"name": "Identity_1:0", "dtype": "DT_FLOAT", "tensorShape": {"dim": [{"size": "16"}]}}, "output_0": {"name": "Identity:0", "dtype": "DT_FLOAT", "tensorShape": {"dim": [{"size": "1"}, {"size": "256"}]}}}}, "modelTopology": {"node": [{"name": "StatefulPartitionedCall/jax2tf_apply_/ActorCriticTransformerFlats/ActorCriticTransformerFlats/GeneralActorCriticRNN_0/Dense_0/ExpandDims/dim", "op": "Const", "attr": {"value": {"tensor": {"dtype": "DT_INT32", "tensorShape": {}}}, "dtype": {"type": "DT_INT32"}}, "inputs": []}, {"name": "StatefulPartitionedCall/jax2tf_arg_9/ReadVariableOp", "op": "Const", "attr": {"value": {"tensor": {"dtype": "DT_FLOAT", "tensorShape": {"dim": [{"size": "1024"}, {"size": "512"}]}}}, "dtype": {"type": "DT_FLOAT"}}, "inputs": []}, {"name": "StatefulPartitionedCall/jax2tf_arg_8/ReadVariableOp", "op": "Const", "attr": {"value": {"tensor": {"dtype": "DT_FLOAT", "tensorShape": {"dim": [{"size": "512"}]}}}, "dtype": {"type": "DT_FLOAT"}}, "inputs": []}, {"name": "StatefulPartitionedCall/jax2tf_apply_/ActorCriticTransformerFlats/ActorCriticTransformerFlats/GeneralActorCriticRNN_0/Dense_2/ExpandDims/dim", "op": "Const", "attr": {"value": {"tensor": {"dtype": "DT_INT32", "tensorShape": {}}}, "dtype": {"type": "DT_INT32"}}, "inputs": []}, {"name": "StatefulPartitionedCall/jax2tf_arg_17/ReadVariableOp", "op": "Const", "attr": {"value": {"tensor": {"dtype": "DT_FLOAT", "tensorShape": {"dim": [{"size": "512"}, {"size": "512"}]}}}, "dtype": {"type": "DT_FLOAT"}}, "inputs": []}, {"name": "StatefulPartitionedCall/jax2tf_arg_16/ReadVariableOp", "op": "Const", "attr": {"value": {"tensor": {"dtype": "DT_FLOAT", "tensorShape": {"dim": [{"size": "512"}]}}}, "dtype": {"type": "DT_FLOAT"}}, "inputs": []}, {"name": "StatefulPartitionedCall/jax2tf_apply_/ActorCriticTransformerFlats/ActorCriticTransformerFlats/GeneralActorCriticRNN_0/Dense_4/ExpandDims/dim", "op": "Const", "attr": {"value": {"tensor": {"dtype": "DT_INT32", "tensorShape": {}}}, "dtype": {"type": "DT_INT32"}}, "inputs": []}, {"name": "StatefulPartitionedCall/jax2tf_arg_21/ReadVariableOp", "op": "Const", "attr": {"value": {"tensor": {"dtype": "DT_FLOAT", "tensorShape": {"dim": [{"size": "512"}, {"size": "512"}]}}}, "dtype": {"type": "DT_FLOAT"}}, "inputs": []}, {"name": "StatefulPartitionedCall/jax2tf_arg_20/ReadVariableOp", "op": "Const", "attr": {"value": {"tensor": {"dtype": "DT_FLOAT", "tensorShape": {"dim": [{"size": "512"}]}}}, "dtype": {"type": "DT_FLOAT"}}, "inputs": []}, {"name": "StatefulPartitionedCall/jax2tf_apply_/ActorCriticTransformerFlats/ActorCriticTransformerFlats/GeneralActorCriticRNN_0/Dense_6/ExpandDims/dim", "op": "Const", "attr": {"value": {"tensor": {"dtype": "DT_INT32", "tensorShape": {}}}, "dtype": {"type": "DT_INT32"}}, "inputs": []}, {"name": "StatefulPartitionedCall/jax2tf_arg_25/ReadVariableOp", "op": "Const", "attr": {"value": {"tensor": {"dtype": "DT_FLOAT", "tensorShape": {"dim": [{"size": "512"}, {"size": "512"}]}}}, "dtype": {"type": "DT_FLOAT"}}, "inputs": []}, {"name": "StatefulPartitionedCall/jax2tf_arg_24/ReadVariableOp", "op": "Const", "attr": {"value": {"tensor": {"dtype": "DT_FLOAT", "tensorShape": {"dim": [{"size": "512"}]}}}, "dtype": {"type": "DT_FLOAT"}}, "inputs": []}, {"name": "StatefulPartitionedCall/jax2tf_apply_/ActorCriticTransformerFlats/ActorCriticTransformerFlats/GeneralActorCriticRNN_0/Dense_8/ExpandDims/dim", "op": "Const", "attr": {"value": {"tensor": {"dtype": "DT_INT32", "tensorShape": {}}}, "dtype": {"type": "DT_INT32"}}, "inputs": []}, {"name": "StatefulPartitionedCall/jax2tf_arg_29/ReadVariableOp", "op": "Const", "attr": {"value": {"tensor": {"dtype": "DT_FLOAT", "tensorShape": {"dim": [{"size": "512"}, {"size": "512"}]}}}, "dtype": {"type": "DT_FLOAT"}}, "inputs": []}, {"name": "StatefulPartitionedCall/jax2tf_arg_28/ReadVariableOp", "op": "Const", "attr": {"value": {"tensor": {"dtype": "DT_FLOAT", "tensorShape": {"dim": [{"size": "512"}]}}}, "dtype": {"type": "DT_FLOAT"}}, "inputs": []}, {"name": "StatefulPartitionedCall/jax2tf_apply_/ActorCriticTransformerFlats/ActorCriticTransformerFlats/GeneralActorCriticRNN_0/Dense_10/ExpandDims/dim", "op": "Const", "attr": {"value": {"tensor": {"dtype": "DT_INT32", "tensorShape": {}}}, "dtype": {"type": "DT_INT32"}}, "inputs": []}, {"name": "StatefulPartitionedCall/jax2tf_arg_13/ReadVariableOp", "op": "Const", "attr": {"value": {"tensor": {"dtype": "DT_FLOAT", "tensorShape": {"dim": [{"size": "512"}, {"size": "16"}]}}}, "dtype": {"type": "DT_FLOAT"}}, "inputs": []}, {"name": "StatefulPartitionedCall/jax2tf_arg_12/ReadVariableOp", "op": "Const", "attr": {"value": {"tensor": {"dtype": "DT_FLOAT", "tensorShape": {"dim": [{"size": "16"}]}}}, "dtype": {"type": "DT_FLOAT"}}, "inputs": []}, {"name": "StatefulPartitionedCall/jax2tf_apply_/ActorCriticTransformerFlats/ActorCriticTransformerFlats/Cast_9/x", "op": "Const", "attr": {"value": {"tensor": {"dtype": "DT_INT32", "tensorShape": {}}}, "dtype": {"type": "DT_INT32"}}, "inputs": []}, {"name": "StatefulPartitionedCall/jax2tf_apply_/ActorCriticTransformerFlats/ActorCriticTransformerFlats/Reshape_12/shape/1", "op": "Const", "attr": {"value": {"tensor": {"dtype": "DT_INT32", "tensorShape": {}}}, "dtype": {"type": "DT_INT32"}}, "inputs": []}, {"name": "StatefulPartitionedCall/jax2tf_apply_/ActorCriticTransformerFlats/ActorCriticTransformerFlats/BroadcastTo_12/shape/1", "op": "Const", "attr": {"value": {"tensor": {"dtype": "DT_INT32", "tensorShape": {}}}, "dtype": {"type": "DT_INT32"}}, "inputs": []}, {"name": "StatefulPartitionedCall/jax2tf_apply_/ActorCriticTransformerFlats/ActorCriticTransformerFlats/pjit__where_/BroadcastTo/shape/1", "op": "Const", "attr": {"value": {"tensor": {"dtype": "DT_INT32", "tensorShape": {}}}, "dtype": {"type": "DT_INT32"}}, "inputs": []}, {"name": "StatefulPartitionedCall/jax2tf_arg_3/ReadVariableOp", "op": "Const", "attr": {"value": {"tensor": {"dtype": "DT_FLOAT", "tensorShape": {"dim": [{"size": "27"}, {"size": "252"}]}}}, "dtype": {"type": "DT_FLOAT"}}, "inputs": []}, {"name": "StatefulPartitionedCall/jax2tf_apply_/ActorCriticTransformerFlats/ActorCriticTransformerFlats/Dense_1/Reshape", "op": "Const", "attr": {"value": {"tensor": {"dtype": "DT_FLOAT", "tensorShape": {"dim": [{"size": "1"}, {"size": "252"}]}}}, "dtype": {"type": "DT_FLOAT"}}, "inputs": []}, {"name": "StatefulPartitionedCall/jax2tf_apply_/ActorCriticTransformerFlats/ActorCriticTransformerFlats/Reshape_3", "op": "Const", "attr": {"value": {"tensor": {"dtype": "DT_FLOAT", "tensorShape": {"dim": [{"size": "1"}, {"size": "1"}]}}}, "dtype": {"type": "DT_FLOAT"}}, "inputs": []}, {"name": "StatefulPartitionedCall/jax2tf_apply_/ActorCriticTransformerFlats/ActorCriticTransformerFlats/BroadcastTo_3/shape/1", "op": "Const", "attr": {"value": {"tensor": {"dtype": "DT_INT32", "tensorShape": {}}}, "dtype": {"type": "DT_INT32"}}, "inputs": []}, {"name": "StatefulPartitionedCall/jax2tf_apply_/ActorCriticTransformerFlats/ActorCriticTransformerFlats/transpose_4/perm", "op": "Const", "attr": {"value": {"tensor": {"dtype": "DT_INT32", "tensorShape": {"dim": [{"size": "2"}]}}}, "dtype": {"type": "DT_INT32"}}, "inputs": []}, {"name": "StatefulPartitionedCall/jax2tf_apply_/ActorCriticTransformerFlats/ActorCriticTransformerFlats/strided_slice_2", "op": "Const", "attr": {"value": {"tensor": {"dtype": "DT_INT32", "tensorShape": {"dim": [{"size": "1"}, {"size": "1"}]}}}, "dtype": {"type": "DT_INT32"}}, "inputs": []}, {"name": "StatefulPartitionedCall/jax2tf_apply_/ActorCriticTransformerFlats/ActorCriticTransformerFlats/Reshape_5", "op": "Const", "attr": {"value": {"tensor": {"dtype": "DT_FLOAT", "tensorShape": {"dim": [{"size": "1"}]}}}, "dtype": {"type": "DT_FLOAT"}}, "inputs": []}, {"name": "StatefulPartitionedCall/jax2tf_apply_/ActorCriticTransformerFlats/ActorCriticTransformerFlats/strided_slice_3/stack", "op": "Const", "attr": {"value": {"tensor": {"dtype": "DT_INT32", "tensorShape": {"dim": [{"size": "1"}]}}}, "dtype": {"type": "DT_INT32"}}, "inputs": []}, {"name": "StatefulPartitionedCall/jax2tf_apply_/ActorCriticTransformerFlats/ActorCriticTransformerFlats/strided_slice_3/stack_1", "op": "Const", "attr": {"value": {"tensor": {"dtype": "DT_INT32", "tensorShape": {"dim": [{"size": "1"}]}}}, "dtype": {"type": "DT_INT32"}}, "inputs": []}, {"name": "StatefulPartitionedCall/jax2tf_apply_/ActorCriticTransformerFlats/ActorCriticTransformerFlats/strided_slice_3/stack_2", "op": "Const", "attr": {"value": {"tensor": {"dtype": "DT_INT32", "tensorShape": {"dim": [{"size": "1"}]}}}, "dtype": {"type": "DT_INT32"}}, "inputs": []}, {"name": "StatefulPartitionedCall/jax2tf_apply_/ActorCriticTransformerFlats/ActorCriticTransformerFlats/transpose_5/perm", "op": "Const", "attr": {"value": {"tensor": {"dtype": "DT_INT32", "tensorShape": {"dim": [{"size": "2"}]}}}, "dtype": {"type": "DT_INT32"}}, "inputs": []}, {"name": "StatefulPartitionedCall/jax2tf_apply_/ActorCriticTransformerFlats/ActorCriticTransformerFlats/Cast_3/x", "op": "Const", "attr": {"value": {"tensor": {"dtype": "DT_INT32", "tensorShape": {}}}, "dtype": {"type": "DT_INT32"}}, "inputs": []}, {"name": "StatefulPartitionedCall/jax2tf_arg_1/ReadVariableOp", "op": "Const", "attr": {"value": {"tensor": {"dtype": "DT_FLOAT", "tensorShape": {"dim": [{"size": "19"}, {"size": "252"}]}}}, "dtype": {"type": "DT_FLOAT"}}, "inputs": []}, {"name": "StatefulPartitionedCall/jax2tf_apply_/ActorCriticTransformerFlats/ActorCriticTransformerFlats/Dense_0/Reshape", "op": "Const", "attr": {"value": {"tensor": {"dtype": "DT_FLOAT", "tensorShape": {"dim": [{"size": "1"}, {"size": "252"}]}}}, "dtype": {"type": "DT_FLOAT"}}, "inputs": []}, {"name": "StatefulPartitionedCall/jax2tf_apply_/ActorCriticTransformerFlats/ActorCriticTransformerFlats/Reshape", "op": "Const", "attr": {"value": {"tensor": {"dtype": "DT_FLOAT", "tensorShape": {"dim": [{"size": "1"}, {"size": "1"}]}}}, "dtype": {"type": "DT_FLOAT"}}, "inputs": []}, {"name": "StatefulPartitionedCall/jax2tf_apply_/ActorCriticTransformerFlats/ActorCriticTransformerFlats/BroadcastTo/shape/1", "op": "Const", "attr": {"value": {"tensor": {"dtype": "DT_INT32", "tensorShape": {}}}, "dtype": {"type": "DT_INT32"}}, "inputs": []}, {"name": "StatefulPartitionedCall/jax2tf_apply_/ActorCriticTransformerFlats/ActorCriticTransformerFlats/transpose_1/perm", "op": "Const", "attr": {"value": {"tensor": {"dtype": "DT_INT32", "tensorShape": {"dim": [{"size": "2"}]}}}, "dtype": {"type": "DT_INT32"}}, "inputs": []}, {"name": "StatefulPartitionedCall/jax2tf_apply_/ActorCriticTransformerFlats/ActorCriticTransformerFlats/strided_slice", "op": "Const", "attr": {"value": {"tensor": {"dtype": "DT_INT32", "tensorShape": {"dim": [{"size": "1"}, {"size": "1"}]}}}, "dtype": {"type": "DT_INT32"}}, "inputs": []}, {"name": "StatefulPartitionedCall/jax2tf_apply_/ActorCriticTransformerFlats/ActorCriticTransformerFlats/Reshape_2", "op": "Const", "attr": {"value": {"tensor": {"dtype": "DT_FLOAT", "tensorShape": {"dim": [{"size": "1"}]}}}, "dtype": {"type": "DT_FLOAT"}}, "inputs": []}, {"name": "StatefulPartitionedCall/jax2tf_apply_/ActorCriticTransformerFlats/ActorCriticTransformerFlats/strided_slice_1/stack", "op": "Const", "attr": {"value": {"tensor": {"dtype": "DT_INT32", "tensorShape": {"dim": [{"size": "1"}]}}}, "dtype": {"type": "DT_INT32"}}, "inputs": []}, {"name": "StatefulPartitionedCall/jax2tf_apply_/ActorCriticTransformerFlats/ActorCriticTransformerFlats/strided_slice_1/stack_1", "op": "Const", "attr": {"value": {"tensor": {"dtype": "DT_INT32", "tensorShape": {"dim": [{"size": "1"}]}}}, "dtype": {"type": "DT_INT32"}}, "inputs": []}, {"name": "StatefulPartitionedCall/jax2tf_apply_/ActorCriticTransformerFlats/ActorCriticTransformerFlats/strided_slice_1/stack_2", "op": "Const", "attr": {"value": {"tensor": {"dtype": "DT_INT32", "tensorShape": {"dim": [{"size": "1"}]}}}, "dtype": {"type": "DT_INT32"}}, "inputs": []}, {"name": "StatefulPartitionedCall/jax2tf_apply_/ActorCriticTransformerFlats/ActorCriticTransformerFlats/transpose_2/perm", "op": "Const", "attr": {"value": {"tensor": {"dtype": "DT_INT32", "tensorShape": {"dim": [{"size": "2"}]}}}, "dtype": {"type": "DT_INT32"}}, "inputs": []}, {"name": "StatefulPartitionedCall/jax2tf_apply_/ActorCriticTransformerFlats/ActorCriticTransformerFlats/Cast_1/x", "op": "Const", "attr": {"value": {"tensor": {"dtype": "DT_INT32", "tensorShape": {}}}, "dtype": {"type": "DT_INT32"}}, "inputs": []}, {"name": "StatefulPartitionedCall/jax2tf_arg_5/ReadVariableOp", "op": "Const", "attr": {"value": {"tensor": {"dtype": "DT_FLOAT", "tensorShape": {"dim": [{"size": "76"}, {"size": "252"}]}}}, "dtype": {"type": "DT_FLOAT"}}, "inputs": []}, {"name": "StatefulPartitionedCall/jax2tf_apply_/ActorCriticTransformerFlats/ActorCriticTransformerFlats/Dense_2/Reshape", "op": "Const", "attr": {"value": {"tensor": {"dtype": "DT_FLOAT", "tensorShape": {"dim": [{"size": "1"}, {"size": "252"}]}}}, "dtype": {"type": "DT_FLOAT"}}, "inputs": []}, {"name": "StatefulPartitionedCall/jax2tf_apply_/ActorCriticTransformerFlats/ActorCriticTransformerFlats/Reshape_6", "op": "Const", "attr": {"value": {"tensor": {"dtype": "DT_FLOAT", "tensorShape": {"dim": [{"size": "1"}, {"size": "1"}]}}}, "dtype": {"type": "DT_FLOAT"}}, "inputs": []}, {"name": "StatefulPartitionedCall/jax2tf_apply_/ActorCriticTransformerFlats/ActorCriticTransformerFlats/BroadcastTo_6/shape/1", "op": "Const", "attr": {"value": {"tensor": {"dtype": "DT_INT32", "tensorShape": {}}}, "dtype": {"type": "DT_INT32"}}, "inputs": []}, {"name": "StatefulPartitionedCall/jax2tf_apply_/ActorCriticTransformerFlats/ActorCriticTransformerFlats/transpose_7/perm", "op": "Const", "attr": {"value": {"tensor": {"dtype": "DT_INT32", "tensorShape": {"dim": [{"size": "2"}]}}}, "dtype": {"type": "DT_INT32"}}, "inputs": []}, {"name": "StatefulPartitionedCall/jax2tf_apply_/ActorCriticTransformerFlats/ActorCriticTransformerFlats/strided_slice_4", "op": "Const", "attr": {"value": {"tensor": {"dtype": "DT_INT32", "tensorShape": {"dim": [{"size": "1"}, {"size": "1"}]}}}, "dtype": {"type": "DT_INT32"}}, "inputs": []}, {"name": "StatefulPartitionedCall/jax2tf_apply_/ActorCriticTransformerFlats/ActorCriticTransformerFlats/Reshape_8", "op": "Const", "attr": {"value": {"tensor": {"dtype": "DT_FLOAT", "tensorShape": {"dim": [{"size": "1"}]}}}, "dtype": {"type": "DT_FLOAT"}}, "inputs": []}, {"name": "StatefulPartitionedCall/jax2tf_apply_/ActorCriticTransformerFlats/ActorCriticTransformerFlats/strided_slice_5/stack", "op": "Const", "attr": {"value": {"tensor": {"dtype": "DT_INT32", "tensorShape": {"dim": [{"size": "1"}]}}}, "dtype": {"type": "DT_INT32"}}, "inputs": []}, {"name": "StatefulPartitionedCall/jax2tf_apply_/ActorCriticTransformerFlats/ActorCriticTransformerFlats/strided_slice_5/stack_1", "op": "Const", "attr": {"value": {"tensor": {"dtype": "DT_INT32", "tensorShape": {"dim": [{"size": "1"}]}}}, "dtype": {"type": "DT_INT32"}}, "inputs": []}, {"name": "StatefulPartitionedCall/jax2tf_apply_/ActorCriticTransformerFlats/ActorCriticTransformerFlats/strided_slice_5/stack_2", "op": "Const", "attr": {"value": {"tensor": {"dtype": "DT_INT32", "tensorShape": {"dim": [{"size": "1"}]}}}, "dtype": {"type": "DT_INT32"}}, "inputs": []}, {"name": "StatefulPartitionedCall/jax2tf_apply_/ActorCriticTransformerFlats/ActorCriticTransformerFlats/transpose_8/perm", "op": "Const", "attr": {"value": {"tensor": {"dtype": "DT_INT32", "tensorShape": {"dim": [{"size": "2"}]}}}, "dtype": {"type": "DT_INT32"}}, "inputs": []}, {"name": "StatefulPartitionedCall/jax2tf_apply_/ActorCriticTransformerFlats/ActorCriticTransformerFlats/Cast_5/x", "op": "Const", "attr": {"value": {"tensor": {"dtype": "DT_INT32", "tensorShape": {}}}, "dtype": {"type": "DT_INT32"}}, "inputs": []}, {"name": "StatefulPartitionedCall/jax2tf_arg_7/ReadVariableOp", "op": "Const", "attr": {"value": {"tensor": {"dtype": "DT_FLOAT", "tensorShape": {"dim": [{"size": "35"}, {"size": "252"}]}}}, "dtype": {"type": "DT_FLOAT"}}, "inputs": []}, {"name": "StatefulPartitionedCall/jax2tf_apply_/ActorCriticTransformerFlats/ActorCriticTransformerFlats/Dense_3/Reshape", "op": "Const", "attr": {"value": {"tensor": {"dtype": "DT_FLOAT", "tensorShape": {"dim": [{"size": "1"}, {"size": "252"}]}}}, "dtype": {"type": "DT_FLOAT"}}, "inputs": []}, {"name": "StatefulPartitionedCall/jax2tf_apply_/ActorCriticTransformerFlats/ActorCriticTransformerFlats/Reshape_9", "op": "Const", "attr": {"value": {"tensor": {"dtype": "DT_FLOAT", "tensorShape": {"dim": [{"size": "1"}, {"size": "1"}]}}}, "dtype": {"type": "DT_FLOAT"}}, "inputs": []}, {"name": "StatefulPartitionedCall/jax2tf_apply_/ActorCriticTransformerFlats/ActorCriticTransformerFlats/BroadcastTo_9/shape/1", "op": "Const", "attr": {"value": {"tensor": {"dtype": "DT_INT32", "tensorShape": {}}}, "dtype": {"type": "DT_INT32"}}, "inputs": []}, {"name": "StatefulPartitionedCall/jax2tf_apply_/ActorCriticTransformerFlats/ActorCriticTransformerFlats/transpose_10/perm", "op": "Const", "attr": {"value": {"tensor": {"dtype": "DT_INT32", "tensorShape": {"dim": [{"size": "2"}]}}}, "dtype": {"type": "DT_INT32"}}, "inputs": []}, {"name": "StatefulPartitionedCall/jax2tf_apply_/ActorCriticTransformerFlats/ActorCriticTransformerFlats/strided_slice_6", "op": "Const", "attr": {"value": {"tensor": {"dtype": "DT_INT32", "tensorShape": {"dim": [{"size": "1"}, {"size": "1"}]}}}, "dtype": {"type": "DT_INT32"}}, "inputs": []}, {"name": "StatefulPartitionedCall/jax2tf_apply_/ActorCriticTransformerFlats/ActorCriticTransformerFlats/Reshape_11", "op": "Const", "attr": {"value": {"tensor": {"dtype": "DT_FLOAT", "tensorShape": {"dim": [{"size": "1"}]}}}, "dtype": {"type": "DT_FLOAT"}}, "inputs": []}, {"name": "StatefulPartitionedCall/jax2tf_apply_/ActorCriticTransformerFlats/ActorCriticTransformerFlats/strided_slice_7/stack", "op": "Const", "attr": {"value": {"tensor": {"dtype": "DT_INT32", "tensorShape": {"dim": [{"size": "1"}]}}}, "dtype": {"type": "DT_INT32"}}, "inputs": []}, {"name": "StatefulPartitionedCall/jax2tf_apply_/ActorCriticTransformerFlats/ActorCriticTransformerFlats/strided_slice_7/stack_1", "op": "Const", "attr": {"value": {"tensor": {"dtype": "DT_INT32", "tensorShape": {"dim": [{"size": "1"}]}}}, "dtype": {"type": "DT_INT32"}}, "inputs": []}, {"name": "StatefulPartitionedCall/jax2tf_apply_/ActorCriticTransformerFlats/ActorCriticTransformerFlats/strided_slice_7/stack_2", "op": "Const", "attr": {"value": {"tensor": {"dtype": "DT_INT32", "tensorShape": {"dim": [{"size": "1"}]}}}, "dtype": {"type": "DT_INT32"}}, "inputs": []}, {"name": "StatefulPartitionedCall/jax2tf_apply_/ActorCriticTransformerFlats/ActorCriticTransformerFlats/transpose_11/perm", "op": "Const", "attr": {"value": {"tensor": {"dtype": "DT_INT32", "tensorShape": {"dim": [{"size": "2"}]}}}, "dtype": {"type": "DT_INT32"}}, "inputs": []}, {"name": "StatefulPartitionedCall/jax2tf_apply_/ActorCriticTransformerFlats/ActorCriticTransformerFlats/Cast_7/x", "op": "Const", "attr": {"value": {"tensor": {"dtype": "DT_INT32", "tensorShape": {}}}, "dtype": {"type": "DT_INT32"}}, "inputs": []}, {"name": "StatefulPartitionedCall/jax2tf_apply_/ActorCriticTransformerFlats/ActorCriticTransformerFlats/Cast_8/x", "op": "Const", "attr": {"value": {"tensor": {"dtype": "DT_INT32", "tensorShape": {}}}, "dtype": {"type": "DT_INT32"}}, "inputs": []}, {"name": "StatefulPartitionedCall/jax2tf_apply_/ActorCriticTransformerFlats/ActorCriticTransformerFlats/Reshape_13", "op": "Const", "attr": {"value": {"tensor": {"dtype": "DT_FLOAT", "tensorShape": {"dim": [{"size": "1"}, {"size": "1"}]}}}, "dtype": {"type": "DT_FLOAT"}}, "inputs": []}, {"name": "StatefulPartitionedCall/jax2tf_apply_/ActorCriticTransformerFlats/ActorCriticTransformerFlats/BroadcastTo_13/shape/1", "op": "Const", "attr": {"value": {"tensor": {"dtype": "DT_INT32", "tensorShape": {}}}, "dtype": {"type": "DT_INT32"}}, "inputs": []}, {"name": "StatefulPartitionedCall/jax2tf_apply_/ActorCriticTransformerFlats/ActorCriticTransformerFlats/MultiHeadDense_0/Reshape/shape/1", "op": "Const", "attr": {"value": {"tensor": {"dtype": "DT_INT32", "tensorShape": {}}}, "dtype": {"type": "DT_INT32"}}, "inputs": []}, {"name": "StatefulPartitionedCall/jax2tf_apply_/ActorCriticTransformerFlats/ActorCriticTransformerFlats/MultiHeadDense_0/Reshape/shape/2", "op": "Const", "attr": {"value": {"tensor": {"dtype": "DT_INT32", "tensorShape": {}}}, "dtype": {"type": "DT_INT32"}}, "inputs": []}, {"name": "StatefulPartitionedCall/jax2tf_apply_/ActorCriticTransformerFlats/ActorCriticTransformerFlats/MultiHeadDense_0/BroadcastTo/shape/1", "op": "Const", "attr": {"value": {"tensor": {"dtype": "DT_INT32", "tensorShape": {}}}, "dtype": {"type": "DT_INT32"}}, "inputs": []}, {"name": "StatefulPartitionedCall/jax2tf_apply_/ActorCriticTransformerFlats/ActorCriticTransformerFlats/MultiHeadDense_0/BroadcastTo/shape/2", "op": "Const", "attr": {"value": {"tensor": {"dtype": "DT_INT32", "tensorShape": {}}}, "dtype": {"type": "DT_INT32"}}, "inputs": []}, {"name": "StatefulPartitionedCall/jax2tf_apply_/ActorCriticTransformerFlats/ActorCriticTransformerFlats/MultiHeadDense_0/...fhd_hdo-_...fho/pjit__einsum_/Reshape/shape/1", "op": "Const", "attr": {"value": {"tensor": {"dtype": "DT_INT32", "tensorShape": {}}}, "dtype": {"type": "DT_INT32"}}, "inputs": []}, {"name": "StatefulPartitionedCall/jax2tf_arg_33/ReadVariableOp", "op": "Const", "attr": {"value": {"tensor": {"dtype": "DT_FLOAT", "tensorShape": {"dim": [{"size": "8"}, {"size": "256"}, {"size": "128"}]}}}, "dtype": {"type": "DT_FLOAT"}}, "inputs": []}, {"name": "StatefulPartitionedCall/jax2tf_apply_/ActorCriticTransformerFlats/ActorCriticTransformerFlats/MultiHeadDense_0/pjit_add_/BroadcastTo", "op": "Const", "attr": {"value": {"tensor": {"dtype": "DT_FLOAT", "tensorShape": {"dim": [{"size": "1"}, {"size": "8"}, {"size": "128"}]}}}, "dtype": {"type": "DT_FLOAT"}}, "inputs": []}, {"name": "StatefulPartitionedCall/jax2tf_apply_/ActorCriticTransformerFlats/ActorCriticTransformerFlats/MultiHeadDense_0/Const_4", "op": "Const", "attr": {"value": {"tensor": {"dtype": "DT_FLOAT", "tensorShape": {}}}, "dtype": {"type": "DT_FLOAT"}}, "inputs": []}, {"name": "StatefulPartitionedCall/jax2tf_apply_/ActorCriticTransformerFlats/ActorCriticTransformerFlats/MultiHeadDense_0/pjit__reduce_sum_/Sum/reduction_indices", "op": "Const", "attr": {"value": {"tensor": {"dtype": "DT_INT32", "tensorShape": {"dim": [{"size": "1"}]}}}, "dtype": {"type": "DT_INT32"}}, "inputs": []}, {"name": "StatefulPartitionedCall/jax2tf_apply_/ActorCriticTransformerFlats/ActorCriticTransformerFlats/MultiHeadDense_0/Reshape_1/shape", "op": "Const", "attr": {"value": {"tensor": {"dtype": "DT_INT32", "tensorShape": {"dim": [{"size": "1"}]}}}, "dtype": {"type": "DT_INT32"}}, "inputs": []}, {"name": "StatefulPartitionedCall/jax2tf_apply_/ActorCriticTransformerFlats/ActorCriticTransformerFlats/GeneralActorCriticRNN_0/Dense_1/ExpandDims/dim", "op": "Const", "attr": {"value": {"tensor": {"dtype": "DT_INT32", "tensorShape": {}}}, "dtype": {"type": "DT_INT32"}}, "inputs": []}, {"name": "StatefulPartitionedCall/jax2tf_arg_11/ReadVariableOp", "op": "Const", "attr": {"value": {"tensor": {"dtype": "DT_FLOAT", "tensorShape": {"dim": [{"size": "1024"}, {"size": "512"}]}}}, "dtype": {"type": "DT_FLOAT"}}, "inputs": []}, {"name": "StatefulPartitionedCall/jax2tf_arg_10/ReadVariableOp", "op": "Const", "attr": {"value": {"tensor": {"dtype": "DT_FLOAT", "tensorShape": {"dim": [{"size": "512"}]}}}, "dtype": {"type": "DT_FLOAT"}}, "inputs": []}, {"name": "StatefulPartitionedCall/jax2tf_apply_/ActorCriticTransformerFlats/ActorCriticTransformerFlats/GeneralActorCriticRNN_0/Dense_3/ExpandDims/dim", "op": "Const", "attr": {"value": {"tensor": {"dtype": "DT_INT32", "tensorShape": {}}}, "dtype": {"type": "DT_INT32"}}, "inputs": []}, {"name": "StatefulPartitionedCall/jax2tf_arg_19/ReadVariableOp", "op": "Const", "attr": {"value": {"tensor": {"dtype": "DT_FLOAT", "tensorShape": {"dim": [{"size": "512"}, {"size": "512"}]}}}, "dtype": {"type": "DT_FLOAT"}}, "inputs": []}, {"name": "StatefulPartitionedCall/jax2tf_arg_18/ReadVariableOp", "op": "Const", "attr": {"value": {"tensor": {"dtype": "DT_FLOAT", "tensorShape": {"dim": [{"size": "512"}]}}}, "dtype": {"type": "DT_FLOAT"}}, "inputs": []}, {"name": "StatefulPartitionedCall/jax2tf_apply_/ActorCriticTransformerFlats/ActorCriticTransformerFlats/GeneralActorCriticRNN_0/Dense_5/ExpandDims/dim", "op": "Const", "attr": {"value": {"tensor": {"dtype": "DT_INT32", "tensorShape": {}}}, "dtype": {"type": "DT_INT32"}}, "inputs": []}, {"name": "StatefulPartitionedCall/jax2tf_arg_23/ReadVariableOp", "op": "Const", "attr": {"value": {"tensor": {"dtype": "DT_FLOAT", "tensorShape": {"dim": [{"size": "512"}, {"size": "512"}]}}}, "dtype": {"type": "DT_FLOAT"}}, "inputs": []}, {"name": "StatefulPartitionedCall/jax2tf_arg_22/ReadVariableOp", "op": "Const", "attr": {"value": {"tensor": {"dtype": "DT_FLOAT", "tensorShape": {"dim": [{"size": "512"}]}}}, "dtype": {"type": "DT_FLOAT"}}, "inputs": []}, {"name": "StatefulPartitionedCall/jax2tf_apply_/ActorCriticTransformerFlats/ActorCriticTransformerFlats/GeneralActorCriticRNN_0/Dense_7/ExpandDims/dim", "op": "Const", "attr": {"value": {"tensor": {"dtype": "DT_INT32", "tensorShape": {}}}, "dtype": {"type": "DT_INT32"}}, "inputs": []}, {"name": "StatefulPartitionedCall/jax2tf_arg_27/ReadVariableOp", "op": "Const", "attr": {"value": {"tensor": {"dtype": "DT_FLOAT", "tensorShape": {"dim": [{"size": "512"}, {"size": "512"}]}}}, "dtype": {"type": "DT_FLOAT"}}, "inputs": []}, {"name": "StatefulPartitionedCall/jax2tf_arg_26/ReadVariableOp", "op": "Const", "attr": {"value": {"tensor": {"dtype": "DT_FLOAT", "tensorShape": {"dim": [{"size": "512"}]}}}, "dtype": {"type": "DT_FLOAT"}}, "inputs": []}, {"name": "StatefulPartitionedCall/jax2tf_apply_/ActorCriticTransformerFlats/ActorCriticTransformerFlats/GeneralActorCriticRNN_0/Dense_9/ExpandDims/dim", "op": "Const", "attr": {"value": {"tensor": {"dtype": "DT_INT32", "tensorShape": {}}}, "dtype": {"type": "DT_INT32"}}, "inputs": []}, {"name": "StatefulPartitionedCall/jax2tf_arg_31/ReadVariableOp", "op": "Const", "attr": {"value": {"tensor": {"dtype": "DT_FLOAT", "tensorShape": {"dim": [{"size": "512"}, {"size": "512"}]}}}, "dtype": {"type": "DT_FLOAT"}}, "inputs": []}, {"name": "StatefulPartitionedCall/jax2tf_arg_30/ReadVariableOp", "op": "Const", "attr": {"value": {"tensor": {"dtype": "DT_FLOAT", "tensorShape": {"dim": [{"size": "512"}]}}}, "dtype": {"type": "DT_FLOAT"}}, "inputs": []}, {"name": "StatefulPartitionedCall/jax2tf_apply_/ActorCriticTransformerFlats/ActorCriticTransformerFlats/GeneralActorCriticRNN_0/Dense_11/ExpandDims/dim", "op": "Const", "attr": {"value": {"tensor": {"dtype": "DT_INT32", "tensorShape": {}}}, "dtype": {"type": "DT_INT32"}}, "inputs": []}, {"name": "StatefulPartitionedCall/jax2tf_arg_15/ReadVariableOp", "op": "Const", "attr": {"value": {"tensor": {"dtype": "DT_FLOAT", "tensorShape": {"dim": [{"size": "512"}, {"size": "1"}]}}}, "dtype": {"type": "DT_FLOAT"}}, "inputs": []}, {"name": "StatefulPartitionedCall/jax2tf_arg_14/ReadVariableOp", "op": "Const", "attr": {"value": {"tensor": {"dtype": "DT_FLOAT", "tensorShape": {"dim": [{"size": "1"}]}}}, "dtype": {"type": "DT_FLOAT"}}, "inputs": []}, {"name": "StatefulPartitionedCall/jax2tf_apply_/ActorCriticTransformerFlats/ActorCriticTransformerFlats/GeneralActorCriticRNN_0/pjit__squeeze_/Reshape/shape_1", "op": "Const", "attr": {"value": {"tensor": {"dtype": "DT_INT32", "tensorShape": {"dim": [{}]}}}, "dtype": {"type": "DT_INT32"}}, "inputs": []}, {"name": "StatefulPartitionedCall/jax2tf_apply_/strided_slice_11/stack", "op": "Const", "attr": {"value": {"tensor": {"dtype": "DT_INT32", "tensorShape": {"dim": [{"size": "1"}]}}}, "dtype": {"type": "DT_INT32"}}, "inputs": []}, {"name": "StatefulPartitionedCall/jax2tf_apply_/strided_slice_11/stack_1", "op": "Const", "attr": {"value": {"tensor": {"dtype": "DT_INT32", "tensorShape": {"dim": [{"size": "1"}]}}}, "dtype": {"type": "DT_INT32"}}, "inputs": []}, {"name": "StatefulPartitionedCall/jax2tf_apply_/strided_slice_11/stack_2", "op": "Const", "attr": {"value": {"tensor": {"dtype": "DT_INT32", "tensorShape": {"dim": [{"size": "1"}]}}}, "dtype": {"type": "DT_INT32"}}, "inputs": []}, {"name": "StatefulPartitionedCall/jax2tf_apply_/assert_equal_23/y", "op": "Const", "attr": {"value": {"tensor": {"dtype": "DT_BOOL", "tensorShape": {}}}, "dtype": {"type": "DT_BOOL"}}, "inputs": []}, {"name": "StatefulPartitionedCall/jax2tf_apply_/strided_slice_10/stack", "op": "Const", "attr": {"value": {"tensor": {"dtype": "DT_INT32", "tensorShape": {"dim": [{"size": "1"}]}}}, "dtype": {"type": "DT_INT32"}}, "inputs": []}, {"name": "StatefulPartitionedCall/jax2tf_apply_/strided_slice_10/stack_1", "op": "Const", "attr": {"value": {"tensor": {"dtype": "DT_INT32", "tensorShape": {"dim": [{"size": "1"}]}}}, "dtype": {"type": "DT_INT32"}}, "inputs": []}, {"name": "StatefulPartitionedCall/jax2tf_apply_/strided_slice_10/stack_2", "op": "Const", "attr": {"value": {"tensor": {"dtype": "DT_INT32", "tensorShape": {"dim": [{"size": "1"}]}}}, "dtype": {"type": "DT_INT32"}}, "inputs": []}, {"name": "StatefulPartitionedCall/jax2tf_apply_/assert_equal_21/y", "op": "Const", "attr": {"value": {"tensor": {"dtype": "DT_BOOL", "tensorShape": {}}}, "dtype": {"type": "DT_BOOL"}}, "inputs": []}, {"name": "StatefulPartitionedCall/jax2tf_apply_/strided_slice_9/stack", "op": "Const", "attr": {"value": {"tensor": {"dtype": "DT_INT32", "tensorShape": {"dim": [{"size": "1"}]}}}, "dtype": {"type": "DT_INT32"}}, "inputs": []}, {"name": "StatefulPartitionedCall/jax2tf_apply_/strided_slice_9/stack_1", "op": "Const", "attr": {"value": {"tensor": {"dtype": "DT_INT32", "tensorShape": {"dim": [{"size": "1"}]}}}, "dtype": {"type": "DT_INT32"}}, "inputs": []}, {"name": "StatefulPartitionedCall/jax2tf_apply_/strided_slice_9/stack_2", "op": "Const", "attr": {"value": {"tensor": {"dtype": "DT_INT32", "tensorShape": {"dim": [{"size": "1"}]}}}, "dtype": {"type": "DT_INT32"}}, "inputs": []}, {"name": "StatefulPartitionedCall/jax2tf_apply_/assert_equal_19/y", "op": "Const", "attr": {"value": {"tensor": {"dtype": "DT_BOOL", "tensorShape": {}}}, "dtype": {"type": "DT_BOOL"}}, "inputs": []}, {"name": "StatefulPartitionedCall/jax2tf_apply_/strided_slice_8/stack", "op": "Const", "attr": {"value": {"tensor": {"dtype": "DT_INT32", "tensorShape": {"dim": [{"size": "1"}]}}}, "dtype": {"type": "DT_INT32"}}, "inputs": []}, {"name": "StatefulPartitionedCall/jax2tf_apply_/strided_slice_8/stack_1", "op": "Const", "attr": {"value": {"tensor": {"dtype": "DT_INT32", "tensorShape": {"dim": [{"size": "1"}]}}}, "dtype": {"type": "DT_INT32"}}, "inputs": []}, {"name": "StatefulPartitionedCall/jax2tf_apply_/strided_slice_8/stack_2", "op": "Const", "attr": {"value": {"tensor": {"dtype": "DT_INT32", "tensorShape": {"dim": [{"size": "1"}]}}}, "dtype": {"type": "DT_INT32"}}, "inputs": []}, {"name": "StatefulPartitionedCall/jax2tf_apply_/assert_equal_17/y", "op": "Const", "attr": {"value": {"tensor": {"dtype": "DT_BOOL", "tensorShape": {}}}, "dtype": {"type": "DT_BOOL"}}, "inputs": []}, {"name": "StatefulPartitionedCall/jax2tf_apply_/strided_slice_7/stack", "op": "Const", "attr": {"value": {"tensor": {"dtype": "DT_INT32", "tensorShape": {"dim": [{"size": "1"}]}}}, "dtype": {"type": "DT_INT32"}}, "inputs": []}, {"name": "StatefulPartitionedCall/jax2tf_apply_/strided_slice_7/stack_1", "op": "Const", "attr": {"value": {"tensor": {"dtype": "DT_INT32", "tensorShape": {"dim": [{"size": "1"}]}}}, "dtype": {"type": "DT_INT32"}}, "inputs": []}, {"name": "StatefulPartitionedCall/jax2tf_apply_/strided_slice_7/stack_2", "op": "Const", "attr": {"value": {"tensor": {"dtype": "DT_INT32", "tensorShape": {"dim": [{"size": "1"}]}}}, "dtype": {"type": "DT_INT32"}}, "inputs": []}, {"name": "StatefulPartitionedCall/jax2tf_apply_/assert_equal_15/y", "op": "Const", "attr": {"value": {"tensor": {"dtype": "DT_BOOL", "tensorShape": {}}}, "dtype": {"type": "DT_BOOL"}}, "inputs": []}, {"name": "StatefulPartitionedCall/jax2tf_apply_/strided_slice_6/stack", "op": "Const", "attr": {"value": {"tensor": {"dtype": "DT_INT32", "tensorShape": {"dim": [{"size": "1"}]}}}, "dtype": {"type": "DT_INT32"}}, "inputs": []}, {"name": "StatefulPartitionedCall/jax2tf_apply_/strided_slice_6/stack_1", "op": "Const", "attr": {"value": {"tensor": {"dtype": "DT_INT32", "tensorShape": {"dim": [{"size": "1"}]}}}, "dtype": {"type": "DT_INT32"}}, "inputs": []}, {"name": "StatefulPartitionedCall/jax2tf_apply_/strided_slice_6/stack_2", "op": "Const", "attr": {"value": {"tensor": {"dtype": "DT_INT32", "tensorShape": {"dim": [{"size": "1"}]}}}, "dtype": {"type": "DT_INT32"}}, "inputs": []}, {"name": "StatefulPartitionedCall/jax2tf_apply_/assert_equal_13/y", "op": "Const", "attr": {"value": {"tensor": {"dtype": "DT_BOOL", "tensorShape": {}}}, "dtype": {"type": "DT_BOOL"}}, "inputs": []}, {"name": "StatefulPartitionedCall/jax2tf_apply_/strided_slice_5/stack", "op": "Const", "attr": {"value": {"tensor": {"dtype": "DT_INT32", "tensorShape": {"dim": [{"size": "1"}]}}}, "dtype": {"type": "DT_INT32"}}, "inputs": []}, {"name": "StatefulPartitionedCall/jax2tf_apply_/strided_slice_5/stack_1", "op": "Const", "attr": {"value": {"tensor": {"dtype": "DT_INT32", "tensorShape": {"dim": [{"size": "1"}]}}}, "dtype": {"type": "DT_INT32"}}, "inputs": []}, {"name": "StatefulPartitionedCall/jax2tf_apply_/strided_slice_5/stack_2", "op": "Const", "attr": {"value": {"tensor": {"dtype": "DT_INT32", "tensorShape": {"dim": [{"size": "1"}]}}}, "dtype": {"type": "DT_INT32"}}, "inputs": []}, {"name": "StatefulPartitionedCall/jax2tf_apply_/assert_equal_11/y", "op": "Const", "attr": {"value": {"tensor": {"dtype": "DT_BOOL", "tensorShape": {}}}, "dtype": {"type": "DT_BOOL"}}, "inputs": []}, {"name": "StatefulPartitionedCall/jax2tf_apply_/strided_slice_4/stack", "op": "Const", "attr": {"value": {"tensor": {"dtype": "DT_INT32", "tensorShape": {"dim": [{"size": "1"}]}}}, "dtype": {"type": "DT_INT32"}}, "inputs": []}, {"name": "StatefulPartitionedCall/jax2tf_apply_/strided_slice_4/stack_1", "op": "Const", "attr": {"value": {"tensor": {"dtype": "DT_INT32", "tensorShape": {"dim": [{"size": "1"}]}}}, "dtype": {"type": "DT_INT32"}}, "inputs": []}, {"name": "StatefulPartitionedCall/jax2tf_apply_/strided_slice_4/stack_2", "op": "Const", "attr": {"value": {"tensor": {"dtype": "DT_INT32", "tensorShape": {"dim": [{"size": "1"}]}}}, "dtype": {"type": "DT_INT32"}}, "inputs": []}, {"name": "StatefulPartitionedCall/jax2tf_apply_/assert_equal_9/y", "op": "Const", "attr": {"value": {"tensor": {"dtype": "DT_BOOL", "tensorShape": {}}}, "dtype": {"type": "DT_BOOL"}}, "inputs": []}, {"name": "StatefulPartitionedCall/jax2tf_apply_/strided_slice_3/stack", "op": "Const", "attr": {"value": {"tensor": {"dtype": "DT_INT32", "tensorShape": {"dim": [{"size": "1"}]}}}, "dtype": {"type": "DT_INT32"}}, "inputs": []}, {"name": "StatefulPartitionedCall/jax2tf_apply_/strided_slice_3/stack_1", "op": "Const", "attr": {"value": {"tensor": {"dtype": "DT_INT32", "tensorShape": {"dim": [{"size": "1"}]}}}, "dtype": {"type": "DT_INT32"}}, "inputs": []}, {"name": "StatefulPartitionedCall/jax2tf_apply_/strided_slice_3/stack_2", "op": "Const", "attr": {"value": {"tensor": {"dtype": "DT_INT32", "tensorShape": {"dim": [{"size": "1"}]}}}, "dtype": {"type": "DT_INT32"}}, "inputs": []}, {"name": "StatefulPartitionedCall/Const_3", "op": "Const", "attr": {"value": {"tensor": {"dtype": "DT_INT32", "tensorShape": {}}}, "dtype": {"type": "DT_INT32"}}, "inputs": []}, {"name": "StatefulPartitionedCall/jax2tf_apply_/assert_equal_7/y", "op": "Const", "attr": {"value": {"tensor": {"dtype": "DT_BOOL", "tensorShape": {}}}, "dtype": {"type": "DT_BOOL"}}, "inputs": []}, {"name": "StatefulPartitionedCall/jax2tf_apply_/strided_slice_2/stack", "op": "Const", "attr": {"value": {"tensor": {"dtype": "DT_INT32", "tensorShape": {"dim": [{"size": "1"}]}}}, "dtype": {"type": "DT_INT32"}}, "inputs": []}, {"name": "StatefulPartitionedCall/jax2tf_apply_/strided_slice_2/stack_1", "op": "Const", "attr": {"value": {"tensor": {"dtype": "DT_INT32", "tensorShape": {"dim": [{"size": "1"}]}}}, "dtype": {"type": "DT_INT32"}}, "inputs": []}, {"name": "StatefulPartitionedCall/jax2tf_apply_/strided_slice_2/stack_2", "op": "Const", "attr": {"value": {"tensor": {"dtype": "DT_INT32", "tensorShape": {"dim": [{"size": "1"}]}}}, "dtype": {"type": "DT_INT32"}}, "inputs": []}, {"name": "StatefulPartitionedCall/Const_2", "op": "Const", "attr": {"value": {"tensor": {"dtype": "DT_INT32", "tensorShape": {}}}, "dtype": {"type": "DT_INT32"}}, "inputs": []}, {"name": "StatefulPartitionedCall/jax2tf_apply_/assert_equal_5/y", "op": "Const", "attr": {"value": {"tensor": {"dtype": "DT_BOOL", "tensorShape": {}}}, "dtype": {"type": "DT_BOOL"}}, "inputs": []}, {"name": "StatefulPartitionedCall/jax2tf_apply_/strided_slice_1/stack", "op": "Const", "attr": {"value": {"tensor": {"dtype": "DT_INT32", "tensorShape": {"dim": [{"size": "1"}]}}}, "dtype": {"type": "DT_INT32"}}, "inputs": []}, {"name": "StatefulPartitionedCall/jax2tf_apply_/strided_slice_1/stack_1", "op": "Const", "attr": {"value": {"tensor": {"dtype": "DT_INT32", "tensorShape": {"dim": [{"size": "1"}]}}}, "dtype": {"type": "DT_INT32"}}, "inputs": []}, {"name": "StatefulPartitionedCall/jax2tf_apply_/strided_slice_1/stack_2", "op": "Const", "attr": {"value": {"tensor": {"dtype": "DT_INT32", "tensorShape": {"dim": [{"size": "1"}]}}}, "dtype": {"type": "DT_INT32"}}, "inputs": []}, {"name": "StatefulPartitionedCall/Const_1", "op": "Const", "attr": {"value": {"tensor": {"dtype": "DT_INT32", "tensorShape": {}}}, "dtype": {"type": "DT_INT32"}}, "inputs": []}, {"name": "StatefulPartitionedCall/jax2tf_apply_/assert_equal_3/y", "op": "Const", "attr": {"value": {"tensor": {"dtype": "DT_BOOL", "tensorShape": {}}}, "dtype": {"type": "DT_BOOL"}}, "inputs": []}, {"name": "StatefulPartitionedCall/jax2tf_apply_/strided_slice/stack", "op": "Const", "attr": {"value": {"tensor": {"dtype": "DT_INT32", "tensorShape": {"dim": [{"size": "1"}]}}}, "dtype": {"type": "DT_INT32"}}, "inputs": []}, {"name": "StatefulPartitionedCall/jax2tf_apply_/strided_slice/stack_1", "op": "Const", "attr": {"value": {"tensor": {"dtype": "DT_INT32", "tensorShape": {"dim": [{"size": "1"}]}}}, "dtype": {"type": "DT_INT32"}}, "inputs": []}, {"name": "StatefulPartitionedCall/jax2tf_apply_/strided_slice/stack_2", "op": "Const", "attr": {"value": {"tensor": {"dtype": "DT_INT32", "tensorShape": {"dim": [{"size": "1"}]}}}, "dtype": {"type": "DT_INT32"}}, "inputs": []}, {"name": "StatefulPartitionedCall/Const", "op": "Const", "attr": {"value": {"tensor": {"dtype": "DT_INT32", "tensorShape": {}}}, "dtype": {"type": "DT_INT32"}}, "inputs": []}, {"name": "StatefulPartitionedCall/jax2tf_apply_/assert_equal_1/y", "op": "Const", "attr": {"value": {"tensor": {"dtype": "DT_BOOL", "tensorShape": {}}}, "dtype": {"type": "DT_BOOL"}}, "inputs": []}, {"name": "xs_0", "op": "Placeholder", "attr": {"shape": {"shape": {"dim": [{"size": "1"}, {"size": "256"}]}}, "dtype": {"type": "DT_FLOAT"}}, "inputs": []}, {"name": "xs_1", "op": "Placeholder", "attr": {"shape": {"shape": {"dim": [{"size": "1"}]}}, "dtype": {"type": "DT_FLOAT"}}, "inputs": []}, {"name": "xs_10", "op": "Placeholder", "attr": {"shape": {"shape": {"dim": [{"size": "4"}, {"size": "-1"}, {"size": "-1"}]}}, "dtype": {"type": "DT_BOOL"}}, "inputs": []}, {"name": "xs_11", "op": "Placeholder", "attr": {"shape": {"shape": {"dim": [{"size": "-1"}, {"size": "2"}]}}, "dtype": {"type": "DT_INT32"}}, "inputs": []}, {"name": "xs_12", "op": "Placeholder", "attr": {"shape": {"shape": {"dim": [{"size": "-1"}]}}, "dtype": {"type": "DT_INT32"}}, "inputs": []}, {"name": "xs_2", "op": "Placeholder", "attr": {"shape": {"shape": {"dim": [{"size": "-1"}, {"size": "19"}]}}, "dtype": {"type": "DT_FLOAT"}}, "inputs": []}, {"name": "xs_3", "op": "Placeholder", "attr": {"shape": {"shape": {"dim": [{"size": "-1"}, {"size": "27"}]}}, "dtype": {"type": "DT_FLOAT"}}, "inputs": []}, {"name": "xs_4", "op": "Placeholder", "attr": {"shape": {"shape": {"dim": [{"size": "-1"}, {"size": "76"}]}}, "dtype": {"type": "DT_FLOAT"}}, "inputs": []}, {"name": "xs_5", "op": "Placeholder", "attr": {"shape": {"shape": {"dim": [{"size": "-1"}, {"size": "35"}]}}, "dtype": {"type": "DT_FLOAT"}}, "inputs": []}, {"name": "xs_6", "op": "Placeholder", "attr": {"shape": {"shape": {"dim": [{"size": "-1"}]}}, "dtype": {"type": "DT_BOOL"}}, "inputs": []}, {"name": "xs_7", "op": "Placeholder", "attr": {"shape": {"shape": {"dim": [{"size": "-1"}]}}, "dtype": {"type": "DT_BOOL"}}, "inputs": []}, {"name": "xs_8", "op": "Placeholder", "attr": {"shape": {"shape": {"dim": [{"size": "-1"}]}}, "dtype": {"type": "DT_BOOL"}}, "inputs": []}, {"name": "xs_9", "op": "Placeholder", "attr": {"shape": {"shape": {"dim": [{"size": "-1"}]}}, "dtype": {"type": "DT_BOOL"}}, "inputs": []}, {"name": "StatefulPartitionedCall/jax2tf_apply_/Shape_9", "op": "Shape", "input": ["xs_10"], "attr": {"T": {"type": "DT_BOOL"}, "out_type": {"type": "DT_INT32"}}, "experimentalType": {"typeId": "TFT_PRODUCT", "args": [{"typeId": "TFT_SHAPE_TENSOR", "args": [{"typeId": "TFT_INT32"}]}]}, "inputs": ["xs_10"]}, {"name": "StatefulPartitionedCall/jax2tf_apply_/Shape_8", "op": "Shape", "input": ["xs_10"], "attr": {"T": {"type": "DT_BOOL"}, "out_type": {"type": "DT_INT32"}}, "experimentalType": {"typeId": "TFT_PRODUCT", "args": [{"typeId": "TFT_SHAPE_TENSOR", "args": [{"typeId": "TFT_INT32"}]}]}, "inputs": ["xs_10"]}, {"name": "StatefulPartitionedCall/jax2tf_apply_/Shape_10", "op": "Shape", "input": ["xs_11"], "attr": {"T": {"type": "DT_INT32"}, "out_type": {"type": "DT_INT32"}}, "experimentalType": {"typeId": "TFT_PRODUCT", "args": [{"typeId": "TFT_SHAPE_TENSOR", "args": [{"typeId": "TFT_INT32"}]}]}, "inputs": ["xs_11"]}, {"name": "StatefulPartitionedCall/jax2tf_apply_/Shape_11", "op": "Shape", "input": ["xs_12"], "attr": {"T": {"type": "DT_INT32"}, "out_type": {"type": "DT_INT32"}}, "experimentalType": {"typeId": "TFT_PRODUCT", "args": [{"typeId": "TFT_SHAPE_TENSOR", "args": [{"typeId": "TFT_INT32"}]}]}, "inputs": ["xs_12"]}, {"name": "StatefulPartitionedCall/jax2tf_apply_/ActorCriticTransformerFlats/ActorCriticTransformerFlats/pjit_tanh_/Tanh", "op": "_FusedMatMul", "input": ["xs_2", "StatefulPartitionedCall/jax2tf_arg_1/ReadVariableOp", "StatefulPartitionedCall/jax2tf_apply_/ActorCriticTransformerFlats/ActorCriticTransformerFlats/Dense_0/Reshape"], "device": "/device:CPU:0", "attr": {"transpose_a": {"b": false}, "_input_shapes": {"list": {"shape": [{"dim": [{"size": "-22"}, {"size": "19"}]}, {"dim": [{"size": "19"}, {"size": "252"}]}]}}, "transpose_b": {"b": false}, "fused_ops": {"list": {"s": ["Qmlhc0FkZA==", "VGFuaA=="]}}, "num_args": {"i": "1"}, "leakyrelu_alpha": {"f": 0.2}, "epsilon": {"f": 0.0}, "T": {"type": "DT_FLOAT"}}, "inputs": ["xs_2", "StatefulPartitionedCall/jax2tf_arg_1/ReadVariableOp", "StatefulPartitionedCall/jax2tf_apply_/ActorCriticTransformerFlats/ActorCriticTransformerFlats/Dense_0/Reshape"]}, {"name": "StatefulPartitionedCall/jax2tf_apply_/Shape", "op": "Shape", "input": ["xs_2"], "attr": {"T": {"type": "DT_FLOAT"}, "out_type": {"type": "DT_INT32"}}, "experimentalType": {"typeId": "TFT_PRODUCT", "args": [{"typeId": "TFT_SHAPE_TENSOR", "args": [{"typeId": "TFT_INT32"}]}]}, "inputs": ["xs_2"]}, {"name": "StatefulPartitionedCall/jax2tf_apply_/ActorCriticTransformerFlats/ActorCriticTransformerFlats/pjit_tanh_/Tanh_1", "op": "_FusedMatMul", "input": ["xs_3", "StatefulPartitionedCall/jax2tf_arg_3/ReadVariableOp", "StatefulPartitionedCall/jax2tf_apply_/ActorCriticTransformerFlats/ActorCriticTransformerFlats/Dense_1/Reshape"], "device": "/device:CPU:0", "attr": {"transpose_a": {"b": false}, "_input_shapes": {"list": {"shape": [{"dim": [{"size": "-25"}, {"size": "27"}]}, {"dim": [{"size": "27"}, {"size": "252"}]}]}}, "transpose_b": {"b": false}, "fused_ops": {"list": {"s": ["Qmlhc0FkZA==", "VGFuaA=="]}}, "leakyrelu_alpha": {"f": 0.2}, "num_args": {"i": "1"}, "epsilon": {"f": 0.0}, "T": {"type": "DT_FLOAT"}}, "inputs": ["xs_3", "StatefulPartitionedCall/jax2tf_arg_3/ReadVariableOp", "StatefulPartitionedCall/jax2tf_apply_/ActorCriticTransformerFlats/ActorCriticTransformerFlats/Dense_1/Reshape"]}, {"name": "StatefulPartitionedCall/jax2tf_apply_/Shape_1", "op": "Shape", "input": ["xs_3"], "attr": {"T": {"type": "DT_FLOAT"}, "out_type": {"type": "DT_INT32"}}, "experimentalType": {"typeId": "TFT_PRODUCT", "args": [{"typeId": "TFT_SHAPE_TENSOR", "args": [{"typeId": "TFT_INT32"}]}]}, "inputs": ["xs_3"]}, {"name": "StatefulPartitionedCall/jax2tf_apply_/ActorCriticTransformerFlats/ActorCriticTransformerFlats/pjit_tanh_/Tanh_2", "op": "_FusedMatMul", "input": ["xs_4", "StatefulPartitionedCall/jax2tf_arg_5/ReadVariableOp", "StatefulPartitionedCall/jax2tf_apply_/ActorCriticTransformerFlats/ActorCriticTransformerFlats/Dense_2/Reshape"], "device": "/device:CPU:0", "attr": {"transpose_a": {"b": false}, "_input_shapes": {"list": {"shape": [{"dim": [{"size": "-28"}, {"size": "76"}]}, {"dim": [{"size": "76"}, {"size": "252"}]}]}}, "transpose_b": {"b": false}, "fused_ops": {"list": {"s": ["Qmlhc0FkZA==", "VGFuaA=="]}}, "leakyrelu_alpha": {"f": 0.2}, "num_args": {"i": "1"}, "epsilon": {"f": 0.0}, "T": {"type": "DT_FLOAT"}}, "inputs": ["xs_4", "StatefulPartitionedCall/jax2tf_arg_5/ReadVariableOp", "StatefulPartitionedCall/jax2tf_apply_/ActorCriticTransformerFlats/ActorCriticTransformerFlats/Dense_2/Reshape"]}, {"name": "StatefulPartitionedCall/jax2tf_apply_/Shape_2", "op": "Shape", "input": ["xs_4"], "attr": {"T": {"type": "DT_FLOAT"}, "out_type": {"type": "DT_INT32"}}, "experimentalType": {"typeId": "TFT_PRODUCT", "args": [{"typeId": "TFT_SHAPE_TENSOR", "args": [{"typeId": "TFT_INT32"}]}]}, "inputs": ["xs_4"]}, {"name": "StatefulPartitionedCall/jax2tf_apply_/ActorCriticTransformerFlats/ActorCriticTransformerFlats/pjit_tanh_/Tanh_3", "op": "_FusedMatMul", "input": ["xs_5", "StatefulPartitionedCall/jax2tf_arg_7/ReadVariableOp", "StatefulPartitionedCall/jax2tf_apply_/ActorCriticTransformerFlats/ActorCriticTransformerFlats/Dense_3/Reshape"], "device": "/device:CPU:0", "attr": {"transpose_a": {"b": false}, "_input_shapes": {"list": {"shape": [{"dim": [{"size": "-31"}, {"size": "35"}]}, {"dim": [{"size": "35"}, {"size": "252"}]}]}}, "transpose_b": {"b": false}, "fused_ops": {"list": {"s": ["Qmlhc0FkZA==", "VGFuaA=="]}}, "num_args": {"i": "1"}, "leakyrelu_alpha": {"f": 0.2}, "epsilon": {"f": 0.0}, "T": {"type": "DT_FLOAT"}}, "inputs": ["xs_5", "StatefulPartitionedCall/jax2tf_arg_7/ReadVariableOp", "StatefulPartitionedCall/jax2tf_apply_/ActorCriticTransformerFlats/ActorCriticTransformerFlats/Dense_3/Reshape"]}, {"name": "StatefulPartitionedCall/jax2tf_apply_/Shape_3", "op": "Shape", "input": ["xs_5"], "attr": {"T": {"type": "DT_FLOAT"}, "out_type": {"type": "DT_INT32"}}, "experimentalType": {"typeId": "TFT_PRODUCT", "args": [{"typeId": "TFT_SHAPE_TENSOR", "args": [{"typeId": "TFT_INT32"}]}]}, "inputs": ["xs_5"]}, {"name": "StatefulPartitionedCall/jax2tf_apply_/Shape_4", "op": "Shape", "input": ["xs_6"], "attr": {"T": {"type": "DT_BOOL"}, "out_type": {"type": "DT_INT32"}}, "experimentalType": {"typeId": "TFT_PRODUCT", "args": [{"typeId": "TFT_SHAPE_TENSOR", "args": [{"typeId": "TFT_INT32"}]}]}, "inputs": ["xs_6"]}, {"name": "StatefulPartitionedCall/jax2tf_apply_/Shape_5", "op": "Shape", "input": ["xs_7"], "attr": {"T": {"type": "DT_BOOL"}, "out_type": {"type": "DT_INT32"}}, "experimentalType": {"typeId": "TFT_PRODUCT", "args": [{"typeId": "TFT_SHAPE_TENSOR", "args": [{"typeId": "TFT_INT32"}]}]}, "inputs": ["xs_7"]}, {"name": "StatefulPartitionedCall/jax2tf_apply_/Shape_6", "op": "Shape", "input": ["xs_8"], "attr": {"T": {"type": "DT_BOOL"}, "out_type": {"type": "DT_INT32"}}, "experimentalType": {"typeId": "TFT_PRODUCT", "args": [{"typeId": "TFT_SHAPE_TENSOR", "args": [{"typeId": "TFT_INT32"}]}]}, "inputs": ["xs_8"]}, {"name": "StatefulPartitionedCall/jax2tf_apply_/ActorCriticTransformerFlats/ActorCriticTransformerFlats/concat_5", "op": "ConcatV2", "input": ["xs_7", "xs_6", "xs_8", "xs_9", "StatefulPartitionedCall/jax2tf_apply_/ActorCriticTransformerFlats/ActorCriticTransformerFlats/Cast_9/x"], "attr": {"N": {"i": "4"}, "T": {"type": "DT_BOOL"}, "Tidx": {"type": "DT_INT32"}}, "inputs": ["xs_7", "xs_6", "xs_8", "xs_9", "StatefulPartitionedCall/jax2tf_apply_/ActorCriticTransformerFlats/ActorCriticTransformerFlats/Cast_9/x"]}, {"name": "StatefulPartitionedCall/jax2tf_apply_/Shape_7", "op": "Shape", "input": ["xs_9"], "attr": {"T": {"type": "DT_BOOL"}, "out_type": {"type": "DT_INT32"}}, "experimentalType": {"typeId": "TFT_PRODUCT", "args": [{"typeId": "TFT_SHAPE_TENSOR", "args": [{"typeId": "TFT_INT32"}]}]}, "inputs": ["xs_9"]}, {"name": "StatefulPartitionedCall/jax2tf_apply_/strided_slice_9", "op": "StridedSlice", "input": ["StatefulPartitionedCall/jax2tf_apply_/Shape_9", "StatefulPartitionedCall/jax2tf_apply_/strided_slice_9/stack", "StatefulPartitionedCall/jax2tf_apply_/strided_slice_9/stack_1", "StatefulPartitionedCall/jax2tf_apply_/strided_slice_9/stack_2"], "attr": {"shrink_axis_mask": {"i": "1"}, "Index": {"type": "DT_INT32"}, "new_axis_mask": {"i": "0"}, "begin_mask": {"i": "0"}, "end_mask": {"i": "0"}, "T": {"type": "DT_INT32"}, "ellipsis_mask": {"i": "0"}}, "inputs": ["StatefulPartitionedCall/jax2tf_apply_/Shape_9", "StatefulPartitionedCall/jax2tf_apply_/strided_slice_9/stack", "StatefulPartitionedCall/jax2tf_apply_/strided_slice_9/stack_1", "StatefulPartitionedCall/jax2tf_apply_/strided_slice_9/stack_2"]}, {"name": "StatefulPartitionedCall/jax2tf_apply_/strided_slice_8", "op": "StridedSlice", "input": ["StatefulPartitionedCall/jax2tf_apply_/Shape_8", "StatefulPartitionedCall/jax2tf_apply_/strided_slice_8/stack", "StatefulPartitionedCall/jax2tf_apply_/strided_slice_8/stack_1", "StatefulPartitionedCall/jax2tf_apply_/strided_slice_8/stack_2"], "attr": {"shrink_axis_mask": {"i": "1"}, "new_axis_mask": {"i": "0"}, "Index": {"type": "DT_INT32"}, "begin_mask": {"i": "0"}, "T": {"type": "DT_INT32"}, "end_mask": {"i": "0"}, "ellipsis_mask": {"i": "0"}}, "inputs": ["StatefulPartitionedCall/jax2tf_apply_/Shape_8", "StatefulPartitionedCall/jax2tf_apply_/strided_slice_8/stack", "StatefulPartitionedCall/jax2tf_apply_/strided_slice_8/stack_1", "StatefulPartitionedCall/jax2tf_apply_/strided_slice_8/stack_2"]}, {"name": "StatefulPartitionedCall/jax2tf_apply_/strided_slice_10", "op": "StridedSlice", "input": ["StatefulPartitionedCall/jax2tf_apply_/Shape_10", "StatefulPartitionedCall/jax2tf_apply_/strided_slice_10/stack", "StatefulPartitionedCall/jax2tf_apply_/strided_slice_10/stack_1", "StatefulPartitionedCall/jax2tf_apply_/strided_slice_10/stack_2"], "attr": {"shrink_axis_mask": {"i": "1"}, "new_axis_mask": {"i": "0"}, "Index": {"type": "DT_INT32"}, "begin_mask": {"i": "0"}, "end_mask": {"i": "0"}, "T": {"type": "DT_INT32"}, "ellipsis_mask": {"i": "0"}}, "inputs": ["StatefulPartitionedCall/jax2tf_apply_/Shape_10", "StatefulPartitionedCall/jax2tf_apply_/strided_slice_10/stack", "StatefulPartitionedCall/jax2tf_apply_/strided_slice_10/stack_1", "StatefulPartitionedCall/jax2tf_apply_/strided_slice_10/stack_2"]}, {"name": "StatefulPartitionedCall/jax2tf_apply_/strided_slice_11", "op": "StridedSlice", "input": ["StatefulPartitionedCall/jax2tf_apply_/Shape_11", "StatefulPartitionedCall/jax2tf_apply_/strided_slice_11/stack", "StatefulPartitionedCall/jax2tf_apply_/strided_slice_11/stack_1", "StatefulPartitionedCall/jax2tf_apply_/strided_slice_11/stack_2"], "attr": {"shrink_axis_mask": {"i": "1"}, "new_axis_mask": {"i": "0"}, "Index": {"type": "DT_INT32"}, "begin_mask": {"i": "0"}, "end_mask": {"i": "0"}, "T": {"type": "DT_INT32"}, "ellipsis_mask": {"i": "0"}}, "inputs": ["StatefulPartitionedCall/jax2tf_apply_/Shape_11", "StatefulPartitionedCall/jax2tf_apply_/strided_slice_11/stack", "StatefulPartitionedCall/jax2tf_apply_/strided_slice_11/stack_1", "StatefulPartitionedCall/jax2tf_apply_/strided_slice_11/stack_2"]}, {"name": "StatefulPartitionedCall/jax2tf_apply_/strided_slice", "op": "StridedSlice", "input": ["StatefulPartitionedCall/jax2tf_apply_/Shape", "StatefulPartitionedCall/jax2tf_apply_/strided_slice/stack", "StatefulPartitionedCall/jax2tf_apply_/strided_slice/stack_1", "StatefulPartitionedCall/jax2tf_apply_/strided_slice/stack_2"], "attr": {"shrink_axis_mask": {"i": "1"}, "Index": {"type": "DT_INT32"}, "new_axis_mask": {"i": "0"}, "begin_mask": {"i": "0"}, "end_mask": {"i": "0"}, "T": {"type": "DT_INT32"}, "ellipsis_mask": {"i": "0"}}, "inputs": ["StatefulPartitionedCall/jax2tf_apply_/Shape", "StatefulPartitionedCall/jax2tf_apply_/strided_slice/stack", "StatefulPartitionedCall/jax2tf_apply_/strided_slice/stack_1", "StatefulPartitionedCall/jax2tf_apply_/strided_slice/stack_2"]}, {"name": "StatefulPartitionedCall/jax2tf_apply_/strided_slice_1", "op": "StridedSlice", "input": ["StatefulPartitionedCall/jax2tf_apply_/Shape_1", "StatefulPartitionedCall/jax2tf_apply_/strided_slice_1/stack", "StatefulPartitionedCall/jax2tf_apply_/strided_slice_1/stack_1", "StatefulPartitionedCall/jax2tf_apply_/strided_slice_1/stack_2"], "attr": {"shrink_axis_mask": {"i": "1"}, "new_axis_mask": {"i": "0"}, "Index": {"type": "DT_INT32"}, "begin_mask": {"i": "0"}, "end_mask": {"i": "0"}, "T": {"type": "DT_INT32"}, "ellipsis_mask": {"i": "0"}}, "inputs": ["StatefulPartitionedCall/jax2tf_apply_/Shape_1", "StatefulPartitionedCall/jax2tf_apply_/strided_slice_1/stack", "StatefulPartitionedCall/jax2tf_apply_/strided_slice_1/stack_1", "StatefulPartitionedCall/jax2tf_apply_/strided_slice_1/stack_2"]}, {"name": "StatefulPartitionedCall/jax2tf_apply_/strided_slice_2", "op": "StridedSlice", "input": ["StatefulPartitionedCall/jax2tf_apply_/Shape_2", "StatefulPartitionedCall/jax2tf_apply_/strided_slice_2/stack", "StatefulPartitionedCall/jax2tf_apply_/strided_slice_2/stack_1", "StatefulPartitionedCall/jax2tf_apply_/strided_slice_2/stack_2"], "attr": {"shrink_axis_mask": {"i": "1"}, "new_axis_mask": {"i": "0"}, "Index": {"type": "DT_INT32"}, "begin_mask": {"i": "0"}, "T": {"type": "DT_INT32"}, "end_mask": {"i": "0"}, "ellipsis_mask": {"i": "0"}}, "inputs": ["StatefulPartitionedCall/jax2tf_apply_/Shape_2", "StatefulPartitionedCall/jax2tf_apply_/strided_slice_2/stack", "StatefulPartitionedCall/jax2tf_apply_/strided_slice_2/stack_1", "StatefulPartitionedCall/jax2tf_apply_/strided_slice_2/stack_2"]}, {"name": "StatefulPartitionedCall/jax2tf_apply_/strided_slice_3", "op": "StridedSlice", "input": ["StatefulPartitionedCall/jax2tf_apply_/Shape_3", "StatefulPartitionedCall/jax2tf_apply_/strided_slice_3/stack", "StatefulPartitionedCall/jax2tf_apply_/strided_slice_3/stack_1", "StatefulPartitionedCall/jax2tf_apply_/strided_slice_3/stack_2"], "attr": {"shrink_axis_mask": {"i": "1"}, "new_axis_mask": {"i": "0"}, "Index": {"type": "DT_INT32"}, "begin_mask": {"i": "0"}, "end_mask": {"i": "0"}, "T": {"type": "DT_INT32"}, "ellipsis_mask": {"i": "0"}}, "inputs": ["StatefulPartitionedCall/jax2tf_apply_/Shape_3", "StatefulPartitionedCall/jax2tf_apply_/strided_slice_3/stack", "StatefulPartitionedCall/jax2tf_apply_/strided_slice_3/stack_1", "StatefulPartitionedCall/jax2tf_apply_/strided_slice_3/stack_2"]}, {"name": "StatefulPartitionedCall/jax2tf_apply_/strided_slice_4", "op": "StridedSlice", "input": ["StatefulPartitionedCall/jax2tf_apply_/Shape_4", "StatefulPartitionedCall/jax2tf_apply_/strided_slice_4/stack", "StatefulPartitionedCall/jax2tf_apply_/strided_slice_4/stack_1", "StatefulPartitionedCall/jax2tf_apply_/strided_slice_4/stack_2"], "attr": {"shrink_axis_mask": {"i": "1"}, "new_axis_mask": {"i": "0"}, "Index": {"type": "DT_INT32"}, "begin_mask": {"i": "0"}, "end_mask": {"i": "0"}, "T": {"type": "DT_INT32"}, "ellipsis_mask": {"i": "0"}}, "inputs": ["StatefulPartitionedCall/jax2tf_apply_/Shape_4", "StatefulPartitionedCall/jax2tf_apply_/strided_slice_4/stack", "StatefulPartitionedCall/jax2tf_apply_/strided_slice_4/stack_1", "StatefulPartitionedCall/jax2tf_apply_/strided_slice_4/stack_2"]}, {"name": "StatefulPartitionedCall/jax2tf_apply_/strided_slice_5", "op": "StridedSlice", "input": ["StatefulPartitionedCall/jax2tf_apply_/Shape_5", "StatefulPartitionedCall/jax2tf_apply_/strided_slice_5/stack", "StatefulPartitionedCall/jax2tf_apply_/strided_slice_5/stack_1", "StatefulPartitionedCall/jax2tf_apply_/strided_slice_5/stack_2"], "attr": {"shrink_axis_mask": {"i": "1"}, "new_axis_mask": {"i": "0"}, "Index": {"type": "DT_INT32"}, "begin_mask": {"i": "0"}, "end_mask": {"i": "0"}, "T": {"type": "DT_INT32"}, "ellipsis_mask": {"i": "0"}}, "inputs": ["StatefulPartitionedCall/jax2tf_apply_/Shape_5", "StatefulPartitionedCall/jax2tf_apply_/strided_slice_5/stack", "StatefulPartitionedCall/jax2tf_apply_/strided_slice_5/stack_1", "StatefulPartitionedCall/jax2tf_apply_/strided_slice_5/stack_2"]}, {"name": "StatefulPartitionedCall/jax2tf_apply_/strided_slice_6", "op": "StridedSlice", "input": ["StatefulPartitionedCall/jax2tf_apply_/Shape_6", "StatefulPartitionedCall/jax2tf_apply_/strided_slice_6/stack", "StatefulPartitionedCall/jax2tf_apply_/strided_slice_6/stack_1", "StatefulPartitionedCall/jax2tf_apply_/strided_slice_6/stack_2"], "attr": {"shrink_axis_mask": {"i": "1"}, "Index": {"type": "DT_INT32"}, "new_axis_mask": {"i": "0"}, "begin_mask": {"i": "0"}, "end_mask": {"i": "0"}, "T": {"type": "DT_INT32"}, "ellipsis_mask": {"i": "0"}}, "inputs": ["StatefulPartitionedCall/jax2tf_apply_/Shape_6", "StatefulPartitionedCall/jax2tf_apply_/strided_slice_6/stack", "StatefulPartitionedCall/jax2tf_apply_/strided_slice_6/stack_1", "StatefulPartitionedCall/jax2tf_apply_/strided_slice_6/stack_2"]}, {"name": "StatefulPartitionedCall/jax2tf_apply_/strided_slice_7", "op": "StridedSlice", "input": ["StatefulPartitionedCall/jax2tf_apply_/Shape_7", "StatefulPartitionedCall/jax2tf_apply_/strided_slice_7/stack", "StatefulPartitionedCall/jax2tf_apply_/strided_slice_7/stack_1", "StatefulPartitionedCall/jax2tf_apply_/strided_slice_7/stack_2"], "attr": {"shrink_axis_mask": {"i": "1"}, "new_axis_mask": {"i": "0"}, "Index": {"type": "DT_INT32"}, "begin_mask": {"i": "0"}, "end_mask": {"i": "0"}, "T": {"type": "DT_INT32"}, "ellipsis_mask": {"i": "0"}}, "inputs": ["StatefulPartitionedCall/jax2tf_apply_/Shape_7", "StatefulPartitionedCall/jax2tf_apply_/strided_slice_7/stack", "StatefulPartitionedCall/jax2tf_apply_/strided_slice_7/stack_1", "StatefulPartitionedCall/jax2tf_apply_/strided_slice_7/stack_2"]}, {"name": "StatefulPartitionedCall/jax2tf_apply_/ActorCriticTransformerFlats/ActorCriticTransformerFlats/BroadcastTo/shape", "op": "Pack", "input": ["StatefulPartitionedCall/jax2tf_apply_/strided_slice", "StatefulPartitionedCall/jax2tf_apply_/ActorCriticTransformerFlats/ActorCriticTransformerFlats/BroadcastTo/shape/1"], "attr": {"N": {"i": "2"}, "axis": {"i": "0"}, "T": {"type": "DT_INT32"}}, "inputs": ["StatefulPartitionedCall/jax2tf_apply_/strided_slice", "StatefulPartitionedCall/jax2tf_apply_/ActorCriticTransformerFlats/ActorCriticTransformerFlats/BroadcastTo/shape/1"]}, {"name": "StatefulPartitionedCall/jax2tf_apply_/GreaterEqual", "op": "GreaterEqual", "input": ["StatefulPartitionedCall/jax2tf_apply_/strided_slice", "StatefulPartitionedCall/Const"], "attr": {"T": {"type": "DT_INT32"}}, "inputs": ["StatefulPartitionedCall/jax2tf_apply_/strided_slice", "StatefulPartitionedCall/Const"]}, {"name": "ConstantFolding/StatefulPartitionedCall/jax2tf_apply_/ActorCriticTransformerFlats/ActorCriticTransformerFlats/BroadcastTo_2/shape_const_axis", "op": "Const", "input": ["^StatefulPartitionedCall/jax2tf_apply_/strided_slice"], "attr": {"value": {"tensor": {"dtype": "DT_INT32", "tensorShape": {}}}, "dtype": {"type": "DT_INT32"}}, "inputs": ["^StatefulPartitionedCall/jax2tf_apply_/strided_slice"]}, {"name": "StatefulPartitionedCall/jax2tf_apply_/ActorCriticTransformerFlats/ActorCriticTransformerFlats/BroadcastTo_3/shape", "op": "Pack", "input": ["StatefulPartitionedCall/jax2tf_apply_/strided_slice_1", "StatefulPartitionedCall/jax2tf_apply_/ActorCriticTransformerFlats/ActorCriticTransformerFlats/BroadcastTo_3/shape/1"], "attr": {"N": {"i": "2"}, "axis": {"i": "0"}, "T": {"type": "DT_INT32"}}, "inputs": ["StatefulPartitionedCall/jax2tf_apply_/strided_slice_1", "StatefulPartitionedCall/jax2tf_apply_/ActorCriticTransformerFlats/ActorCriticTransformerFlats/BroadcastTo_3/shape/1"]}, {"name": "StatefulPartitionedCall/jax2tf_apply_/pjit_add_/AddV2_2", "op": "AddV2", "input": ["StatefulPartitionedCall/jax2tf_apply_/strided_slice_1", "StatefulPartitionedCall/jax2tf_apply_/strided_slice"], "attr": {"T": {"type": "DT_INT32"}}, "inputs": ["StatefulPartitionedCall/jax2tf_apply_/strided_slice_1", "StatefulPartitionedCall/jax2tf_apply_/strided_slice"]}, {"name": "StatefulPartitionedCall/jax2tf_apply_/pjit_add_/AddV2", "op": "AddV2", "input": ["StatefulPartitionedCall/jax2tf_apply_/strided_slice_1", "StatefulPartitionedCall/jax2tf_apply_/strided_slice"], "attr": {"T": {"type": "DT_INT32"}}, "inputs": ["StatefulPartitionedCall/jax2tf_apply_/strided_slice_1", "StatefulPartitionedCall/jax2tf_apply_/strided_slice"]}, {"name": "StatefulPartitionedCall/jax2tf_apply_/GreaterEqual_1", "op": "GreaterEqual", "input": ["StatefulPartitionedCall/jax2tf_apply_/strided_slice_1", "StatefulPartitionedCall/Const_1"], "attr": {"T": {"type": "DT_INT32"}}, "inputs": ["StatefulPartitionedCall/jax2tf_apply_/strided_slice_1", "StatefulPartitionedCall/Const_1"]}, {"name": "ConstantFolding/StatefulPartitionedCall/jax2tf_apply_/ActorCriticTransformerFlats/ActorCriticTransformerFlats/BroadcastTo_5/shape_const_axis", "op": "Const", "input": ["^StatefulPartitionedCall/jax2tf_apply_/strided_slice_1"], "attr": {"value": {"tensor": {"dtype": "DT_INT32", "tensorShape": {}}}, "dtype": {"type": "DT_INT32"}}, "inputs": ["^StatefulPartitionedCall/jax2tf_apply_/strided_slice_1"]}, {"name": "StatefulPartitionedCall/jax2tf_apply_/ActorCriticTransformerFlats/ActorCriticTransformerFlats/BroadcastTo_6/shape", "op": "Pack", "input": ["StatefulPartitionedCall/jax2tf_apply_/strided_slice_2", "StatefulPartitionedCall/jax2tf_apply_/ActorCriticTransformerFlats/ActorCriticTransformerFlats/BroadcastTo_6/shape/1"], "attr": {"N": {"i": "2"}, "axis": {"i": "0"}, "T": {"type": "DT_INT32"}}, "inputs": ["StatefulPartitionedCall/jax2tf_apply_/strided_slice_2", "StatefulPartitionedCall/jax2tf_apply_/ActorCriticTransformerFlats/ActorCriticTransformerFlats/BroadcastTo_6/shape/1"]}, {"name": "StatefulPartitionedCall/jax2tf_apply_/Equal_6", "op": "Equal", "input": ["StatefulPartitionedCall/jax2tf_apply_/strided_slice_10", "StatefulPartitionedCall/jax2tf_apply_/strided_slice_2"], "attr": {"T": {"type": "DT_INT32"}, "incompatible_shape_error": {"b": true}}, "inputs": ["StatefulPartitionedCall/jax2tf_apply_/strided_slice_10", "StatefulPartitionedCall/jax2tf_apply_/strided_slice_2"]}, {"name": "StatefulPartitionedCall/jax2tf_apply_/GreaterEqual_2", "op": "GreaterEqual", "input": ["StatefulPartitionedCall/jax2tf_apply_/strided_slice_2", "StatefulPartitionedCall/Const_2"], "attr": {"T": {"type": "DT_INT32"}}, "inputs": ["StatefulPartitionedCall/jax2tf_apply_/strided_slice_2", "StatefulPartitionedCall/Const_2"]}, {"name": "ConstantFolding/StatefulPartitionedCall/jax2tf_apply_/ActorCriticTransformerFlats/ActorCriticTransformerFlats/BroadcastTo_8/shape_const_axis", "op": "Const", "input": ["^StatefulPartitionedCall/jax2tf_apply_/strided_slice_2"], "attr": {"value": {"tensor": {"dtype": "DT_INT32", "tensorShape": {}}}, "dtype": {"type": "DT_INT32"}}, "inputs": ["^StatefulPartitionedCall/jax2tf_apply_/strided_slice_2"]}, {"name": "StatefulPartitionedCall/jax2tf_apply_/ActorCriticTransformerFlats/ActorCriticTransformerFlats/pjit_add_/ArithmeticOptimizer/AddOpsRewrite_AddV2_2", "op": "AddN", "input": ["StatefulPartitionedCall/jax2tf_apply_/strided_slice_3", "StatefulPartitionedCall/jax2tf_apply_/strided_slice_1", "StatefulPartitionedCall/jax2tf_apply_/strided_slice_2", "StatefulPartitionedCall/jax2tf_apply_/strided_slice"], "attr": {"N": {"i": "4"}, "T": {"type": "DT_INT32"}, "_grappler_ArithmeticOptimizer_AddOpsRewriteStage": {"b": true}}, "inputs": ["StatefulPartitionedCall/jax2tf_apply_/strided_slice_3", "StatefulPartitionedCall/jax2tf_apply_/strided_slice_1", "StatefulPartitionedCall/jax2tf_apply_/strided_slice_2", "StatefulPartitionedCall/jax2tf_apply_/strided_slice"]}, {"name": "StatefulPartitionedCall/jax2tf_apply_/ActorCriticTransformerFlats/ActorCriticTransformerFlats/pjit_add_/ArithmeticOptimizer/AddOpsRewrite_AddV2_5", "op": "AddN", "input": ["StatefulPartitionedCall/jax2tf_apply_/strided_slice_3", "StatefulPartitionedCall/jax2tf_apply_/strided_slice_1", "StatefulPartitionedCall/jax2tf_apply_/strided_slice_2", "StatefulPartitionedCall/jax2tf_apply_/strided_slice"], "attr": {"N": {"i": "4"}, "T": {"type": "DT_INT32"}, "_grappler_ArithmeticOptimizer_AddOpsRewriteStage": {"b": true}}, "inputs": ["StatefulPartitionedCall/jax2tf_apply_/strided_slice_3", "StatefulPartitionedCall/jax2tf_apply_/strided_slice_1", "StatefulPartitionedCall/jax2tf_apply_/strided_slice_2", "StatefulPartitionedCall/jax2tf_apply_/strided_slice"]}, {"name": "StatefulPartitionedCall/jax2tf_apply_/ActorCriticTransformerFlats/ActorCriticTransformerFlats/pjit__where_/pjit_add_/ArithmeticOptimizer/AddOpsRewrite_AddV2_5", "op": "AddN", "input": ["StatefulPartitionedCall/jax2tf_apply_/strided_slice_3", "StatefulPartitionedCall/jax2tf_apply_/strided_slice_1", "StatefulPartitionedCall/jax2tf_apply_/strided_slice_2", "StatefulPartitionedCall/jax2tf_apply_/strided_slice"], "attr": {"N": {"i": "4"}, "T": {"type": "DT_INT32"}, "_grappler_ArithmeticOptimizer_AddOpsRewriteStage": {"b": true}}, "inputs": ["StatefulPartitionedCall/jax2tf_apply_/strided_slice_3", "StatefulPartitionedCall/jax2tf_apply_/strided_slice_1", "StatefulPartitionedCall/jax2tf_apply_/strided_slice_2", "StatefulPartitionedCall/jax2tf_apply_/strided_slice"]}, {"name": "StatefulPartitionedCall/jax2tf_apply_/ActorCriticTransformerFlats/ActorCriticTransformerFlats/BroadcastTo_9/shape", "op": "Pack", "input": ["StatefulPartitionedCall/jax2tf_apply_/strided_slice_3", "StatefulPartitionedCall/jax2tf_apply_/ActorCriticTransformerFlats/ActorCriticTransformerFlats/BroadcastTo_9/shape/1"], "attr": {"N": {"i": "2"}, "axis": {"i": "0"}, "T": {"type": "DT_INT32"}}, "inputs": ["StatefulPartitionedCall/jax2tf_apply_/strided_slice_3", "StatefulPartitionedCall/jax2tf_apply_/ActorCriticTransformerFlats/ActorCriticTransformerFlats/BroadcastTo_9/shape/1"]}, {"name": "StatefulPartitionedCall/jax2tf_apply_/ActorCriticTransformerFlats/ActorCriticTransformerFlats/pjit_add_/ArithmeticOptimizer/AddOpsRewrite_AddV2_8", "op": "AddN", "input": ["StatefulPartitionedCall/jax2tf_apply_/strided_slice_3", "StatefulPartitionedCall/jax2tf_apply_/strided_slice_1", "StatefulPartitionedCall/jax2tf_apply_/strided_slice_2", "StatefulPartitionedCall/jax2tf_apply_/strided_slice"], "attr": {"N": {"i": "4"}, "T": {"type": "DT_INT32"}, "_grappler_ArithmeticOptimizer_AddOpsRewriteStage": {"b": true}}, "inputs": ["StatefulPartitionedCall/jax2tf_apply_/strided_slice_3", "StatefulPartitionedCall/jax2tf_apply_/strided_slice_1", "StatefulPartitionedCall/jax2tf_apply_/strided_slice_2", "StatefulPartitionedCall/jax2tf_apply_/strided_slice"]}, {"name": "StatefulPartitionedCall/jax2tf_apply_/ActorCriticTransformerFlats/ActorCriticTransformerFlats/MultiHeadDense_0/pjit_add_/ArithmeticOptimizer/AddOpsRewrite_AddV2_2", "op": "AddN", "input": ["StatefulPartitionedCall/jax2tf_apply_/strided_slice_3", "StatefulPartitionedCall/jax2tf_apply_/strided_slice_1", "StatefulPartitionedCall/jax2tf_apply_/strided_slice_2", "StatefulPartitionedCall/jax2tf_apply_/strided_slice"], "attr": {"N": {"i": "4"}, "T": {"type": "DT_INT32"}, "_grappler_ArithmeticOptimizer_AddOpsRewriteStage": {"b": true}}, "inputs": ["StatefulPartitionedCall/jax2tf_apply_/strided_slice_3", "StatefulPartitionedCall/jax2tf_apply_/strided_slice_1", "StatefulPartitionedCall/jax2tf_apply_/strided_slice_2", "StatefulPartitionedCall/jax2tf_apply_/strided_slice"]}, {"name": "StatefulPartitionedCall/jax2tf_apply_/ActorCriticTransformerFlats/ActorCriticTransformerFlats/MultiHeadDense_0/pjit_add_/ArithmeticOptimizer/AddOpsRewrite_AddV2_5", "op": "AddN", "input": ["StatefulPartitionedCall/jax2tf_apply_/strided_slice_3", "StatefulPartitionedCall/jax2tf_apply_/strided_slice_1", "StatefulPartitionedCall/jax2tf_apply_/strided_slice_2", "StatefulPartitionedCall/jax2tf_apply_/strided_slice"], "attr": {"N": {"i": "4"}, "T": {"type": "DT_INT32"}, "_grappler_ArithmeticOptimizer_AddOpsRewriteStage": {"b": true}}, "inputs": ["StatefulPartitionedCall/jax2tf_apply_/strided_slice_3", "StatefulPartitionedCall/jax2tf_apply_/strided_slice_1", "StatefulPartitionedCall/jax2tf_apply_/strided_slice_2", "StatefulPartitionedCall/jax2tf_apply_/strided_slice"]}, {"name": "StatefulPartitionedCall/jax2tf_apply_/ActorCriticTransformerFlats/ActorCriticTransformerFlats/MultiHeadDense_0/...fhd_hdo-_...fho/pjit__einsum_/pjit_add_/ArithmeticOptimizer/AddOpsRewrite_AddV2_2", "op": "AddN", "input": ["StatefulPartitionedCall/jax2tf_apply_/strided_slice_3", "StatefulPartitionedCall/jax2tf_apply_/strided_slice_1", "StatefulPartitionedCall/jax2tf_apply_/strided_slice_2", "StatefulPartitionedCall/jax2tf_apply_/strided_slice"], "attr": {"N": {"i": "4"}, "T": {"type": "DT_INT32"}, "_grappler_ArithmeticOptimizer_AddOpsRewriteStage": {"b": true}}, "inputs": ["StatefulPartitionedCall/jax2tf_apply_/strided_slice_3", "StatefulPartitionedCall/jax2tf_apply_/strided_slice_1", "StatefulPartitionedCall/jax2tf_apply_/strided_slice_2", "StatefulPartitionedCall/jax2tf_apply_/strided_slice"]}, {"name": "StatefulPartitionedCall/jax2tf_apply_/Equal_7", "op": "Equal", "input": ["StatefulPartitionedCall/jax2tf_apply_/strided_slice_11", "StatefulPartitionedCall/jax2tf_apply_/strided_slice_3"], "attr": {"T": {"type": "DT_INT32"}, "incompatible_shape_error": {"b": true}}, "inputs": ["StatefulPartitionedCall/jax2tf_apply_/strided_slice_11", "StatefulPartitionedCall/jax2tf_apply_/strided_slice_3"]}, {"name": "StatefulPartitionedCall/jax2tf_apply_/GreaterEqual_3", "op": "GreaterEqual", "input": ["StatefulPartitionedCall/jax2tf_apply_/strided_slice_3", "StatefulPartitionedCall/Const_3"], "attr": {"T": {"type": "DT_INT32"}}, "inputs": ["StatefulPartitionedCall/jax2tf_apply_/strided_slice_3", "StatefulPartitionedCall/Const_3"]}, {"name": "ConstantFolding/StatefulPartitionedCall/jax2tf_apply_/ActorCriticTransformerFlats/ActorCriticTransformerFlats/BroadcastTo_11/shape_const_axis", "op": "Const", "input": ["^StatefulPartitionedCall/jax2tf_apply_/strided_slice_3"], "attr": {"value": {"tensor": {"dtype": "DT_INT32", "tensorShape": {}}}, "dtype": {"type": "DT_INT32"}}, "inputs": ["^StatefulPartitionedCall/jax2tf_apply_/strided_slice_3"]}, {"name": "StatefulPartitionedCall/jax2tf_apply_/Equal", "op": "Equal", "input": ["StatefulPartitionedCall/jax2tf_apply_/strided_slice_4", "StatefulPartitionedCall/jax2tf_apply_/strided_slice"], "attr": {"T": {"type": "DT_INT32"}, "incompatible_shape_error": {"b": true}}, "inputs": ["StatefulPartitionedCall/jax2tf_apply_/strided_slice_4", "StatefulPartitionedCall/jax2tf_apply_/strided_slice"]}, {"name": "StatefulPartitionedCall/jax2tf_apply_/Equal_1", "op": "Equal", "input": ["StatefulPartitionedCall/jax2tf_apply_/strided_slice_5", "StatefulPartitionedCall/jax2tf_apply_/strided_slice_1"], "attr": {"T": {"type": "DT_INT32"}, "incompatible_shape_error": {"b": true}}, "inputs": ["StatefulPartitionedCall/jax2tf_apply_/strided_slice_5", "StatefulPartitionedCall/jax2tf_apply_/strided_slice_1"]}, {"name": "StatefulPartitionedCall/jax2tf_apply_/Equal_2", "op": "Equal", "input": ["StatefulPartitionedCall/jax2tf_apply_/strided_slice_6", "StatefulPartitionedCall/jax2tf_apply_/strided_slice_2"], "attr": {"T": {"type": "DT_INT32"}, "incompatible_shape_error": {"b": true}}, "inputs": ["StatefulPartitionedCall/jax2tf_apply_/strided_slice_6", "StatefulPartitionedCall/jax2tf_apply_/strided_slice_2"]}, {"name": "StatefulPartitionedCall/jax2tf_apply_/Equal_3", "op": "Equal", "input": ["StatefulPartitionedCall/jax2tf_apply_/strided_slice_7", "StatefulPartitionedCall/jax2tf_apply_/strided_slice_3"], "attr": {"T": {"type": "DT_INT32"}, "incompatible_shape_error": {"b": true}}, "inputs": ["StatefulPartitionedCall/jax2tf_apply_/strided_slice_7", "StatefulPartitionedCall/jax2tf_apply_/strided_slice_3"]}, {"name": "StatefulPartitionedCall/jax2tf_apply_/ActorCriticTransformerFlats/ActorCriticTransformerFlats/BroadcastTo", "op": "BroadcastTo", "input": ["StatefulPartitionedCall/jax2tf_apply_/ActorCriticTransformerFlats/ActorCriticTransformerFlats/Reshape", "StatefulPartitionedCall/jax2tf_apply_/ActorCriticTransformerFlats/ActorCriticTransformerFlats/BroadcastTo/shape"], "attr": {"T": {"type": "DT_FLOAT"}, "Tidx": {"type": "DT_INT32"}}, "inputs": ["StatefulPartitionedCall/jax2tf_apply_/ActorCriticTransformerFlats/ActorCriticTransformerFlats/Reshape", "StatefulPartitionedCall/jax2tf_apply_/ActorCriticTransformerFlats/ActorCriticTransformerFlats/BroadcastTo/shape"]}, {"name": "StatefulPartitionedCall/jax2tf_apply_/assert_equal_1/Equal", "op": "Equal", "input": ["StatefulPartitionedCall/jax2tf_apply_/GreaterEqual", "StatefulPartitionedCall/jax2tf_apply_/assert_equal_1/y"], "attr": {"T": {"type": "DT_BOOL"}, "incompatible_shape_error": {"b": true}}, "inputs": ["StatefulPartitionedCall/jax2tf_apply_/GreaterEqual", "StatefulPartitionedCall/jax2tf_apply_/assert_equal_1/y"]}, {"name": "StatefulPartitionedCall/jax2tf_apply_/ActorCriticTransformerFlats/ActorCriticTransformerFlats/BroadcastTo_2/shape", "op": "ExpandDims", "input": ["StatefulPartitionedCall/jax2tf_apply_/strided_slice", "ConstantFolding/StatefulPartitionedCall/jax2tf_apply_/ActorCriticTransformerFlats/ActorCriticTransformerFlats/BroadcastTo_2/shape_const_axis"], "attr": {"Tdim": {"type": "DT_INT32"}, "T": {"type": "DT_INT32"}}, "inputs": ["StatefulPartitionedCall/jax2tf_apply_/strided_slice", "ConstantFolding/StatefulPartitionedCall/jax2tf_apply_/ActorCriticTransformerFlats/ActorCriticTransformerFlats/BroadcastTo_2/shape_const_axis"]}, {"name": "StatefulPartitionedCall/jax2tf_apply_/ActorCriticTransformerFlats/ActorCriticTransformerFlats/BroadcastTo_3", "op": "BroadcastTo", "input": ["StatefulPartitionedCall/jax2tf_apply_/ActorCriticTransformerFlats/ActorCriticTransformerFlats/Reshape_3", "StatefulPartitionedCall/jax2tf_apply_/ActorCriticTransformerFlats/ActorCriticTransformerFlats/BroadcastTo_3/shape"], "attr": {"T": {"type": "DT_FLOAT"}, "Tidx": {"type": "DT_INT32"}}, "inputs": ["StatefulPartitionedCall/jax2tf_apply_/ActorCriticTransformerFlats/ActorCriticTransformerFlats/Reshape_3", "StatefulPartitionedCall/jax2tf_apply_/ActorCriticTransformerFlats/ActorCriticTransformerFlats/BroadcastTo_3/shape"]}, {"name": "StatefulPartitionedCall/jax2tf_apply_/Equal_5", "op": "Equal", "input": ["StatefulPartitionedCall/jax2tf_apply_/strided_slice_9", "StatefulPartitionedCall/jax2tf_apply_/pjit_add_/AddV2_2"], "attr": {"T": {"type": "DT_INT32"}, "incompatible_shape_error": {"b": true}}, "inputs": ["StatefulPartitionedCall/jax2tf_apply_/strided_slice_9", "StatefulPartitionedCall/jax2tf_apply_/pjit_add_/AddV2_2"]}, {"name": "StatefulPartitionedCall/jax2tf_apply_/Equal_4", "op": "Equal", "input": ["StatefulPartitionedCall/jax2tf_apply_/strided_slice_8", "StatefulPartitionedCall/jax2tf_apply_/pjit_add_/AddV2"], "attr": {"T": {"type": "DT_INT32"}, "incompatible_shape_error": {"b": true}}, "inputs": ["StatefulPartitionedCall/jax2tf_apply_/strided_slice_8", "StatefulPartitionedCall/jax2tf_apply_/pjit_add_/AddV2"]}, {"name": "StatefulPartitionedCall/jax2tf_apply_/assert_equal_3/Equal", "op": "Equal", "input": ["StatefulPartitionedCall/jax2tf_apply_/GreaterEqual_1", "StatefulPartitionedCall/jax2tf_apply_/assert_equal_3/y"], "attr": {"T": {"type": "DT_BOOL"}, "incompatible_shape_error": {"b": true}}, "inputs": ["StatefulPartitionedCall/jax2tf_apply_/GreaterEqual_1", "StatefulPartitionedCall/jax2tf_apply_/assert_equal_3/y"]}, {"name": "StatefulPartitionedCall/jax2tf_apply_/ActorCriticTransformerFlats/ActorCriticTransformerFlats/BroadcastTo_5/shape", "op": "ExpandDims", "input": ["StatefulPartitionedCall/jax2tf_apply_/strided_slice_1", "ConstantFolding/StatefulPartitionedCall/jax2tf_apply_/ActorCriticTransformerFlats/ActorCriticTransformerFlats/BroadcastTo_5/shape_const_axis"], "attr": {"Tdim": {"type": "DT_INT32"}, "T": {"type": "DT_INT32"}}, "inputs": ["StatefulPartitionedCall/jax2tf_apply_/strided_slice_1", "ConstantFolding/StatefulPartitionedCall/jax2tf_apply_/ActorCriticTransformerFlats/ActorCriticTransformerFlats/BroadcastTo_5/shape_const_axis"]}, {"name": "StatefulPartitionedCall/jax2tf_apply_/ActorCriticTransformerFlats/ActorCriticTransformerFlats/BroadcastTo_6", "op": "BroadcastTo", "input": ["StatefulPartitionedCall/jax2tf_apply_/ActorCriticTransformerFlats/ActorCriticTransformerFlats/Reshape_6", "StatefulPartitionedCall/jax2tf_apply_/ActorCriticTransformerFlats/ActorCriticTransformerFlats/BroadcastTo_6/shape"], "attr": {"T": {"type": "DT_FLOAT"}, "Tidx": {"type": "DT_INT32"}}, "inputs": ["StatefulPartitionedCall/jax2tf_apply_/ActorCriticTransformerFlats/ActorCriticTransformerFlats/Reshape_6", "StatefulPartitionedCall/jax2tf_apply_/ActorCriticTransformerFlats/ActorCriticTransformerFlats/BroadcastTo_6/shape"]}, {"name": "StatefulPartitionedCall/jax2tf_apply_/assert_equal_21/Equal", "op": "Equal", "input": ["StatefulPartitionedCall/jax2tf_apply_/Equal_6", "StatefulPartitionedCall/jax2tf_apply_/assert_equal_21/y"], "attr": {"T": {"type": "DT_BOOL"}, "incompatible_shape_error": {"b": true}}, "inputs": ["StatefulPartitionedCall/jax2tf_apply_/Equal_6", "StatefulPartitionedCall/jax2tf_apply_/assert_equal_21/y"]}, {"name": "StatefulPartitionedCall/jax2tf_apply_/assert_equal_5/Equal", "op": "Equal", "input": ["StatefulPartitionedCall/jax2tf_apply_/GreaterEqual_2", "StatefulPartitionedCall/jax2tf_apply_/assert_equal_5/y"], "attr": {"T": {"type": "DT_BOOL"}, "incompatible_shape_error": {"b": true}}, "inputs": ["StatefulPartitionedCall/jax2tf_apply_/GreaterEqual_2", "StatefulPartitionedCall/jax2tf_apply_/assert_equal_5/y"]}, {"name": "StatefulPartitionedCall/jax2tf_apply_/ActorCriticTransformerFlats/ActorCriticTransformerFlats/BroadcastTo_8/shape", "op": "ExpandDims", "input": ["StatefulPartitionedCall/jax2tf_apply_/strided_slice_2", "ConstantFolding/StatefulPartitionedCall/jax2tf_apply_/ActorCriticTransformerFlats/ActorCriticTransformerFlats/BroadcastTo_8/shape_const_axis"], "attr": {"Tdim": {"type": "DT_INT32"}, "T": {"type": "DT_INT32"}}, "inputs": ["StatefulPartitionedCall/jax2tf_apply_/strided_slice_2", "ConstantFolding/StatefulPartitionedCall/jax2tf_apply_/ActorCriticTransformerFlats/ActorCriticTransformerFlats/BroadcastTo_8/shape_const_axis"]}, {"name": "StatefulPartitionedCall/jax2tf_apply_/ActorCriticTransformerFlats/ActorCriticTransformerFlats/Reshape_12/shape", "op": "Pack", "input": ["StatefulPartitionedCall/jax2tf_apply_/ActorCriticTransformerFlats/ActorCriticTransformerFlats/pjit_add_/ArithmeticOptimizer/AddOpsRewrite_AddV2_2", "StatefulPartitionedCall/jax2tf_apply_/ActorCriticTransformerFlats/ActorCriticTransformerFlats/Reshape_12/shape/1"], "attr": {"N": {"i": "2"}, "axis": {"i": "0"}, "T": {"type": "DT_INT32"}}, "inputs": ["StatefulPartitionedCall/jax2tf_apply_/ActorCriticTransformerFlats/ActorCriticTransformerFlats/pjit_add_/ArithmeticOptimizer/AddOpsRewrite_AddV2_2", "StatefulPartitionedCall/jax2tf_apply_/ActorCriticTransformerFlats/ActorCriticTransformerFlats/Reshape_12/shape/1"]}, {"name": "StatefulPartitionedCall/jax2tf_apply_/ActorCriticTransformerFlats/ActorCriticTransformerFlats/BroadcastTo_12/shape", "op": "Pack", "input": ["StatefulPartitionedCall/jax2tf_apply_/ActorCriticTransformerFlats/ActorCriticTransformerFlats/pjit_add_/ArithmeticOptimizer/AddOpsRewrite_AddV2_5", "StatefulPartitionedCall/jax2tf_apply_/ActorCriticTransformerFlats/ActorCriticTransformerFlats/BroadcastTo_12/shape/1"], "attr": {"N": {"i": "2"}, "axis": {"i": "0"}, "T": {"type": "DT_INT32"}}, "inputs": ["StatefulPartitionedCall/jax2tf_apply_/ActorCriticTransformerFlats/ActorCriticTransformerFlats/pjit_add_/ArithmeticOptimizer/AddOpsRewrite_AddV2_5", "StatefulPartitionedCall/jax2tf_apply_/ActorCriticTransformerFlats/ActorCriticTransformerFlats/BroadcastTo_12/shape/1"]}, {"name": "StatefulPartitionedCall/jax2tf_apply_/ActorCriticTransformerFlats/ActorCriticTransformerFlats/pjit__where_/BroadcastTo/shape", "op": "Pack", "input": ["StatefulPartitionedCall/jax2tf_apply_/ActorCriticTransformerFlats/ActorCriticTransformerFlats/pjit__where_/pjit_add_/ArithmeticOptimizer/AddOpsRewrite_AddV2_5", "StatefulPartitionedCall/jax2tf_apply_/ActorCriticTransformerFlats/ActorCriticTransformerFlats/pjit__where_/BroadcastTo/shape/1"], "attr": {"N": {"i": "2"}, "axis": {"i": "0"}, "T": {"type": "DT_INT32"}}, "inputs": ["StatefulPartitionedCall/jax2tf_apply_/ActorCriticTransformerFlats/ActorCriticTransformerFlats/pjit__where_/pjit_add_/ArithmeticOptimizer/AddOpsRewrite_AddV2_5", "StatefulPartitionedCall/jax2tf_apply_/ActorCriticTransformerFlats/ActorCriticTransformerFlats/pjit__where_/BroadcastTo/shape/1"]}, {"name": "StatefulPartitionedCall/jax2tf_apply_/ActorCriticTransformerFlats/ActorCriticTransformerFlats/BroadcastTo_9", "op": "BroadcastTo", "input": ["StatefulPartitionedCall/jax2tf_apply_/ActorCriticTransformerFlats/ActorCriticTransformerFlats/Reshape_9", "StatefulPartitionedCall/jax2tf_apply_/ActorCriticTransformerFlats/ActorCriticTransformerFlats/BroadcastTo_9/shape"], "attr": {"T": {"type": "DT_FLOAT"}, "Tidx": {"type": "DT_INT32"}}, "inputs": ["StatefulPartitionedCall/jax2tf_apply_/ActorCriticTransformerFlats/ActorCriticTransformerFlats/Reshape_9", "StatefulPartitionedCall/jax2tf_apply_/ActorCriticTransformerFlats/ActorCriticTransformerFlats/BroadcastTo_9/shape"]}, {"name": "StatefulPartitionedCall/jax2tf_apply_/ActorCriticTransformerFlats/ActorCriticTransformerFlats/BroadcastTo_13/shape", "op": "Pack", "input": ["StatefulPartitionedCall/jax2tf_apply_/ActorCriticTransformerFlats/ActorCriticTransformerFlats/pjit_add_/ArithmeticOptimizer/AddOpsRewrite_AddV2_8", "StatefulPartitionedCall/jax2tf_apply_/ActorCriticTransformerFlats/ActorCriticTransformerFlats/BroadcastTo_13/shape/1"], "attr": {"N": {"i": "2"}, "axis": {"i": "0"}, "T": {"type": "DT_INT32"}}, "inputs": ["StatefulPartitionedCall/jax2tf_apply_/ActorCriticTransformerFlats/ActorCriticTransformerFlats/pjit_add_/ArithmeticOptimizer/AddOpsRewrite_AddV2_8", "StatefulPartitionedCall/jax2tf_apply_/ActorCriticTransformerFlats/ActorCriticTransformerFlats/BroadcastTo_13/shape/1"]}, {"name": "StatefulPartitionedCall/jax2tf_apply_/ActorCriticTransformerFlats/ActorCriticTransformerFlats/MultiHeadDense_0/Reshape/shape", "op": "Pack", "input": ["StatefulPartitionedCall/jax2tf_apply_/ActorCriticTransformerFlats/ActorCriticTransformerFlats/MultiHeadDense_0/pjit_add_/ArithmeticOptimizer/AddOpsRewrite_AddV2_2", "StatefulPartitionedCall/jax2tf_apply_/ActorCriticTransformerFlats/ActorCriticTransformerFlats/MultiHeadDense_0/Reshape/shape/1", "StatefulPartitionedCall/jax2tf_apply_/ActorCriticTransformerFlats/ActorCriticTransformerFlats/MultiHeadDense_0/Reshape/shape/2"], "attr": {"N": {"i": "3"}, "axis": {"i": "0"}, "T": {"type": "DT_INT32"}}, "inputs": ["StatefulPartitionedCall/jax2tf_apply_/ActorCriticTransformerFlats/ActorCriticTransformerFlats/MultiHeadDense_0/pjit_add_/ArithmeticOptimizer/AddOpsRewrite_AddV2_2", "StatefulPartitionedCall/jax2tf_apply_/ActorCriticTransformerFlats/ActorCriticTransformerFlats/MultiHeadDense_0/Reshape/shape/1", "StatefulPartitionedCall/jax2tf_apply_/ActorCriticTransformerFlats/ActorCriticTransformerFlats/MultiHeadDense_0/Reshape/shape/2"]}, {"name": "StatefulPartitionedCall/jax2tf_apply_/ActorCriticTransformerFlats/ActorCriticTransformerFlats/MultiHeadDense_0/BroadcastTo/shape", "op": "Pack", "input": ["StatefulPartitionedCall/jax2tf_apply_/ActorCriticTransformerFlats/ActorCriticTransformerFlats/MultiHeadDense_0/pjit_add_/ArithmeticOptimizer/AddOpsRewrite_AddV2_5", "StatefulPartitionedCall/jax2tf_apply_/ActorCriticTransformerFlats/ActorCriticTransformerFlats/MultiHeadDense_0/BroadcastTo/shape/1", "StatefulPartitionedCall/jax2tf_apply_/ActorCriticTransformerFlats/ActorCriticTransformerFlats/MultiHeadDense_0/BroadcastTo/shape/2"], "attr": {"N": {"i": "3"}, "axis": {"i": "0"}, "T": {"type": "DT_INT32"}}, "inputs": ["StatefulPartitionedCall/jax2tf_apply_/ActorCriticTransformerFlats/ActorCriticTransformerFlats/MultiHeadDense_0/pjit_add_/ArithmeticOptimizer/AddOpsRewrite_AddV2_5", "StatefulPartitionedCall/jax2tf_apply_/ActorCriticTransformerFlats/ActorCriticTransformerFlats/MultiHeadDense_0/BroadcastTo/shape/1", "StatefulPartitionedCall/jax2tf_apply_/ActorCriticTransformerFlats/ActorCriticTransformerFlats/MultiHeadDense_0/BroadcastTo/shape/2"]}, {"name": "StatefulPartitionedCall/jax2tf_apply_/ActorCriticTransformerFlats/ActorCriticTransformerFlats/MultiHeadDense_0/...fhd_hdo-_...fho/pjit__einsum_/Reshape/shape", "op": "Pack", "input": ["StatefulPartitionedCall/jax2tf_apply_/ActorCriticTransformerFlats/ActorCriticTransformerFlats/MultiHeadDense_0/...fhd_hdo-_...fho/pjit__einsum_/pjit_add_/ArithmeticOptimizer/AddOpsRewrite_AddV2_2", "StatefulPartitionedCall/jax2tf_apply_/ActorCriticTransformerFlats/ActorCriticTransformerFlats/MultiHeadDense_0/...fhd_hdo-_...fho/pjit__einsum_/Reshape/shape/1"], "attr": {"N": {"i": "2"}, "axis": {"i": "0"}, "T": {"type": "DT_INT32"}}, "inputs": ["StatefulPartitionedCall/jax2tf_apply_/ActorCriticTransformerFlats/ActorCriticTransformerFlats/MultiHeadDense_0/...fhd_hdo-_...fho/pjit__einsum_/pjit_add_/ArithmeticOptimizer/AddOpsRewrite_AddV2_2", "StatefulPartitionedCall/jax2tf_apply_/ActorCriticTransformerFlats/ActorCriticTransformerFlats/MultiHeadDense_0/...fhd_hdo-_...fho/pjit__einsum_/Reshape/shape/1"]}, {"name": "StatefulPartitionedCall/jax2tf_apply_/assert_equal_23/Equal", "op": "Equal", "input": ["StatefulPartitionedCall/jax2tf_apply_/Equal_7", "StatefulPartitionedCall/jax2tf_apply_/assert_equal_23/y"], "attr": {"T": {"type": "DT_BOOL"}, "incompatible_shape_error": {"b": true}}, "inputs": ["StatefulPartitionedCall/jax2tf_apply_/Equal_7", "StatefulPartitionedCall/jax2tf_apply_/assert_equal_23/y"]}, {"name": "StatefulPartitionedCall/jax2tf_apply_/assert_equal_7/Equal", "op": "Equal", "input": ["StatefulPartitionedCall/jax2tf_apply_/GreaterEqual_3", "StatefulPartitionedCall/jax2tf_apply_/assert_equal_7/y"], "attr": {"T": {"type": "DT_BOOL"}, "incompatible_shape_error": {"b": true}}, "inputs": ["StatefulPartitionedCall/jax2tf_apply_/GreaterEqual_3", "StatefulPartitionedCall/jax2tf_apply_/assert_equal_7/y"]}, {"name": "StatefulPartitionedCall/jax2tf_apply_/ActorCriticTransformerFlats/ActorCriticTransformerFlats/BroadcastTo_11/shape", "op": "ExpandDims", "input": ["StatefulPartitionedCall/jax2tf_apply_/strided_slice_3", "ConstantFolding/StatefulPartitionedCall/jax2tf_apply_/ActorCriticTransformerFlats/ActorCriticTransformerFlats/BroadcastTo_11/shape_const_axis"], "attr": {"Tdim": {"type": "DT_INT32"}, "T": {"type": "DT_INT32"}}, "inputs": ["StatefulPartitionedCall/jax2tf_apply_/strided_slice_3", "ConstantFolding/StatefulPartitionedCall/jax2tf_apply_/ActorCriticTransformerFlats/ActorCriticTransformerFlats/BroadcastTo_11/shape_const_axis"]}, {"name": "StatefulPartitionedCall/jax2tf_apply_/assert_equal_9/Equal", "op": "Equal", "input": ["StatefulPartitionedCall/jax2tf_apply_/Equal", "StatefulPartitionedCall/jax2tf_apply_/assert_equal_9/y"], "attr": {"T": {"type": "DT_BOOL"}, "incompatible_shape_error": {"b": true}}, "inputs": ["StatefulPartitionedCall/jax2tf_apply_/Equal", "StatefulPartitionedCall/jax2tf_apply_/assert_equal_9/y"]}, {"name": "StatefulPartitionedCall/jax2tf_apply_/assert_equal_11/Equal", "op": "Equal", "input": ["StatefulPartitionedCall/jax2tf_apply_/Equal_1", "StatefulPartitionedCall/jax2tf_apply_/assert_equal_11/y"], "attr": {"T": {"type": "DT_BOOL"}, "incompatible_shape_error": {"b": true}}, "inputs": ["StatefulPartitionedCall/jax2tf_apply_/Equal_1", "StatefulPartitionedCall/jax2tf_apply_/assert_equal_11/y"]}, {"name": "StatefulPartitionedCall/jax2tf_apply_/assert_equal_13/Equal", "op": "Equal", "input": ["StatefulPartitionedCall/jax2tf_apply_/Equal_2", "StatefulPartitionedCall/jax2tf_apply_/assert_equal_13/y"], "attr": {"T": {"type": "DT_BOOL"}, "incompatible_shape_error": {"b": true}}, "inputs": ["StatefulPartitionedCall/jax2tf_apply_/Equal_2", "StatefulPartitionedCall/jax2tf_apply_/assert_equal_13/y"]}, {"name": "StatefulPartitionedCall/jax2tf_apply_/assert_equal_15/Equal", "op": "Equal", "input": ["StatefulPartitionedCall/jax2tf_apply_/Equal_3", "StatefulPartitionedCall/jax2tf_apply_/assert_equal_15/y"], "attr": {"T": {"type": "DT_BOOL"}, "incompatible_shape_error": {"b": true}}, "inputs": ["StatefulPartitionedCall/jax2tf_apply_/Equal_3", "StatefulPartitionedCall/jax2tf_apply_/assert_equal_15/y"]}, {"name": "StatefulPartitionedCall/jax2tf_apply_/ActorCriticTransformerFlats/ActorCriticTransformerFlats/transpose_1", "op": "Transpose", "input": ["StatefulPartitionedCall/jax2tf_apply_/ActorCriticTransformerFlats/ActorCriticTransformerFlats/BroadcastTo", "StatefulPartitionedCall/jax2tf_apply_/ActorCriticTransformerFlats/ActorCriticTransformerFlats/transpose_1/perm"], "attr": {"Tperm": {"type": "DT_INT32"}, "_input_shapes": {"list": {"shape": [{"dim": [{"size": "-3"}, {"size": "4"}]}, {"dim": [{"size": "2"}]}]}}, "T": {"type": "DT_FLOAT"}}, "inputs": ["StatefulPartitionedCall/jax2tf_apply_/ActorCriticTransformerFlats/ActorCriticTransformerFlats/BroadcastTo", "StatefulPartitionedCall/jax2tf_apply_/ActorCriticTransformerFlats/ActorCriticTransformerFlats/transpose_1/perm"]}, {"name": "StatefulPartitionedCall/jax2tf_apply_/assert_equal_1/Assert/AssertGuard/StatefulPartitionedCall/jax2tf_apply_/assert_equal_1/y/_58", "op": "Switch", "input": ["StatefulPartitionedCall/jax2tf_apply_/assert_equal_1/y", "StatefulPartitionedCall/jax2tf_apply_/assert_equal_1/Equal"], "attr": {"T": {"type": "DT_BOOL"}}, "inputs": ["StatefulPartitionedCall/jax2tf_apply_/assert_equal_1/y", "StatefulPartitionedCall/jax2tf_apply_/assert_equal_1/Equal"]}, {"name": "StatefulPartitionedCall/jax2tf_apply_/assert_equal_1/Assert/AssertGuard/StatefulPartitionedCall/jax2tf_apply_/assert_equal_1/All/_56", "op": "Switch", "input": ["StatefulPartitionedCall/jax2tf_apply_/assert_equal_1/Equal", "StatefulPartitionedCall/jax2tf_apply_/assert_equal_1/Equal"], "attr": {"T": {"type": "DT_BOOL"}}, "inputs": ["StatefulPartitionedCall/jax2tf_apply_/assert_equal_1/Equal", "StatefulPartitionedCall/jax2tf_apply_/assert_equal_1/Equal"]}, {"name": "StatefulPartitionedCall/jax2tf_apply_/assert_equal_1/Assert/AssertGuard/switch_pred/_53", "op": "Switch", "input": ["StatefulPartitionedCall/jax2tf_apply_/assert_equal_1/Equal", "StatefulPartitionedCall/jax2tf_apply_/assert_equal_1/Equal"], "attr": {"T": {"type": "DT_BOOL"}}, "inputs": ["StatefulPartitionedCall/jax2tf_apply_/assert_equal_1/Equal", "StatefulPartitionedCall/jax2tf_apply_/assert_equal_1/Equal"]}, {"name": "StatefulPartitionedCall/jax2tf_apply_/assert_equal_1/Assert/AssertGuard/StatefulPartitionedCall/jax2tf_apply_/GreaterEqual/_57", "op": "Switch", "input": ["StatefulPartitionedCall/jax2tf_apply_/GreaterEqual", "StatefulPartitionedCall/jax2tf_apply_/assert_equal_1/Equal"], "attr": {"T": {"type": "DT_BOOL"}}, "inputs": ["StatefulPartitionedCall/jax2tf_apply_/GreaterEqual", "StatefulPartitionedCall/jax2tf_apply_/assert_equal_1/Equal"]}, {"name": "StatefulPartitionedCall/jax2tf_apply_/ActorCriticTransformerFlats/ActorCriticTransformerFlats/BroadcastTo_2", "op": "BroadcastTo", "input": ["StatefulPartitionedCall/jax2tf_apply_/ActorCriticTransformerFlats/ActorCriticTransformerFlats/Reshape_2", "StatefulPartitionedCall/jax2tf_apply_/ActorCriticTransformerFlats/ActorCriticTransformerFlats/BroadcastTo_2/shape"], "attr": {"T": {"type": "DT_FLOAT"}, "Tidx": {"type": "DT_INT32"}}, "inputs": ["StatefulPartitionedCall/jax2tf_apply_/ActorCriticTransformerFlats/ActorCriticTransformerFlats/Reshape_2", "StatefulPartitionedCall/jax2tf_apply_/ActorCriticTransformerFlats/ActorCriticTransformerFlats/BroadcastTo_2/shape"]}, {"name": "StatefulPartitionedCall/jax2tf_apply_/ActorCriticTransformerFlats/ActorCriticTransformerFlats/transpose_4", "op": "Transpose", "input": ["StatefulPartitionedCall/jax2tf_apply_/ActorCriticTransformerFlats/ActorCriticTransformerFlats/BroadcastTo_3", "StatefulPartitionedCall/jax2tf_apply_/ActorCriticTransformerFlats/ActorCriticTransformerFlats/transpose_4/perm"], "attr": {"Tperm": {"type": "DT_INT32"}, "_input_shapes": {"list": {"shape": [{"dim": [{"size": "-7"}, {"size": "4"}]}, {"dim": [{"size": "2"}]}]}}, "T": {"type": "DT_FLOAT"}}, "inputs": ["StatefulPartitionedCall/jax2tf_apply_/ActorCriticTransformerFlats/ActorCriticTransformerFlats/BroadcastTo_3", "StatefulPartitionedCall/jax2tf_apply_/ActorCriticTransformerFlats/ActorCriticTransformerFlats/transpose_4/perm"]}, {"name": "StatefulPartitionedCall/jax2tf_apply_/assert_equal_19/Equal", "op": "Equal", "input": ["StatefulPartitionedCall/jax2tf_apply_/Equal_5", "StatefulPartitionedCall/jax2tf_apply_/assert_equal_19/y"], "attr": {"T": {"type": "DT_BOOL"}, "incompatible_shape_error": {"b": true}}, "inputs": ["StatefulPartitionedCall/jax2tf_apply_/Equal_5", "StatefulPartitionedCall/jax2tf_apply_/assert_equal_19/y"]}, {"name": "StatefulPartitionedCall/jax2tf_apply_/assert_equal_17/Equal", "op": "Equal", "input": ["StatefulPartitionedCall/jax2tf_apply_/Equal_4", "StatefulPartitionedCall/jax2tf_apply_/assert_equal_17/y"], "attr": {"T": {"type": "DT_BOOL"}, "incompatible_shape_error": {"b": true}}, "inputs": ["StatefulPartitionedCall/jax2tf_apply_/Equal_4", "StatefulPartitionedCall/jax2tf_apply_/assert_equal_17/y"]}, {"name": "StatefulPartitionedCall/jax2tf_apply_/assert_equal_3/Assert/AssertGuard/StatefulPartitionedCall/jax2tf_apply_/assert_equal_3/y/_68", "op": "Switch", "input": ["StatefulPartitionedCall/jax2tf_apply_/assert_equal_3/y", "StatefulPartitionedCall/jax2tf_apply_/assert_equal_3/Equal"], "attr": {"T": {"type": "DT_BOOL"}}, "inputs": ["StatefulPartitionedCall/jax2tf_apply_/assert_equal_3/y", "StatefulPartitionedCall/jax2tf_apply_/assert_equal_3/Equal"]}, {"name": "StatefulPartitionedCall/jax2tf_apply_/assert_equal_3/Assert/AssertGuard/StatefulPartitionedCall/jax2tf_apply_/assert_equal_3/All/_66", "op": "Switch", "input": ["StatefulPartitionedCall/jax2tf_apply_/assert_equal_3/Equal", "StatefulPartitionedCall/jax2tf_apply_/assert_equal_3/Equal"], "attr": {"T": {"type": "DT_BOOL"}}, "inputs": ["StatefulPartitionedCall/jax2tf_apply_/assert_equal_3/Equal", "StatefulPartitionedCall/jax2tf_apply_/assert_equal_3/Equal"]}, {"name": "StatefulPartitionedCall/jax2tf_apply_/assert_equal_3/Assert/AssertGuard/StatefulPartitionedCall/jax2tf_apply_/GreaterEqual_1/_67", "op": "Switch", "input": ["StatefulPartitionedCall/jax2tf_apply_/GreaterEqual_1", "StatefulPartitionedCall/jax2tf_apply_/assert_equal_3/Equal"], "attr": {"T": {"type": "DT_BOOL"}}, "inputs": ["StatefulPartitionedCall/jax2tf_apply_/GreaterEqual_1", "StatefulPartitionedCall/jax2tf_apply_/assert_equal_3/Equal"]}, {"name": "StatefulPartitionedCall/jax2tf_apply_/ActorCriticTransformerFlats/ActorCriticTransformerFlats/BroadcastTo_5", "op": "BroadcastTo", "input": ["StatefulPartitionedCall/jax2tf_apply_/ActorCriticTransformerFlats/ActorCriticTransformerFlats/Reshape_5", "StatefulPartitionedCall/jax2tf_apply_/ActorCriticTransformerFlats/ActorCriticTransformerFlats/BroadcastTo_5/shape"], "attr": {"Tidx": {"type": "DT_INT32"}, "T": {"type": "DT_FLOAT"}}, "inputs": ["StatefulPartitionedCall/jax2tf_apply_/ActorCriticTransformerFlats/ActorCriticTransformerFlats/Reshape_5", "StatefulPartitionedCall/jax2tf_apply_/ActorCriticTransformerFlats/ActorCriticTransformerFlats/BroadcastTo_5/shape"]}, {"name": "StatefulPartitionedCall/jax2tf_apply_/ActorCriticTransformerFlats/ActorCriticTransformerFlats/transpose_7", "op": "Transpose", "input": ["StatefulPartitionedCall/jax2tf_apply_/ActorCriticTransformerFlats/ActorCriticTransformerFlats/BroadcastTo_6", "StatefulPartitionedCall/jax2tf_apply_/ActorCriticTransformerFlats/ActorCriticTransformerFlats/transpose_7/perm"], "attr": {"Tperm": {"type": "DT_INT32"}, "_input_shapes": {"list": {"shape": [{"dim": [{"size": "-11"}, {"size": "4"}]}, {"dim": [{"size": "2"}]}]}}, "T": {"type": "DT_FLOAT"}}, "inputs": ["StatefulPartitionedCall/jax2tf_apply_/ActorCriticTransformerFlats/ActorCriticTransformerFlats/BroadcastTo_6", "StatefulPartitionedCall/jax2tf_apply_/ActorCriticTransformerFlats/ActorCriticTransformerFlats/transpose_7/perm"]}, {"name": "StatefulPartitionedCall/jax2tf_apply_/assert_equal_21/Assert/AssertGuard/StatefulPartitionedCall/jax2tf_apply_/assert_equal_21/y/_158", "op": "Switch", "input": ["StatefulPartitionedCall/jax2tf_apply_/assert_equal_21/y", "StatefulPartitionedCall/jax2tf_apply_/assert_equal_21/Equal"], "attr": {"T": {"type": "DT_BOOL"}}, "inputs": ["StatefulPartitionedCall/jax2tf_apply_/assert_equal_21/y", "StatefulPartitionedCall/jax2tf_apply_/assert_equal_21/Equal"]}, {"name": "StatefulPartitionedCall/jax2tf_apply_/assert_equal_21/Assert/AssertGuard/StatefulPartitionedCall/jax2tf_apply_/assert_equal_21/All/_156", "op": "Switch", "input": ["StatefulPartitionedCall/jax2tf_apply_/assert_equal_21/Equal", "StatefulPartitionedCall/jax2tf_apply_/assert_equal_21/Equal"], "attr": {"T": {"type": "DT_BOOL"}}, "inputs": ["StatefulPartitionedCall/jax2tf_apply_/assert_equal_21/Equal", "StatefulPartitionedCall/jax2tf_apply_/assert_equal_21/Equal"]}, {"name": "StatefulPartitionedCall/jax2tf_apply_/assert_equal_21/Assert/AssertGuard/StatefulPartitionedCall/jax2tf_apply_/Equal_6/_157", "op": "Switch", "input": ["StatefulPartitionedCall/jax2tf_apply_/Equal_6", "StatefulPartitionedCall/jax2tf_apply_/assert_equal_21/Equal"], "attr": {"T": {"type": "DT_BOOL"}}, "inputs": ["StatefulPartitionedCall/jax2tf_apply_/Equal_6", "StatefulPartitionedCall/jax2tf_apply_/assert_equal_21/Equal"]}, {"name": "StatefulPartitionedCall/jax2tf_apply_/assert_equal_5/Assert/AssertGuard/StatefulPartitionedCall/jax2tf_apply_/assert_equal_5/y/_78", "op": "Switch", "input": ["StatefulPartitionedCall/jax2tf_apply_/assert_equal_5/y", "StatefulPartitionedCall/jax2tf_apply_/assert_equal_5/Equal"], "attr": {"T": {"type": "DT_BOOL"}}, "inputs": ["StatefulPartitionedCall/jax2tf_apply_/assert_equal_5/y", "StatefulPartitionedCall/jax2tf_apply_/assert_equal_5/Equal"]}, {"name": "StatefulPartitionedCall/jax2tf_apply_/assert_equal_5/Assert/AssertGuard/StatefulPartitionedCall/jax2tf_apply_/assert_equal_5/All/_76", "op": "Switch", "input": ["StatefulPartitionedCall/jax2tf_apply_/assert_equal_5/Equal", "StatefulPartitionedCall/jax2tf_apply_/assert_equal_5/Equal"], "attr": {"T": {"type": "DT_BOOL"}}, "inputs": ["StatefulPartitionedCall/jax2tf_apply_/assert_equal_5/Equal", "StatefulPartitionedCall/jax2tf_apply_/assert_equal_5/Equal"]}, {"name": "StatefulPartitionedCall/jax2tf_apply_/assert_equal_5/Assert/AssertGuard/StatefulPartitionedCall/jax2tf_apply_/GreaterEqual_2/_77", "op": "Switch", "input": ["StatefulPartitionedCall/jax2tf_apply_/GreaterEqual_2", "StatefulPartitionedCall/jax2tf_apply_/assert_equal_5/Equal"], "attr": {"T": {"type": "DT_BOOL"}}, "inputs": ["StatefulPartitionedCall/jax2tf_apply_/GreaterEqual_2", "StatefulPartitionedCall/jax2tf_apply_/assert_equal_5/Equal"]}, {"name": "StatefulPartitionedCall/jax2tf_apply_/ActorCriticTransformerFlats/ActorCriticTransformerFlats/BroadcastTo_8", "op": "BroadcastTo", "input": ["StatefulPartitionedCall/jax2tf_apply_/ActorCriticTransformerFlats/ActorCriticTransformerFlats/Reshape_8", "StatefulPartitionedCall/jax2tf_apply_/ActorCriticTransformerFlats/ActorCriticTransformerFlats/BroadcastTo_8/shape"], "attr": {"T": {"type": "DT_FLOAT"}, "Tidx": {"type": "DT_INT32"}}, "inputs": ["StatefulPartitionedCall/jax2tf_apply_/ActorCriticTransformerFlats/ActorCriticTransformerFlats/Reshape_8", "StatefulPartitionedCall/jax2tf_apply_/ActorCriticTransformerFlats/ActorCriticTransformerFlats/BroadcastTo_8/shape"]}, {"name": "StatefulPartitionedCall/jax2tf_apply_/ActorCriticTransformerFlats/ActorCriticTransformerFlats/Reshape_12", "op": "Reshape", "input": ["StatefulPartitionedCall/jax2tf_apply_/ActorCriticTransformerFlats/ActorCriticTransformerFlats/concat_5", "StatefulPartitionedCall/jax2tf_apply_/ActorCriticTransformerFlats/ActorCriticTransformerFlats/Reshape_12/shape"], "attr": {"T": {"type": "DT_BOOL"}, "Tshape": {"type": "DT_INT32"}}, "inputs": ["StatefulPartitionedCall/jax2tf_apply_/ActorCriticTransformerFlats/ActorCriticTransformerFlats/concat_5", "StatefulPartitionedCall/jax2tf_apply_/ActorCriticTransformerFlats/ActorCriticTransformerFlats/Reshape_12/shape"]}, {"name": "StatefulPartitionedCall/jax2tf_apply_/ActorCriticTransformerFlats/ActorCriticTransformerFlats/transpose_10", "op": "Transpose", "input": ["StatefulPartitionedCall/jax2tf_apply_/ActorCriticTransformerFlats/ActorCriticTransformerFlats/BroadcastTo_9", "StatefulPartitionedCall/jax2tf_apply_/ActorCriticTransformerFlats/ActorCriticTransformerFlats/transpose_10/perm"], "attr": {"Tperm": {"type": "DT_INT32"}, "_input_shapes": {"list": {"shape": [{"dim": [{"size": "-15"}, {"size": "4"}]}, {"dim": [{"size": "2"}]}]}}, "T": {"type": "DT_FLOAT"}}, "inputs": ["StatefulPartitionedCall/jax2tf_apply_/ActorCriticTransformerFlats/ActorCriticTransformerFlats/BroadcastTo_9", "StatefulPartitionedCall/jax2tf_apply_/ActorCriticTransformerFlats/ActorCriticTransformerFlats/transpose_10/perm"]}, {"name": "StatefulPartitionedCall/jax2tf_apply_/ActorCriticTransformerFlats/ActorCriticTransformerFlats/BroadcastTo_13", "op": "BroadcastTo", "input": ["StatefulPartitionedCall/jax2tf_apply_/ActorCriticTransformerFlats/ActorCriticTransformerFlats/Reshape_13", "StatefulPartitionedCall/jax2tf_apply_/ActorCriticTransformerFlats/ActorCriticTransformerFlats/BroadcastTo_13/shape"], "attr": {"T": {"type": "DT_FLOAT"}, "Tidx": {"type": "DT_INT32"}}, "inputs": ["StatefulPartitionedCall/jax2tf_apply_/ActorCriticTransformerFlats/ActorCriticTransformerFlats/Reshape_13", "StatefulPartitionedCall/jax2tf_apply_/ActorCriticTransformerFlats/ActorCriticTransformerFlats/BroadcastTo_13/shape"]}, {"name": "StatefulPartitionedCall/jax2tf_apply_/assert_equal_23/Assert/AssertGuard/StatefulPartitionedCall/jax2tf_apply_/assert_equal_23/y/_168", "op": "Switch", "input": ["StatefulPartitionedCall/jax2tf_apply_/assert_equal_23/y", "StatefulPartitionedCall/jax2tf_apply_/assert_equal_23/Equal"], "attr": {"T": {"type": "DT_BOOL"}}, "inputs": ["StatefulPartitionedCall/jax2tf_apply_/assert_equal_23/y", "StatefulPartitionedCall/jax2tf_apply_/assert_equal_23/Equal"]}, {"name": "StatefulPartitionedCall/jax2tf_apply_/assert_equal_23/Assert/AssertGuard/StatefulPartitionedCall/jax2tf_apply_/assert_equal_23/All/_166", "op": "Switch", "input": ["StatefulPartitionedCall/jax2tf_apply_/assert_equal_23/Equal", "StatefulPartitionedCall/jax2tf_apply_/assert_equal_23/Equal"], "attr": {"T": {"type": "DT_BOOL"}}, "inputs": ["StatefulPartitionedCall/jax2tf_apply_/assert_equal_23/Equal", "StatefulPartitionedCall/jax2tf_apply_/assert_equal_23/Equal"]}, {"name": "StatefulPartitionedCall/jax2tf_apply_/assert_equal_23/Assert/AssertGuard/StatefulPartitionedCall/jax2tf_apply_/Equal_7/_167", "op": "Switch", "input": ["StatefulPartitionedCall/jax2tf_apply_/Equal_7", "StatefulPartitionedCall/jax2tf_apply_/assert_equal_23/Equal"], "attr": {"T": {"type": "DT_BOOL"}}, "inputs": ["StatefulPartitionedCall/jax2tf_apply_/Equal_7", "StatefulPartitionedCall/jax2tf_apply_/assert_equal_23/Equal"]}, {"name": "StatefulPartitionedCall/jax2tf_apply_/assert_equal_7/Assert/AssertGuard/StatefulPartitionedCall/jax2tf_apply_/assert_equal_7/y/_88", "op": "Switch", "input": ["StatefulPartitionedCall/jax2tf_apply_/assert_equal_7/y", "StatefulPartitionedCall/jax2tf_apply_/assert_equal_7/Equal"], "attr": {"T": {"type": "DT_BOOL"}}, "inputs": ["StatefulPartitionedCall/jax2tf_apply_/assert_equal_7/y", "StatefulPartitionedCall/jax2tf_apply_/assert_equal_7/Equal"]}, {"name": "StatefulPartitionedCall/jax2tf_apply_/assert_equal_7/Assert/AssertGuard/StatefulPartitionedCall/jax2tf_apply_/assert_equal_7/All/_86", "op": "Switch", "input": ["StatefulPartitionedCall/jax2tf_apply_/assert_equal_7/Equal", "StatefulPartitionedCall/jax2tf_apply_/assert_equal_7/Equal"], "attr": {"T": {"type": "DT_BOOL"}}, "inputs": ["StatefulPartitionedCall/jax2tf_apply_/assert_equal_7/Equal", "StatefulPartitionedCall/jax2tf_apply_/assert_equal_7/Equal"]}, {"name": "StatefulPartitionedCall/jax2tf_apply_/assert_equal_7/Assert/AssertGuard/StatefulPartitionedCall/jax2tf_apply_/GreaterEqual_3/_87", "op": "Switch", "input": ["StatefulPartitionedCall/jax2tf_apply_/GreaterEqual_3", "StatefulPartitionedCall/jax2tf_apply_/assert_equal_7/Equal"], "attr": {"T": {"type": "DT_BOOL"}}, "inputs": ["StatefulPartitionedCall/jax2tf_apply_/GreaterEqual_3", "StatefulPartitionedCall/jax2tf_apply_/assert_equal_7/Equal"]}, {"name": "StatefulPartitionedCall/jax2tf_apply_/ActorCriticTransformerFlats/ActorCriticTransformerFlats/BroadcastTo_11", "op": "BroadcastTo", "input": ["StatefulPartitionedCall/jax2tf_apply_/ActorCriticTransformerFlats/ActorCriticTransformerFlats/Reshape_11", "StatefulPartitionedCall/jax2tf_apply_/ActorCriticTransformerFlats/ActorCriticTransformerFlats/BroadcastTo_11/shape"], "attr": {"T": {"type": "DT_FLOAT"}, "Tidx": {"type": "DT_INT32"}}, "inputs": ["StatefulPartitionedCall/jax2tf_apply_/ActorCriticTransformerFlats/ActorCriticTransformerFlats/Reshape_11", "StatefulPartitionedCall/jax2tf_apply_/ActorCriticTransformerFlats/ActorCriticTransformerFlats/BroadcastTo_11/shape"]}, {"name": "StatefulPartitionedCall/jax2tf_apply_/assert_equal_9/Assert/AssertGuard/StatefulPartitionedCall/jax2tf_apply_/assert_equal_9/y/_98", "op": "Switch", "input": ["StatefulPartitionedCall/jax2tf_apply_/assert_equal_9/y", "StatefulPartitionedCall/jax2tf_apply_/assert_equal_9/Equal"], "attr": {"T": {"type": "DT_BOOL"}}, "inputs": ["StatefulPartitionedCall/jax2tf_apply_/assert_equal_9/y", "StatefulPartitionedCall/jax2tf_apply_/assert_equal_9/Equal"]}, {"name": "StatefulPartitionedCall/jax2tf_apply_/assert_equal_9/Assert/AssertGuard/StatefulPartitionedCall/jax2tf_apply_/assert_equal_9/All/_96", "op": "Switch", "input": ["StatefulPartitionedCall/jax2tf_apply_/assert_equal_9/Equal", "StatefulPartitionedCall/jax2tf_apply_/assert_equal_9/Equal"], "attr": {"T": {"type": "DT_BOOL"}}, "inputs": ["StatefulPartitionedCall/jax2tf_apply_/assert_equal_9/Equal", "StatefulPartitionedCall/jax2tf_apply_/assert_equal_9/Equal"]}, {"name": "StatefulPartitionedCall/jax2tf_apply_/assert_equal_9/Assert/AssertGuard/StatefulPartitionedCall/jax2tf_apply_/Equal/_97", "op": "Switch", "input": ["StatefulPartitionedCall/jax2tf_apply_/Equal", "StatefulPartitionedCall/jax2tf_apply_/assert_equal_9/Equal"], "attr": {"T": {"type": "DT_BOOL"}}, "inputs": ["StatefulPartitionedCall/jax2tf_apply_/Equal", "StatefulPartitionedCall/jax2tf_apply_/assert_equal_9/Equal"]}, {"name": "StatefulPartitionedCall/jax2tf_apply_/assert_equal_11/Assert/AssertGuard/StatefulPartitionedCall/jax2tf_apply_/assert_equal_11/y/_108", "op": "Switch", "input": ["StatefulPartitionedCall/jax2tf_apply_/assert_equal_11/y", "StatefulPartitionedCall/jax2tf_apply_/assert_equal_11/Equal"], "attr": {"T": {"type": "DT_BOOL"}}, "inputs": ["StatefulPartitionedCall/jax2tf_apply_/assert_equal_11/y", "StatefulPartitionedCall/jax2tf_apply_/assert_equal_11/Equal"]}, {"name": "StatefulPartitionedCall/jax2tf_apply_/assert_equal_11/Assert/AssertGuard/StatefulPartitionedCall/jax2tf_apply_/assert_equal_11/All/_106", "op": "Switch", "input": ["StatefulPartitionedCall/jax2tf_apply_/assert_equal_11/Equal", "StatefulPartitionedCall/jax2tf_apply_/assert_equal_11/Equal"], "attr": {"T": {"type": "DT_BOOL"}}, "inputs": ["StatefulPartitionedCall/jax2tf_apply_/assert_equal_11/Equal", "StatefulPartitionedCall/jax2tf_apply_/assert_equal_11/Equal"]}, {"name": "StatefulPartitionedCall/jax2tf_apply_/assert_equal_11/Assert/AssertGuard/StatefulPartitionedCall/jax2tf_apply_/Equal_1/_107", "op": "Switch", "input": ["StatefulPartitionedCall/jax2tf_apply_/Equal_1", "StatefulPartitionedCall/jax2tf_apply_/assert_equal_11/Equal"], "attr": {"T": {"type": "DT_BOOL"}}, "inputs": ["StatefulPartitionedCall/jax2tf_apply_/Equal_1", "StatefulPartitionedCall/jax2tf_apply_/assert_equal_11/Equal"]}, {"name": "StatefulPartitionedCall/jax2tf_apply_/assert_equal_13/Assert/AssertGuard/StatefulPartitionedCall/jax2tf_apply_/assert_equal_13/y/_118", "op": "Switch", "input": ["StatefulPartitionedCall/jax2tf_apply_/assert_equal_13/y", "StatefulPartitionedCall/jax2tf_apply_/assert_equal_13/Equal"], "attr": {"T": {"type": "DT_BOOL"}}, "inputs": ["StatefulPartitionedCall/jax2tf_apply_/assert_equal_13/y", "StatefulPartitionedCall/jax2tf_apply_/assert_equal_13/Equal"]}, {"name": "StatefulPartitionedCall/jax2tf_apply_/assert_equal_13/Assert/AssertGuard/StatefulPartitionedCall/jax2tf_apply_/assert_equal_13/All/_116", "op": "Switch", "input": ["StatefulPartitionedCall/jax2tf_apply_/assert_equal_13/Equal", "StatefulPartitionedCall/jax2tf_apply_/assert_equal_13/Equal"], "attr": {"T": {"type": "DT_BOOL"}}, "inputs": ["StatefulPartitionedCall/jax2tf_apply_/assert_equal_13/Equal", "StatefulPartitionedCall/jax2tf_apply_/assert_equal_13/Equal"]}, {"name": "StatefulPartitionedCall/jax2tf_apply_/assert_equal_13/Assert/AssertGuard/StatefulPartitionedCall/jax2tf_apply_/Equal_2/_117", "op": "Switch", "input": ["StatefulPartitionedCall/jax2tf_apply_/Equal_2", "StatefulPartitionedCall/jax2tf_apply_/assert_equal_13/Equal"], "attr": {"T": {"type": "DT_BOOL"}}, "inputs": ["StatefulPartitionedCall/jax2tf_apply_/Equal_2", "StatefulPartitionedCall/jax2tf_apply_/assert_equal_13/Equal"]}, {"name": "StatefulPartitionedCall/jax2tf_apply_/assert_equal_15/Assert/AssertGuard/StatefulPartitionedCall/jax2tf_apply_/assert_equal_15/y/_128", "op": "Switch", "input": ["StatefulPartitionedCall/jax2tf_apply_/assert_equal_15/y", "StatefulPartitionedCall/jax2tf_apply_/assert_equal_15/Equal"], "attr": {"T": {"type": "DT_BOOL"}}, "inputs": ["StatefulPartitionedCall/jax2tf_apply_/assert_equal_15/y", "StatefulPartitionedCall/jax2tf_apply_/assert_equal_15/Equal"]}, {"name": "StatefulPartitionedCall/jax2tf_apply_/assert_equal_15/Assert/AssertGuard/StatefulPartitionedCall/jax2tf_apply_/assert_equal_15/All/_126", "op": "Switch", "input": ["StatefulPartitionedCall/jax2tf_apply_/assert_equal_15/Equal", "StatefulPartitionedCall/jax2tf_apply_/assert_equal_15/Equal"], "attr": {"T": {"type": "DT_BOOL"}}, "inputs": ["StatefulPartitionedCall/jax2tf_apply_/assert_equal_15/Equal", "StatefulPartitionedCall/jax2tf_apply_/assert_equal_15/Equal"]}, {"name": "StatefulPartitionedCall/jax2tf_apply_/assert_equal_15/Assert/AssertGuard/StatefulPartitionedCall/jax2tf_apply_/Equal_3/_127", "op": "Switch", "input": ["StatefulPartitionedCall/jax2tf_apply_/Equal_3", "StatefulPartitionedCall/jax2tf_apply_/assert_equal_15/Equal"], "attr": {"T": {"type": "DT_BOOL"}}, "inputs": ["StatefulPartitionedCall/jax2tf_apply_/Equal_3", "StatefulPartitionedCall/jax2tf_apply_/assert_equal_15/Equal"]}, {"name": "ConstantFoldingCtrl/StatefulPartitionedCall/jax2tf_apply_/assert_equal_1/Assert/AssertGuard/switch_pred/_53_0", "op": "Identity", "input": ["StatefulPartitionedCall/jax2tf_apply_/assert_equal_1/Assert/AssertGuard/switch_pred/_53"], "attr": {"T": {"type": "DT_BOOL"}}, "inputs": ["StatefulPartitionedCall/jax2tf_apply_/assert_equal_1/Assert/AssertGuard/switch_pred/_53"]}, {"name": "ConstantFoldingCtrl/StatefulPartitionedCall/jax2tf_apply_/assert_equal_1/Assert/AssertGuard/switch_pred/_53_1", "op": "Identity", "input": ["StatefulPartitionedCall/jax2tf_apply_/assert_equal_1/Assert/AssertGuard/switch_pred/_53:1"], "attr": {"T": {"type": "DT_BOOL"}}, "inputs": ["StatefulPartitionedCall/jax2tf_apply_/assert_equal_1/Assert/AssertGuard/switch_pred/_53:1"]}, {"name": "StatefulPartitionedCall/jax2tf_apply_/ActorCriticTransformerFlats/ActorCriticTransformerFlats/strided_slice_1", "op": "StridedSlice", "input": ["StatefulPartitionedCall/jax2tf_apply_/ActorCriticTransformerFlats/ActorCriticTransformerFlats/BroadcastTo_2", "StatefulPartitionedCall/jax2tf_apply_/ActorCriticTransformerFlats/ActorCriticTransformerFlats/strided_slice_1/stack", "StatefulPartitionedCall/jax2tf_apply_/ActorCriticTransformerFlats/ActorCriticTransformerFlats/strided_slice_1/stack_1", "StatefulPartitionedCall/jax2tf_apply_/ActorCriticTransformerFlats/ActorCriticTransformerFlats/strided_slice_1/stack_2"], "attr": {"shrink_axis_mask": {"i": "0"}, "Index": {"type": "DT_INT32"}, "new_axis_mask": {"i": "1"}, "begin_mask": {"i": "0"}, "T": {"type": "DT_FLOAT"}, "end_mask": {"i": "0"}, "ellipsis_mask": {"i": "0"}}, "inputs": ["StatefulPartitionedCall/jax2tf_apply_/ActorCriticTransformerFlats/ActorCriticTransformerFlats/BroadcastTo_2", "StatefulPartitionedCall/jax2tf_apply_/ActorCriticTransformerFlats/ActorCriticTransformerFlats/strided_slice_1/stack", "StatefulPartitionedCall/jax2tf_apply_/ActorCriticTransformerFlats/ActorCriticTransformerFlats/strided_slice_1/stack_1", "StatefulPartitionedCall/jax2tf_apply_/ActorCriticTransformerFlats/ActorCriticTransformerFlats/strided_slice_1/stack_2"]}, {"name": "StatefulPartitionedCall/jax2tf_apply_/assert_equal_19/Assert/AssertGuard/StatefulPartitionedCall/jax2tf_apply_/assert_equal_19/y/_148", "op": "Switch", "input": ["StatefulPartitionedCall/jax2tf_apply_/assert_equal_19/y", "StatefulPartitionedCall/jax2tf_apply_/assert_equal_19/Equal"], "attr": {"T": {"type": "DT_BOOL"}}, "inputs": ["StatefulPartitionedCall/jax2tf_apply_/assert_equal_19/y", "StatefulPartitionedCall/jax2tf_apply_/assert_equal_19/Equal"]}, {"name": "StatefulPartitionedCall/jax2tf_apply_/assert_equal_19/Assert/AssertGuard/StatefulPartitionedCall/jax2tf_apply_/assert_equal_19/All/_146", "op": "Switch", "input": ["StatefulPartitionedCall/jax2tf_apply_/assert_equal_19/Equal", "StatefulPartitionedCall/jax2tf_apply_/assert_equal_19/Equal"], "attr": {"T": {"type": "DT_BOOL"}}, "inputs": ["StatefulPartitionedCall/jax2tf_apply_/assert_equal_19/Equal", "StatefulPartitionedCall/jax2tf_apply_/assert_equal_19/Equal"]}, {"name": "StatefulPartitionedCall/jax2tf_apply_/assert_equal_19/Assert/AssertGuard/StatefulPartitionedCall/jax2tf_apply_/Equal_5/_147", "op": "Switch", "input": ["StatefulPartitionedCall/jax2tf_apply_/Equal_5", "StatefulPartitionedCall/jax2tf_apply_/assert_equal_19/Equal"], "attr": {"T": {"type": "DT_BOOL"}}, "inputs": ["StatefulPartitionedCall/jax2tf_apply_/Equal_5", "StatefulPartitionedCall/jax2tf_apply_/assert_equal_19/Equal"]}, {"name": "StatefulPartitionedCall/jax2tf_apply_/assert_equal_17/Assert/AssertGuard/StatefulPartitionedCall/jax2tf_apply_/assert_equal_17/y/_138", "op": "Switch", "input": ["StatefulPartitionedCall/jax2tf_apply_/assert_equal_17/y", "StatefulPartitionedCall/jax2tf_apply_/assert_equal_17/Equal"], "attr": {"T": {"type": "DT_BOOL"}}, "inputs": ["StatefulPartitionedCall/jax2tf_apply_/assert_equal_17/y", "StatefulPartitionedCall/jax2tf_apply_/assert_equal_17/Equal"]}, {"name": "StatefulPartitionedCall/jax2tf_apply_/assert_equal_17/Assert/AssertGuard/StatefulPartitionedCall/jax2tf_apply_/assert_equal_17/All/_136", "op": "Switch", "input": ["StatefulPartitionedCall/jax2tf_apply_/assert_equal_17/Equal", "StatefulPartitionedCall/jax2tf_apply_/assert_equal_17/Equal"], "attr": {"T": {"type": "DT_BOOL"}}, "inputs": ["StatefulPartitionedCall/jax2tf_apply_/assert_equal_17/Equal", "StatefulPartitionedCall/jax2tf_apply_/assert_equal_17/Equal"]}, {"name": "StatefulPartitionedCall/jax2tf_apply_/assert_equal_17/Assert/AssertGuard/StatefulPartitionedCall/jax2tf_apply_/Equal_4/_137", "op": "Switch", "input": ["StatefulPartitionedCall/jax2tf_apply_/Equal_4", "StatefulPartitionedCall/jax2tf_apply_/assert_equal_17/Equal"], "attr": {"T": {"type": "DT_BOOL"}}, "inputs": ["StatefulPartitionedCall/jax2tf_apply_/Equal_4", "StatefulPartitionedCall/jax2tf_apply_/assert_equal_17/Equal"]}, {"name": "StatefulPartitionedCall/jax2tf_apply_/ActorCriticTransformerFlats/ActorCriticTransformerFlats/strided_slice_3", "op": "StridedSlice", "input": ["StatefulPartitionedCall/jax2tf_apply_/ActorCriticTransformerFlats/ActorCriticTransformerFlats/BroadcastTo_5", "StatefulPartitionedCall/jax2tf_apply_/ActorCriticTransformerFlats/ActorCriticTransformerFlats/strided_slice_3/stack", "StatefulPartitionedCall/jax2tf_apply_/ActorCriticTransformerFlats/ActorCriticTransformerFlats/strided_slice_3/stack_1", "StatefulPartitionedCall/jax2tf_apply_/ActorCriticTransformerFlats/ActorCriticTransformerFlats/strided_slice_3/stack_2"], "attr": {"shrink_axis_mask": {"i": "0"}, "new_axis_mask": {"i": "1"}, "Index": {"type": "DT_INT32"}, "begin_mask": {"i": "0"}, "end_mask": {"i": "0"}, "T": {"type": "DT_FLOAT"}, "ellipsis_mask": {"i": "0"}}, "inputs": ["StatefulPartitionedCall/jax2tf_apply_/ActorCriticTransformerFlats/ActorCriticTransformerFlats/BroadcastTo_5", "StatefulPartitionedCall/jax2tf_apply_/ActorCriticTransformerFlats/ActorCriticTransformerFlats/strided_slice_3/stack", "StatefulPartitionedCall/jax2tf_apply_/ActorCriticTransformerFlats/ActorCriticTransformerFlats/strided_slice_3/stack_1", "StatefulPartitionedCall/jax2tf_apply_/ActorCriticTransformerFlats/ActorCriticTransformerFlats/strided_slice_3/stack_2"]}, {"name": "StatefulPartitionedCall/jax2tf_apply_/ActorCriticTransformerFlats/ActorCriticTransformerFlats/strided_slice_5", "op": "StridedSlice", "input": ["StatefulPartitionedCall/jax2tf_apply_/ActorCriticTransformerFlats/ActorCriticTransformerFlats/BroadcastTo_8", "StatefulPartitionedCall/jax2tf_apply_/ActorCriticTransformerFlats/ActorCriticTransformerFlats/strided_slice_5/stack", "StatefulPartitionedCall/jax2tf_apply_/ActorCriticTransformerFlats/ActorCriticTransformerFlats/strided_slice_5/stack_1", "StatefulPartitionedCall/jax2tf_apply_/ActorCriticTransformerFlats/ActorCriticTransformerFlats/strided_slice_5/stack_2"], "attr": {"shrink_axis_mask": {"i": "0"}, "new_axis_mask": {"i": "1"}, "Index": {"type": "DT_INT32"}, "begin_mask": {"i": "0"}, "T": {"type": "DT_FLOAT"}, "end_mask": {"i": "0"}, "ellipsis_mask": {"i": "0"}}, "inputs": ["StatefulPartitionedCall/jax2tf_apply_/ActorCriticTransformerFlats/ActorCriticTransformerFlats/BroadcastTo_8", "StatefulPartitionedCall/jax2tf_apply_/ActorCriticTransformerFlats/ActorCriticTransformerFlats/strided_slice_5/stack", "StatefulPartitionedCall/jax2tf_apply_/ActorCriticTransformerFlats/ActorCriticTransformerFlats/strided_slice_5/stack_1", "StatefulPartitionedCall/jax2tf_apply_/ActorCriticTransformerFlats/ActorCriticTransformerFlats/strided_slice_5/stack_2"]}, {"name": "StatefulPartitionedCall/jax2tf_apply_/ActorCriticTransformerFlats/ActorCriticTransformerFlats/BroadcastTo_12", "op": "BroadcastTo", "input": ["StatefulPartitionedCall/jax2tf_apply_/ActorCriticTransformerFlats/ActorCriticTransformerFlats/Reshape_12", "StatefulPartitionedCall/jax2tf_apply_/ActorCriticTransformerFlats/ActorCriticTransformerFlats/BroadcastTo_12/shape"], "attr": {"Tidx": {"type": "DT_INT32"}, "T": {"type": "DT_BOOL"}}, "inputs": ["StatefulPartitionedCall/jax2tf_apply_/ActorCriticTransformerFlats/ActorCriticTransformerFlats/Reshape_12", "StatefulPartitionedCall/jax2tf_apply_/ActorCriticTransformerFlats/ActorCriticTransformerFlats/BroadcastTo_12/shape"]}, {"name": "StatefulPartitionedCall/jax2tf_apply_/ActorCriticTransformerFlats/ActorCriticTransformerFlats/strided_slice_7", "op": "StridedSlice", "input": ["StatefulPartitionedCall/jax2tf_apply_/ActorCriticTransformerFlats/ActorCriticTransformerFlats/BroadcastTo_11", "StatefulPartitionedCall/jax2tf_apply_/ActorCriticTransformerFlats/ActorCriticTransformerFlats/strided_slice_7/stack", "StatefulPartitionedCall/jax2tf_apply_/ActorCriticTransformerFlats/ActorCriticTransformerFlats/strided_slice_7/stack_1", "StatefulPartitionedCall/jax2tf_apply_/ActorCriticTransformerFlats/ActorCriticTransformerFlats/strided_slice_7/stack_2"], "attr": {"shrink_axis_mask": {"i": "0"}, "Index": {"type": "DT_INT32"}, "new_axis_mask": {"i": "1"}, "begin_mask": {"i": "0"}, "end_mask": {"i": "0"}, "T": {"type": "DT_FLOAT"}, "ellipsis_mask": {"i": "0"}}, "inputs": ["StatefulPartitionedCall/jax2tf_apply_/ActorCriticTransformerFlats/ActorCriticTransformerFlats/BroadcastTo_11", "StatefulPartitionedCall/jax2tf_apply_/ActorCriticTransformerFlats/ActorCriticTransformerFlats/strided_slice_7/stack", "StatefulPartitionedCall/jax2tf_apply_/ActorCriticTransformerFlats/ActorCriticTransformerFlats/strided_slice_7/stack_1", "StatefulPartitionedCall/jax2tf_apply_/ActorCriticTransformerFlats/ActorCriticTransformerFlats/strided_slice_7/stack_2"]}, {"name": "StatefulPartitionedCall/jax2tf_apply_/assert_equal_1/Assert/AssertGuard/pivot_f/_54", "op": "Const", "input": ["^ConstantFoldingCtrl/StatefulPartitionedCall/jax2tf_apply_/assert_equal_1/Assert/AssertGuard/switch_pred/_53_0"], "attr": {"value": {"tensor": {"dtype": "DT_BOOL", "tensorShape": {}}}, "dtype": {"type": "DT_BOOL"}}, "inputs": ["^ConstantFoldingCtrl/StatefulPartitionedCall/jax2tf_apply_/assert_equal_1/Assert/AssertGuard/switch_pred/_53_0"]}, {"name": "StatefulPartitionedCall/jax2tf_apply_/assert_equal_1/Assert/AssertGuard/pivot_t/_55", "op": "Const", "input": ["^ConstantFoldingCtrl/StatefulPartitionedCall/jax2tf_apply_/assert_equal_1/Assert/AssertGuard/switch_pred/_53_1"], "attr": {"value": {"tensor": {"dtype": "DT_BOOL", "tensorShape": {}}}, "dtype": {"type": "DT_BOOL"}}, "inputs": ["^ConstantFoldingCtrl/StatefulPartitionedCall/jax2tf_apply_/assert_equal_1/Assert/AssertGuard/switch_pred/_53_1"]}, {"name": "StatefulPartitionedCall/jax2tf_apply_/ActorCriticTransformerFlats/ActorCriticTransformerFlats/TensorScatterUpdate", "op": "TensorScatterUpdate", "input": ["StatefulPartitionedCall/jax2tf_apply_/ActorCriticTransformerFlats/ActorCriticTransformerFlats/transpose_1", "StatefulPartitionedCall/jax2tf_apply_/ActorCriticTransformerFlats/ActorCriticTransformerFlats/strided_slice", "StatefulPartitionedCall/jax2tf_apply_/ActorCriticTransformerFlats/ActorCriticTransformerFlats/strided_slice_1"], "attr": {"Tindices": {"type": "DT_INT32"}, "T": {"type": "DT_FLOAT"}}, "inputs": ["StatefulPartitionedCall/jax2tf_apply_/ActorCriticTransformerFlats/ActorCriticTransformerFlats/transpose_1", "StatefulPartitionedCall/jax2tf_apply_/ActorCriticTransformerFlats/ActorCriticTransformerFlats/strided_slice", "StatefulPartitionedCall/jax2tf_apply_/ActorCriticTransformerFlats/ActorCriticTransformerFlats/strided_slice_1"]}, {"name": "StatefulPartitionedCall/jax2tf_apply_/ActorCriticTransformerFlats/ActorCriticTransformerFlats/TensorScatterUpdate_1", "op": "TensorScatterUpdate", "input": ["StatefulPartitionedCall/jax2tf_apply_/ActorCriticTransformerFlats/ActorCriticTransformerFlats/transpose_4", "StatefulPartitionedCall/jax2tf_apply_/ActorCriticTransformerFlats/ActorCriticTransformerFlats/strided_slice_2", "StatefulPartitionedCall/jax2tf_apply_/ActorCriticTransformerFlats/ActorCriticTransformerFlats/strided_slice_3"], "attr": {"Tindices": {"type": "DT_INT32"}, "T": {"type": "DT_FLOAT"}}, "inputs": ["StatefulPartitionedCall/jax2tf_apply_/ActorCriticTransformerFlats/ActorCriticTransformerFlats/transpose_4", "StatefulPartitionedCall/jax2tf_apply_/ActorCriticTransformerFlats/ActorCriticTransformerFlats/strided_slice_2", "StatefulPartitionedCall/jax2tf_apply_/ActorCriticTransformerFlats/ActorCriticTransformerFlats/strided_slice_3"]}, {"name": "StatefulPartitionedCall/jax2tf_apply_/ActorCriticTransformerFlats/ActorCriticTransformerFlats/TensorScatterUpdate_2", "op": "TensorScatterUpdate", "input": ["StatefulPartitionedCall/jax2tf_apply_/ActorCriticTransformerFlats/ActorCriticTransformerFlats/transpose_7", "StatefulPartitionedCall/jax2tf_apply_/ActorCriticTransformerFlats/ActorCriticTransformerFlats/strided_slice_4", "StatefulPartitionedCall/jax2tf_apply_/ActorCriticTransformerFlats/ActorCriticTransformerFlats/strided_slice_5"], "attr": {"Tindices": {"type": "DT_INT32"}, "T": {"type": "DT_FLOAT"}}, "inputs": ["StatefulPartitionedCall/jax2tf_apply_/ActorCriticTransformerFlats/ActorCriticTransformerFlats/transpose_7", "StatefulPartitionedCall/jax2tf_apply_/ActorCriticTransformerFlats/ActorCriticTransformerFlats/strided_slice_4", "StatefulPartitionedCall/jax2tf_apply_/ActorCriticTransformerFlats/ActorCriticTransformerFlats/strided_slice_5"]}, {"name": "StatefulPartitionedCall/jax2tf_apply_/ActorCriticTransformerFlats/ActorCriticTransformerFlats/pjit__where_/BroadcastTo", "op": "BroadcastTo", "input": ["StatefulPartitionedCall/jax2tf_apply_/ActorCriticTransformerFlats/ActorCriticTransformerFlats/BroadcastTo_12", "StatefulPartitionedCall/jax2tf_apply_/ActorCriticTransformerFlats/ActorCriticTransformerFlats/pjit__where_/BroadcastTo/shape"], "attr": {"T": {"type": "DT_BOOL"}, "Tidx": {"type": "DT_INT32"}}, "inputs": ["StatefulPartitionedCall/jax2tf_apply_/ActorCriticTransformerFlats/ActorCriticTransformerFlats/BroadcastTo_12", "StatefulPartitionedCall/jax2tf_apply_/ActorCriticTransformerFlats/ActorCriticTransformerFlats/pjit__where_/BroadcastTo/shape"]}, {"name": "StatefulPartitionedCall/jax2tf_apply_/ActorCriticTransformerFlats/ActorCriticTransformerFlats/TensorScatterUpdate_3", "op": "TensorScatterUpdate", "input": ["StatefulPartitionedCall/jax2tf_apply_/ActorCriticTransformerFlats/ActorCriticTransformerFlats/transpose_10", "StatefulPartitionedCall/jax2tf_apply_/ActorCriticTransformerFlats/ActorCriticTransformerFlats/strided_slice_6", "StatefulPartitionedCall/jax2tf_apply_/ActorCriticTransformerFlats/ActorCriticTransformerFlats/strided_slice_7"], "attr": {"Tindices": {"type": "DT_INT32"}, "T": {"type": "DT_FLOAT"}}, "inputs": ["StatefulPartitionedCall/jax2tf_apply_/ActorCriticTransformerFlats/ActorCriticTransformerFlats/transpose_10", "StatefulPartitionedCall/jax2tf_apply_/ActorCriticTransformerFlats/ActorCriticTransformerFlats/strided_slice_6", "StatefulPartitionedCall/jax2tf_apply_/ActorCriticTransformerFlats/ActorCriticTransformerFlats/strided_slice_7"]}, {"name": "Func/StatefulPartitionedCall/jax2tf_apply_/assert_equal_1/Assert/AssertGuard/else/_52/input/_180", "op": "Identity", "input": ["StatefulPartitionedCall/jax2tf_apply_/assert_equal_1/Assert/AssertGuard/StatefulPartitionedCall/jax2tf_apply_/assert_equal_1/y/_58", "^StatefulPartitionedCall/jax2tf_apply_/assert_equal_1/Assert/AssertGuard/pivot_f/_54"], "attr": {"T": {"type": "DT_BOOL"}}, "inputs": ["StatefulPartitionedCall/jax2tf_apply_/assert_equal_1/Assert/AssertGuard/StatefulPartitionedCall/jax2tf_apply_/assert_equal_1/y/_58", "^StatefulPartitionedCall/jax2tf_apply_/assert_equal_1/Assert/AssertGuard/pivot_f/_54"]}, {"name": "Func/StatefulPartitionedCall/jax2tf_apply_/assert_equal_1/Assert/AssertGuard/else/_52/input/_178", "op": "Identity", "input": ["StatefulPartitionedCall/jax2tf_apply_/assert_equal_1/Assert/AssertGuard/StatefulPartitionedCall/jax2tf_apply_/assert_equal_1/All/_56", "^StatefulPartitionedCall/jax2tf_apply_/assert_equal_1/Assert/AssertGuard/pivot_f/_54"], "attr": {"T": {"type": "DT_BOOL"}}, "inputs": ["StatefulPartitionedCall/jax2tf_apply_/assert_equal_1/Assert/AssertGuard/StatefulPartitionedCall/jax2tf_apply_/assert_equal_1/All/_56", "^StatefulPartitionedCall/jax2tf_apply_/assert_equal_1/Assert/AssertGuard/pivot_f/_54"]}, {"name": "Func/StatefulPartitionedCall/jax2tf_apply_/assert_equal_1/Assert/AssertGuard/else/_52/input/_179", "op": "Identity", "input": ["StatefulPartitionedCall/jax2tf_apply_/assert_equal_1/Assert/AssertGuard/StatefulPartitionedCall/jax2tf_apply_/GreaterEqual/_57", "^StatefulPartitionedCall/jax2tf_apply_/assert_equal_1/Assert/AssertGuard/pivot_f/_54"], "attr": {"T": {"type": "DT_BOOL"}}, "inputs": ["StatefulPartitionedCall/jax2tf_apply_/assert_equal_1/Assert/AssertGuard/StatefulPartitionedCall/jax2tf_apply_/GreaterEqual/_57", "^StatefulPartitionedCall/jax2tf_apply_/assert_equal_1/Assert/AssertGuard/pivot_f/_54"]}, {"name": "StatefulPartitionedCall/jax2tf_apply_/ActorCriticTransformerFlats/ActorCriticTransformerFlats/transpose_2", "op": "Transpose", "input": ["StatefulPartitionedCall/jax2tf_apply_/ActorCriticTransformerFlats/ActorCriticTransformerFlats/TensorScatterUpdate", "StatefulPartitionedCall/jax2tf_apply_/ActorCriticTransformerFlats/ActorCriticTransformerFlats/transpose_2/perm"], "attr": {"Tperm": {"type": "DT_INT32"}, "_input_shapes": {"list": {"shape": [{"dim": [{"size": "4"}, {"size": "-3"}]}, {"dim": [{"size": "2"}]}]}}, "T": {"type": "DT_FLOAT"}}, "inputs": ["StatefulPartitionedCall/jax2tf_apply_/ActorCriticTransformerFlats/ActorCriticTransformerFlats/TensorScatterUpdate", "StatefulPartitionedCall/jax2tf_apply_/ActorCriticTransformerFlats/ActorCriticTransformerFlats/transpose_2/perm"]}, {"name": "StatefulPartitionedCall/jax2tf_apply_/ActorCriticTransformerFlats/ActorCriticTransformerFlats/transpose_5", "op": "Transpose", "input": ["StatefulPartitionedCall/jax2tf_apply_/ActorCriticTransformerFlats/ActorCriticTransformerFlats/TensorScatterUpdate_1", "StatefulPartitionedCall/jax2tf_apply_/ActorCriticTransformerFlats/ActorCriticTransformerFlats/transpose_5/perm"], "attr": {"Tperm": {"type": "DT_INT32"}, "_input_shapes": {"list": {"shape": [{"dim": [{"size": "4"}, {"size": "-7"}]}, {"dim": [{"size": "2"}]}]}}, "T": {"type": "DT_FLOAT"}}, "inputs": ["StatefulPartitionedCall/jax2tf_apply_/ActorCriticTransformerFlats/ActorCriticTransformerFlats/TensorScatterUpdate_1", "StatefulPartitionedCall/jax2tf_apply_/ActorCriticTransformerFlats/ActorCriticTransformerFlats/transpose_5/perm"]}, {"name": "StatefulPartitionedCall/jax2tf_apply_/ActorCriticTransformerFlats/ActorCriticTransformerFlats/transpose_8", "op": "Transpose", "input": ["StatefulPartitionedCall/jax2tf_apply_/ActorCriticTransformerFlats/ActorCriticTransformerFlats/TensorScatterUpdate_2", "StatefulPartitionedCall/jax2tf_apply_/ActorCriticTransformerFlats/ActorCriticTransformerFlats/transpose_8/perm"], "attr": {"Tperm": {"type": "DT_INT32"}, "_input_shapes": {"list": {"shape": [{"dim": [{"size": "4"}, {"size": "-11"}]}, {"dim": [{"size": "2"}]}]}}, "T": {"type": "DT_FLOAT"}}, "inputs": ["StatefulPartitionedCall/jax2tf_apply_/ActorCriticTransformerFlats/ActorCriticTransformerFlats/TensorScatterUpdate_2", "StatefulPartitionedCall/jax2tf_apply_/ActorCriticTransformerFlats/ActorCriticTransformerFlats/transpose_8/perm"]}, {"name": "StatefulPartitionedCall/jax2tf_apply_/ActorCriticTransformerFlats/ActorCriticTransformerFlats/transpose_11", "op": "Transpose", "input": ["StatefulPartitionedCall/jax2tf_apply_/ActorCriticTransformerFlats/ActorCriticTransformerFlats/TensorScatterUpdate_3", "StatefulPartitionedCall/jax2tf_apply_/ActorCriticTransformerFlats/ActorCriticTransformerFlats/transpose_11/perm"], "attr": {"Tperm": {"type": "DT_INT32"}, "_input_shapes": {"list": {"shape": [{"dim": [{"size": "4"}, {"size": "-15"}]}, {"dim": [{"size": "2"}]}]}}, "T": {"type": "DT_FLOAT"}}, "inputs": ["StatefulPartitionedCall/jax2tf_apply_/ActorCriticTransformerFlats/ActorCriticTransformerFlats/TensorScatterUpdate_3", "StatefulPartitionedCall/jax2tf_apply_/ActorCriticTransformerFlats/ActorCriticTransformerFlats/transpose_11/perm"]}, {"name": "StatefulPartitionedCall/jax2tf_apply_/assert_equal_1/Assert/AssertGuard/branch_executed/_60", "op": "Merge", "input": ["StatefulPartitionedCall/jax2tf_apply_/assert_equal_1/Assert/AssertGuard/pivot_t/_55", "StatefulPartitionedCall/jax2tf_apply_/assert_equal_1/Assert/AssertGuard/pivot_f/_54", "^Func/StatefulPartitionedCall/jax2tf_apply_/assert_equal_1/Assert/AssertGuard/else/_52/input/_180", "^Func/StatefulPartitionedCall/jax2tf_apply_/assert_equal_1/Assert/AssertGuard/else/_52/input/_179", "^Func/StatefulPartitionedCall/jax2tf_apply_/assert_equal_1/Assert/AssertGuard/else/_52/input/_178"], "attr": {"N": {"i": "2"}, "_has_manual_control_dependencies": {"b": true}, "T": {"type": "DT_BOOL"}}, "inputs": ["StatefulPartitionedCall/jax2tf_apply_/assert_equal_1/Assert/AssertGuard/pivot_t/_55", "StatefulPartitionedCall/jax2tf_apply_/assert_equal_1/Assert/AssertGuard/pivot_f/_54", "^Func/StatefulPartitionedCall/jax2tf_apply_/assert_equal_1/Assert/AssertGuard/else/_52/input/_180", "^Func/StatefulPartitionedCall/jax2tf_apply_/assert_equal_1/Assert/AssertGuard/else/_52/input/_179", "^Func/StatefulPartitionedCall/jax2tf_apply_/assert_equal_1/Assert/AssertGuard/else/_52/input/_178"]}, {"name": "StatefulPartitionedCall/jax2tf_apply_/ActorCriticTransformerFlats/ActorCriticTransformerFlats/concat", "op": "ConcatV2", "input": ["StatefulPartitionedCall/jax2tf_apply_/ActorCriticTransformerFlats/ActorCriticTransformerFlats/pjit_tanh_/Tanh", "StatefulPartitionedCall/jax2tf_apply_/ActorCriticTransformerFlats/ActorCriticTransformerFlats/transpose_2", "StatefulPartitionedCall/jax2tf_apply_/ActorCriticTransformerFlats/ActorCriticTransformerFlats/Cast_1/x"], "attr": {"N": {"i": "2"}, "Tidx": {"type": "DT_INT32"}, "T": {"type": "DT_FLOAT"}}, "inputs": ["StatefulPartitionedCall/jax2tf_apply_/ActorCriticTransformerFlats/ActorCriticTransformerFlats/pjit_tanh_/Tanh", "StatefulPartitionedCall/jax2tf_apply_/ActorCriticTransformerFlats/ActorCriticTransformerFlats/transpose_2", "StatefulPartitionedCall/jax2tf_apply_/ActorCriticTransformerFlats/ActorCriticTransformerFlats/Cast_1/x"]}, {"name": "StatefulPartitionedCall/jax2tf_apply_/ActorCriticTransformerFlats/ActorCriticTransformerFlats/concat_1", "op": "ConcatV2", "input": ["StatefulPartitionedCall/jax2tf_apply_/ActorCriticTransformerFlats/ActorCriticTransformerFlats/pjit_tanh_/Tanh_1", "StatefulPartitionedCall/jax2tf_apply_/ActorCriticTransformerFlats/ActorCriticTransformerFlats/transpose_5", "StatefulPartitionedCall/jax2tf_apply_/ActorCriticTransformerFlats/ActorCriticTransformerFlats/Cast_3/x"], "attr": {"N": {"i": "2"}, "T": {"type": "DT_FLOAT"}, "Tidx": {"type": "DT_INT32"}}, "inputs": ["StatefulPartitionedCall/jax2tf_apply_/ActorCriticTransformerFlats/ActorCriticTransformerFlats/pjit_tanh_/Tanh_1", "StatefulPartitionedCall/jax2tf_apply_/ActorCriticTransformerFlats/ActorCriticTransformerFlats/transpose_5", "StatefulPartitionedCall/jax2tf_apply_/ActorCriticTransformerFlats/ActorCriticTransformerFlats/Cast_3/x"]}, {"name": "StatefulPartitionedCall/jax2tf_apply_/ActorCriticTransformerFlats/ActorCriticTransformerFlats/concat_2", "op": "ConcatV2", "input": ["StatefulPartitionedCall/jax2tf_apply_/ActorCriticTransformerFlats/ActorCriticTransformerFlats/pjit_tanh_/Tanh_2", "StatefulPartitionedCall/jax2tf_apply_/ActorCriticTransformerFlats/ActorCriticTransformerFlats/transpose_8", "StatefulPartitionedCall/jax2tf_apply_/ActorCriticTransformerFlats/ActorCriticTransformerFlats/Cast_5/x"], "attr": {"N": {"i": "2"}, "T": {"type": "DT_FLOAT"}, "Tidx": {"type": "DT_INT32"}}, "inputs": ["StatefulPartitionedCall/jax2tf_apply_/ActorCriticTransformerFlats/ActorCriticTransformerFlats/pjit_tanh_/Tanh_2", "StatefulPartitionedCall/jax2tf_apply_/ActorCriticTransformerFlats/ActorCriticTransformerFlats/transpose_8", "StatefulPartitionedCall/jax2tf_apply_/ActorCriticTransformerFlats/ActorCriticTransformerFlats/Cast_5/x"]}, {"name": "StatefulPartitionedCall/jax2tf_apply_/ActorCriticTransformerFlats/ActorCriticTransformerFlats/concat_3", "op": "ConcatV2", "input": ["StatefulPartitionedCall/jax2tf_apply_/ActorCriticTransformerFlats/ActorCriticTransformerFlats/pjit_tanh_/Tanh_3", "StatefulPartitionedCall/jax2tf_apply_/ActorCriticTransformerFlats/ActorCriticTransformerFlats/transpose_11", "StatefulPartitionedCall/jax2tf_apply_/ActorCriticTransformerFlats/ActorCriticTransformerFlats/Cast_7/x"], "attr": {"N": {"i": "2"}, "Tidx": {"type": "DT_INT32"}, "T": {"type": "DT_FLOAT"}}, "inputs": ["StatefulPartitionedCall/jax2tf_apply_/ActorCriticTransformerFlats/ActorCriticTransformerFlats/pjit_tanh_/Tanh_3", "StatefulPartitionedCall/jax2tf_apply_/ActorCriticTransformerFlats/ActorCriticTransformerFlats/transpose_11", "StatefulPartitionedCall/jax2tf_apply_/ActorCriticTransformerFlats/ActorCriticTransformerFlats/Cast_7/x"]}, {"name": "StatefulPartitionedCall/jax2tf_apply_/assert_equal_3/Assert/AssertGuard/switch_pred/_63", "op": "Switch", "input": ["StatefulPartitionedCall/jax2tf_apply_/assert_equal_3/Equal", "StatefulPartitionedCall/jax2tf_apply_/assert_equal_3/Equal", "^StatefulPartitionedCall/jax2tf_apply_/assert_equal_1/Assert/AssertGuard/branch_executed/_60"], "attr": {"T": {"type": "DT_BOOL"}}, "inputs": ["StatefulPartitionedCall/jax2tf_apply_/assert_equal_3/Equal", "StatefulPartitionedCall/jax2tf_apply_/assert_equal_3/Equal", "^StatefulPartitionedCall/jax2tf_apply_/assert_equal_1/Assert/AssertGuard/branch_executed/_60"]}, {"name": "StatefulPartitionedCall/jax2tf_apply_/ActorCriticTransformerFlats/ActorCriticTransformerFlats/concat_4", "op": "ConcatV2", "input": ["StatefulPartitionedCall/jax2tf_apply_/ActorCriticTransformerFlats/ActorCriticTransformerFlats/concat_1", "StatefulPartitionedCall/jax2tf_apply_/ActorCriticTransformerFlats/ActorCriticTransformerFlats/concat", "StatefulPartitionedCall/jax2tf_apply_/ActorCriticTransformerFlats/ActorCriticTransformerFlats/concat_2", "StatefulPartitionedCall/jax2tf_apply_/ActorCriticTransformerFlats/ActorCriticTransformerFlats/concat_3", "StatefulPartitionedCall/jax2tf_apply_/ActorCriticTransformerFlats/ActorCriticTransformerFlats/Cast_8/x"], "attr": {"N": {"i": "4"}, "Tidx": {"type": "DT_INT32"}, "T": {"type": "DT_FLOAT"}}, "inputs": ["StatefulPartitionedCall/jax2tf_apply_/ActorCriticTransformerFlats/ActorCriticTransformerFlats/concat_1", "StatefulPartitionedCall/jax2tf_apply_/ActorCriticTransformerFlats/ActorCriticTransformerFlats/concat", "StatefulPartitionedCall/jax2tf_apply_/ActorCriticTransformerFlats/ActorCriticTransformerFlats/concat_2", "StatefulPartitionedCall/jax2tf_apply_/ActorCriticTransformerFlats/ActorCriticTransformerFlats/concat_3", "StatefulPartitionedCall/jax2tf_apply_/ActorCriticTransformerFlats/ActorCriticTransformerFlats/Cast_8/x"]}, {"name": "ConstantFoldingCtrl/StatefulPartitionedCall/jax2tf_apply_/assert_equal_3/Assert/AssertGuard/switch_pred/_63_0", "op": "Identity", "input": ["StatefulPartitionedCall/jax2tf_apply_/assert_equal_3/Assert/AssertGuard/switch_pred/_63"], "attr": {"T": {"type": "DT_BOOL"}}, "inputs": ["StatefulPartitionedCall/jax2tf_apply_/assert_equal_3/Assert/AssertGuard/switch_pred/_63"]}, {"name": "ConstantFoldingCtrl/StatefulPartitionedCall/jax2tf_apply_/assert_equal_3/Assert/AssertGuard/switch_pred/_63_1", "op": "Identity", "input": ["StatefulPartitionedCall/jax2tf_apply_/assert_equal_3/Assert/AssertGuard/switch_pred/_63:1"], "attr": {"T": {"type": "DT_BOOL"}}, "inputs": ["StatefulPartitionedCall/jax2tf_apply_/assert_equal_3/Assert/AssertGuard/switch_pred/_63:1"]}, {"name": "StatefulPartitionedCall/jax2tf_apply_/ActorCriticTransformerFlats/ActorCriticTransformerFlats/pjit__where_/SelectV2", "op": "SelectV2", "input": ["StatefulPartitionedCall/jax2tf_apply_/ActorCriticTransformerFlats/ActorCriticTransformerFlats/pjit__where_/BroadcastTo", "StatefulPartitionedCall/jax2tf_apply_/ActorCriticTransformerFlats/ActorCriticTransformerFlats/concat_4", "StatefulPartitionedCall/jax2tf_apply_/ActorCriticTransformerFlats/ActorCriticTransformerFlats/BroadcastTo_13"], "attr": {"T": {"type": "DT_FLOAT"}}, "inputs": ["StatefulPartitionedCall/jax2tf_apply_/ActorCriticTransformerFlats/ActorCriticTransformerFlats/pjit__where_/BroadcastTo", "StatefulPartitionedCall/jax2tf_apply_/ActorCriticTransformerFlats/ActorCriticTransformerFlats/concat_4", "StatefulPartitionedCall/jax2tf_apply_/ActorCriticTransformerFlats/ActorCriticTransformerFlats/BroadcastTo_13"]}, {"name": "StatefulPartitionedCall/jax2tf_apply_/assert_equal_3/Assert/AssertGuard/pivot_f/_64", "op": "Const", "input": ["^ConstantFoldingCtrl/StatefulPartitionedCall/jax2tf_apply_/assert_equal_3/Assert/AssertGuard/switch_pred/_63_0"], "attr": {"value": {"tensor": {"dtype": "DT_BOOL", "tensorShape": {}}}, "dtype": {"type": "DT_BOOL"}}, "inputs": ["^ConstantFoldingCtrl/StatefulPartitionedCall/jax2tf_apply_/assert_equal_3/Assert/AssertGuard/switch_pred/_63_0"]}, {"name": "StatefulPartitionedCall/jax2tf_apply_/assert_equal_3/Assert/AssertGuard/pivot_t/_65", "op": "Const", "input": ["^ConstantFoldingCtrl/StatefulPartitionedCall/jax2tf_apply_/assert_equal_3/Assert/AssertGuard/switch_pred/_63_1"], "attr": {"value": {"tensor": {"dtype": "DT_BOOL", "tensorShape": {}}}, "dtype": {"type": "DT_BOOL"}}, "inputs": ["^ConstantFoldingCtrl/StatefulPartitionedCall/jax2tf_apply_/assert_equal_3/Assert/AssertGuard/switch_pred/_63_1"]}, {"name": "StatefulPartitionedCall/jax2tf_apply_/ActorCriticTransformerFlats/ActorCriticTransformerFlats/MultiHeadDense_0/Reshape", "op": "Reshape", "input": ["StatefulPartitionedCall/jax2tf_apply_/ActorCriticTransformerFlats/ActorCriticTransformerFlats/pjit__where_/SelectV2", "StatefulPartitionedCall/jax2tf_apply_/ActorCriticTransformerFlats/ActorCriticTransformerFlats/MultiHeadDense_0/Reshape/shape"], "attr": {"T": {"type": "DT_FLOAT"}, "Tshape": {"type": "DT_INT32"}}, "inputs": ["StatefulPartitionedCall/jax2tf_apply_/ActorCriticTransformerFlats/ActorCriticTransformerFlats/pjit__where_/SelectV2", "StatefulPartitionedCall/jax2tf_apply_/ActorCriticTransformerFlats/ActorCriticTransformerFlats/MultiHeadDense_0/Reshape/shape"]}, {"name": "Func/StatefulPartitionedCall/jax2tf_apply_/assert_equal_3/Assert/AssertGuard/else/_62/input/_192", "op": "Identity", "input": ["StatefulPartitionedCall/jax2tf_apply_/assert_equal_3/Assert/AssertGuard/StatefulPartitionedCall/jax2tf_apply_/assert_equal_3/y/_68", "^StatefulPartitionedCall/jax2tf_apply_/assert_equal_3/Assert/AssertGuard/pivot_f/_64"], "attr": {"T": {"type": "DT_BOOL"}}, "inputs": ["StatefulPartitionedCall/jax2tf_apply_/assert_equal_3/Assert/AssertGuard/StatefulPartitionedCall/jax2tf_apply_/assert_equal_3/y/_68", "^StatefulPartitionedCall/jax2tf_apply_/assert_equal_3/Assert/AssertGuard/pivot_f/_64"]}, {"name": "Func/StatefulPartitionedCall/jax2tf_apply_/assert_equal_3/Assert/AssertGuard/else/_62/input/_190", "op": "Identity", "input": ["StatefulPartitionedCall/jax2tf_apply_/assert_equal_3/Assert/AssertGuard/StatefulPartitionedCall/jax2tf_apply_/assert_equal_3/All/_66", "^StatefulPartitionedCall/jax2tf_apply_/assert_equal_3/Assert/AssertGuard/pivot_f/_64"], "attr": {"T": {"type": "DT_BOOL"}}, "inputs": ["StatefulPartitionedCall/jax2tf_apply_/assert_equal_3/Assert/AssertGuard/StatefulPartitionedCall/jax2tf_apply_/assert_equal_3/All/_66", "^StatefulPartitionedCall/jax2tf_apply_/assert_equal_3/Assert/AssertGuard/pivot_f/_64"]}, {"name": "Func/StatefulPartitionedCall/jax2tf_apply_/assert_equal_3/Assert/AssertGuard/else/_62/input/_191", "op": "Identity", "input": ["StatefulPartitionedCall/jax2tf_apply_/assert_equal_3/Assert/AssertGuard/StatefulPartitionedCall/jax2tf_apply_/GreaterEqual_1/_67", "^StatefulPartitionedCall/jax2tf_apply_/assert_equal_3/Assert/AssertGuard/pivot_f/_64"], "attr": {"T": {"type": "DT_BOOL"}}, "inputs": ["StatefulPartitionedCall/jax2tf_apply_/assert_equal_3/Assert/AssertGuard/StatefulPartitionedCall/jax2tf_apply_/GreaterEqual_1/_67", "^StatefulPartitionedCall/jax2tf_apply_/assert_equal_3/Assert/AssertGuard/pivot_f/_64"]}, {"name": "StatefulPartitionedCall/jax2tf_apply_/ActorCriticTransformerFlats/ActorCriticTransformerFlats/MultiHeadDense_0/BroadcastTo", "op": "BroadcastTo", "input": ["StatefulPartitionedCall/jax2tf_apply_/ActorCriticTransformerFlats/ActorCriticTransformerFlats/MultiHeadDense_0/Reshape", "StatefulPartitionedCall/jax2tf_apply_/ActorCriticTransformerFlats/ActorCriticTransformerFlats/MultiHeadDense_0/BroadcastTo/shape"], "attr": {"T": {"type": "DT_FLOAT"}, "Tidx": {"type": "DT_INT32"}}, "inputs": ["StatefulPartitionedCall/jax2tf_apply_/ActorCriticTransformerFlats/ActorCriticTransformerFlats/MultiHeadDense_0/Reshape", "StatefulPartitionedCall/jax2tf_apply_/ActorCriticTransformerFlats/ActorCriticTransformerFlats/MultiHeadDense_0/BroadcastTo/shape"]}, {"name": "StatefulPartitionedCall/jax2tf_apply_/assert_equal_3/Assert/AssertGuard/branch_executed/_70", "op": "Merge", "input": ["StatefulPartitionedCall/jax2tf_apply_/assert_equal_3/Assert/AssertGuard/pivot_t/_65", "StatefulPartitionedCall/jax2tf_apply_/assert_equal_3/Assert/AssertGuard/pivot_f/_64", "^Func/StatefulPartitionedCall/jax2tf_apply_/assert_equal_3/Assert/AssertGuard/else/_62/input/_192", "^Func/StatefulPartitionedCall/jax2tf_apply_/assert_equal_3/Assert/AssertGuard/else/_62/input/_191", "^Func/StatefulPartitionedCall/jax2tf_apply_/assert_equal_3/Assert/AssertGuard/else/_62/input/_190"], "attr": {"N": {"i": "2"}, "_has_manual_control_dependencies": {"b": true}, "T": {"type": "DT_BOOL"}}, "inputs": ["StatefulPartitionedCall/jax2tf_apply_/assert_equal_3/Assert/AssertGuard/pivot_t/_65", "StatefulPartitionedCall/jax2tf_apply_/assert_equal_3/Assert/AssertGuard/pivot_f/_64", "^Func/StatefulPartitionedCall/jax2tf_apply_/assert_equal_3/Assert/AssertGuard/else/_62/input/_192", "^Func/StatefulPartitionedCall/jax2tf_apply_/assert_equal_3/Assert/AssertGuard/else/_62/input/_191", "^Func/StatefulPartitionedCall/jax2tf_apply_/assert_equal_3/Assert/AssertGuard/else/_62/input/_190"]}, {"name": "StatefulPartitionedCall/jax2tf_apply_/ActorCriticTransformerFlats/ActorCriticTransformerFlats/MultiHeadDense_0/...fhd_hdo-_...fho/pjit__einsum_/Reshape", "op": "Reshape", "input": ["StatefulPartitionedCall/jax2tf_apply_/ActorCriticTransformerFlats/ActorCriticTransformerFlats/MultiHeadDense_0/BroadcastTo", "StatefulPartitionedCall/jax2tf_apply_/ActorCriticTransformerFlats/ActorCriticTransformerFlats/MultiHeadDense_0/...fhd_hdo-_...fho/pjit__einsum_/Reshape/shape"], "attr": {"T": {"type": "DT_FLOAT"}, "Tshape": {"type": "DT_INT32"}}, "inputs": ["StatefulPartitionedCall/jax2tf_apply_/ActorCriticTransformerFlats/ActorCriticTransformerFlats/MultiHeadDense_0/BroadcastTo", "StatefulPartitionedCall/jax2tf_apply_/ActorCriticTransformerFlats/ActorCriticTransformerFlats/MultiHeadDense_0/...fhd_hdo-_...fho/pjit__einsum_/Reshape/shape"]}, {"name": "StatefulPartitionedCall/jax2tf_apply_/assert_equal_5/Assert/AssertGuard/switch_pred/_73", "op": "Switch", "input": ["StatefulPartitionedCall/jax2tf_apply_/assert_equal_5/Equal", "StatefulPartitionedCall/jax2tf_apply_/assert_equal_5/Equal", "^StatefulPartitionedCall/jax2tf_apply_/assert_equal_3/Assert/AssertGuard/branch_executed/_70"], "attr": {"T": {"type": "DT_BOOL"}}, "inputs": ["StatefulPartitionedCall/jax2tf_apply_/assert_equal_5/Equal", "StatefulPartitionedCall/jax2tf_apply_/assert_equal_5/Equal", "^StatefulPartitionedCall/jax2tf_apply_/assert_equal_3/Assert/AssertGuard/branch_executed/_70"]}, {"name": "StatefulPartitionedCall/jax2tf_apply_/ActorCriticTransformerFlats/ActorCriticTransformerFlats/MultiHeadDense_0/...fhd_hdo-_...fho/pjit__einsum_/einsum/Einsum", "op": "Einsum", "input": ["StatefulPartitionedCall/jax2tf_apply_/ActorCriticTransformerFlats/ActorCriticTransformerFlats/MultiHeadDense_0/...fhd_hdo-_...fho/pjit__einsum_/Reshape", "StatefulPartitionedCall/jax2tf_arg_33/ReadVariableOp"], "attr": {"N": {"i": "2"}, "equation": {"s": "YWYsY2ZlLT5hY2U="}, "T": {"type": "DT_FLOAT"}}, "inputs": ["StatefulPartitionedCall/jax2tf_apply_/ActorCriticTransformerFlats/ActorCriticTransformerFlats/MultiHeadDense_0/...fhd_hdo-_...fho/pjit__einsum_/Reshape", "StatefulPartitionedCall/jax2tf_arg_33/ReadVariableOp"]}, {"name": "ConstantFoldingCtrl/StatefulPartitionedCall/jax2tf_apply_/assert_equal_5/Assert/AssertGuard/switch_pred/_73_0", "op": "Identity", "input": ["StatefulPartitionedCall/jax2tf_apply_/assert_equal_5/Assert/AssertGuard/switch_pred/_73"], "attr": {"T": {"type": "DT_BOOL"}}, "inputs": ["StatefulPartitionedCall/jax2tf_apply_/assert_equal_5/Assert/AssertGuard/switch_pred/_73"]}, {"name": "ConstantFoldingCtrl/StatefulPartitionedCall/jax2tf_apply_/assert_equal_5/Assert/AssertGuard/switch_pred/_73_1", "op": "Identity", "input": ["StatefulPartitionedCall/jax2tf_apply_/assert_equal_5/Assert/AssertGuard/switch_pred/_73:1"], "attr": {"T": {"type": "DT_BOOL"}}, "inputs": ["StatefulPartitionedCall/jax2tf_apply_/assert_equal_5/Assert/AssertGuard/switch_pred/_73:1"]}, {"name": "StatefulPartitionedCall/jax2tf_apply_/ActorCriticTransformerFlats/ActorCriticTransformerFlats/MultiHeadDense_0/pjit_add_/AddV2_6", "op": "AddV2", "input": ["StatefulPartitionedCall/jax2tf_apply_/ActorCriticTransformerFlats/ActorCriticTransformerFlats/MultiHeadDense_0/...fhd_hdo-_...fho/pjit__einsum_/einsum/Einsum", "StatefulPartitionedCall/jax2tf_apply_/ActorCriticTransformerFlats/ActorCriticTransformerFlats/MultiHeadDense_0/pjit_add_/BroadcastTo"], "attr": {"T": {"type": "DT_FLOAT"}}, "inputs": ["StatefulPartitionedCall/jax2tf_apply_/ActorCriticTransformerFlats/ActorCriticTransformerFlats/MultiHeadDense_0/...fhd_hdo-_...fho/pjit__einsum_/einsum/Einsum", "StatefulPartitionedCall/jax2tf_app…
sert/AssertGuard/else/_132/input/_274"], "attr": {"N": {"i": "2"}, "_has_manual_control_dependencies": {"b": true}, "T": {"type": "DT_BOOL"}}, "inputs": ["StatefulPartitionedCall/jax2tf_apply_/assert_equal_17/Assert/AssertGuard/pivot_t/_135", "StatefulPartitionedCall/jax2tf_apply_/assert_equal_17/Assert/AssertGuard/pivot_f/_134", "^Func/StatefulPartitionedCall/jax2tf_apply_/assert_equal_17/Assert/AssertGuard/else/_132/input/_276", "^Func/StatefulPartitionedCall/jax2tf_apply_/assert_equal_17/Assert/AssertGuard/else/_132/input/_275", "^Func/StatefulPartitionedCall/jax2tf_apply_/assert_equal_17/Assert/AssertGuard/else/_132/input/_274"]}, {"name": "StatefulPartitionedCall/jax2tf_apply_/ActorCriticTransformerFlats/ActorCriticTransformerFlats/GeneralActorCriticRNN_0/Dense_10/pjit_add_/AddV2", "op": "AddV2", "input": ["StatefulPartitionedCall/jax2tf_apply_/ActorCriticTransformerFlats/ActorCriticTransformerFlats/GeneralActorCriticRNN_0/Dense_10/Squeeze", "StatefulPartitionedCall/jax2tf_arg_12/ReadVariableOp"], "attr": {"T": {"type": "DT_FLOAT"}}, "inputs": ["StatefulPartitionedCall/jax2tf_apply_/ActorCriticTransformerFlats/ActorCriticTransformerFlats/GeneralActorCriticRNN_0/Dense_10/Squeeze", "StatefulPartitionedCall/jax2tf_arg_12/ReadVariableOp"]}, {"name": "StatefulPartitionedCall/jax2tf_apply_/ActorCriticTransformerFlats/ActorCriticTransformerFlats/GeneralActorCriticRNN_0/Dense_11/pjit_add_/AddV2", "op": "AddV2", "input": ["StatefulPartitionedCall/jax2tf_apply_/ActorCriticTransformerFlats/ActorCriticTransformerFlats/GeneralActorCriticRNN_0/Dense_11/Squeeze", "StatefulPartitionedCall/jax2tf_arg_14/ReadVariableOp"], "attr": {"T": {"type": "DT_FLOAT"}}, "inputs": ["StatefulPartitionedCall/jax2tf_apply_/ActorCriticTransformerFlats/ActorCriticTransformerFlats/GeneralActorCriticRNN_0/Dense_11/Squeeze", "StatefulPartitionedCall/jax2tf_arg_14/ReadVariableOp"]}, {"name": "StatefulPartitionedCall/jax2tf_apply_/assert_equal_19/Assert/AssertGuard/switch_pred/_143", "op": "Switch", "input": ["StatefulPartitionedCall/jax2tf_apply_/assert_equal_19/Equal", "StatefulPartitionedCall/jax2tf_apply_/assert_equal_19/Equal", "^StatefulPartitionedCall/jax2tf_apply_/assert_equal_17/Assert/AssertGuard/branch_executed/_140"], "attr": {"T": {"type": "DT_BOOL"}}, "inputs": ["StatefulPartitionedCall/jax2tf_apply_/assert_equal_19/Equal", "StatefulPartitionedCall/jax2tf_apply_/assert_equal_19/Equal", "^StatefulPartitionedCall/jax2tf_apply_/assert_equal_17/Assert/AssertGuard/branch_executed/_140"]}, {"name": "StatefulPartitionedCall/jax2tf_apply_/ActorCriticTransformerFlats/ActorCriticTransformerFlats/GeneralActorCriticRNN_0/pjit__squeeze_/Reshape", "op": "Reshape", "input": ["StatefulPartitionedCall/jax2tf_apply_/ActorCriticTransformerFlats/ActorCriticTransformerFlats/GeneralActorCriticRNN_0/Dense_11/pjit_add_/AddV2", "StatefulPartitionedCall/jax2tf_apply_/ActorCriticTransformerFlats/ActorCriticTransformerFlats/GeneralActorCriticRNN_0/pjit__squeeze_/Reshape/shape_1"], "attr": {"T": {"type": "DT_FLOAT"}, "Tshape": {"type": "DT_INT32"}}, "inputs": ["StatefulPartitionedCall/jax2tf_apply_/ActorCriticTransformerFlats/ActorCriticTransformerFlats/GeneralActorCriticRNN_0/Dense_11/pjit_add_/AddV2", "StatefulPartitionedCall/jax2tf_apply_/ActorCriticTransformerFlats/ActorCriticTransformerFlats/GeneralActorCriticRNN_0/pjit__squeeze_/Reshape/shape_1"]}, {"name": "ConstantFoldingCtrl/StatefulPartitionedCall/jax2tf_apply_/assert_equal_19/Assert/AssertGuard/switch_pred/_143_0", "op": "Identity", "input": ["StatefulPartitionedCall/jax2tf_apply_/assert_equal_19/Assert/AssertGuard/switch_pred/_143"], "attr": {"T": {"type": "DT_BOOL"}}, "inputs": ["StatefulPartitionedCall/jax2tf_apply_/assert_equal_19/Assert/AssertGuard/switch_pred/_143"]}, {"name": "ConstantFoldingCtrl/StatefulPartitionedCall/jax2tf_apply_/assert_equal_19/Assert/AssertGuard/switch_pred/_143_1", "op": "Identity", "input": ["StatefulPartitionedCall/jax2tf_apply_/assert_equal_19/Assert/AssertGuard/switch_pred/_143:1"], "attr": {"T": {"type": "DT_BOOL"}}, "inputs": ["StatefulPartitionedCall/jax2tf_apply_/assert_equal_19/Assert/AssertGuard/switch_pred/_143:1"]}, {"name": "StatefulPartitionedCall/jax2tf_apply_/assert_equal_19/Assert/AssertGuard/pivot_f/_144", "op": "Const", "input": ["^ConstantFoldingCtrl/StatefulPartitionedCall/jax2tf_apply_/assert_equal_19/Assert/AssertGuard/switch_pred/_143_0"], "attr": {"value": {"tensor": {"dtype": "DT_BOOL", "tensorShape": {}}}, "dtype": {"type": "DT_BOOL"}}, "inputs": ["^ConstantFoldingCtrl/StatefulPartitionedCall/jax2tf_apply_/assert_equal_19/Assert/AssertGuard/switch_pred/_143_0"]}, {"name": "StatefulPartitionedCall/jax2tf_apply_/assert_equal_19/Assert/AssertGuard/pivot_t/_145", "op": "Const", "input": ["^ConstantFoldingCtrl/StatefulPartitionedCall/jax2tf_apply_/assert_equal_19/Assert/AssertGuard/switch_pred/_143_1"], "attr": {"value": {"tensor": {"dtype": "DT_BOOL", "tensorShape": {}}}, "dtype": {"type": "DT_BOOL"}}, "inputs": ["^ConstantFoldingCtrl/StatefulPartitionedCall/jax2tf_apply_/assert_equal_19/Assert/AssertGuard/switch_pred/_143_1"]}, {"name": "Func/StatefulPartitionedCall/jax2tf_apply_/assert_equal_19/Assert/AssertGuard/else/_142/input/_288", "op": "Identity", "input": ["StatefulPartitionedCall/jax2tf_apply_/assert_equal_19/Assert/AssertGuard/StatefulPartitionedCall/jax2tf_apply_/assert_equal_19/y/_148", "^StatefulPartitionedCall/jax2tf_apply_/assert_equal_19/Assert/AssertGuard/pivot_f/_144"], "attr": {"T": {"type": "DT_BOOL"}}, "inputs": ["StatefulPartitionedCall/jax2tf_apply_/assert_equal_19/Assert/AssertGuard/StatefulPartitionedCall/jax2tf_apply_/assert_equal_19/y/_148", "^StatefulPartitionedCall/jax2tf_apply_/assert_equal_19/Assert/AssertGuard/pivot_f/_144"]}, {"name": "Func/StatefulPartitionedCall/jax2tf_apply_/assert_equal_19/Assert/AssertGuard/else/_142/input/_287", "op": "Identity", "input": ["StatefulPartitionedCall/jax2tf_apply_/assert_equal_19/Assert/AssertGuard/StatefulPartitionedCall/jax2tf_apply_/Equal_5/_147", "^StatefulPartitionedCall/jax2tf_apply_/assert_equal_19/Assert/AssertGuard/pivot_f/_144"], "attr": {"T": {"type": "DT_BOOL"}}, "inputs": ["StatefulPartitionedCall/jax2tf_apply_/assert_equal_19/Assert/AssertGuard/StatefulPartitionedCall/jax2tf_apply_/Equal_5/_147", "^StatefulPartitionedCall/jax2tf_apply_/assert_equal_19/Assert/AssertGuard/pivot_f/_144"]}, {"name": "Func/StatefulPartitionedCall/jax2tf_apply_/assert_equal_19/Assert/AssertGuard/else/_142/input/_286", "op": "Identity", "input": ["StatefulPartitionedCall/jax2tf_apply_/assert_equal_19/Assert/AssertGuard/StatefulPartitionedCall/jax2tf_apply_/assert_equal_19/All/_146", "^StatefulPartitionedCall/jax2tf_apply_/assert_equal_19/Assert/AssertGuard/pivot_f/_144"], "attr": {"T": {"type": "DT_BOOL"}}, "inputs": ["StatefulPartitionedCall/jax2tf_apply_/assert_equal_19/Assert/AssertGuard/StatefulPartitionedCall/jax2tf_apply_/assert_equal_19/All/_146", "^StatefulPartitionedCall/jax2tf_apply_/assert_equal_19/Assert/AssertGuard/pivot_f/_144"]}, {"name": "StatefulPartitionedCall/jax2tf_apply_/assert_equal_19/Assert/AssertGuard/branch_executed/_150", "op": "Merge", "input": ["StatefulPartitionedCall/jax2tf_apply_/assert_equal_19/Assert/AssertGuard/pivot_t/_145", "StatefulPartitionedCall/jax2tf_apply_/assert_equal_19/Assert/AssertGuard/pivot_f/_144", "^Func/StatefulPartitionedCall/jax2tf_apply_/assert_equal_19/Assert/AssertGuard/else/_142/input/_288", "^Func/StatefulPartitionedCall/jax2tf_apply_/assert_equal_19/Assert/AssertGuard/else/_142/input/_287", "^Func/StatefulPartitionedCall/jax2tf_apply_/assert_equal_19/Assert/AssertGuard/else/_142/input/_286"], "attr": {"N": {"i": "2"}, "_has_manual_control_dependencies": {"b": true}, "T": {"type": "DT_BOOL"}}, "inputs": ["StatefulPartitionedCall/jax2tf_apply_/assert_equal_19/Assert/AssertGuard/pivot_t/_145", "StatefulPartitionedCall/jax2tf_apply_/assert_equal_19/Assert/AssertGuard/pivot_f/_144", "^Func/StatefulPartitionedCall/jax2tf_apply_/assert_equal_19/Assert/AssertGuard/else/_142/input/_288", "^Func/StatefulPartitionedCall/jax2tf_apply_/assert_equal_19/Assert/AssertGuard/else/_142/input/_287", "^Func/StatefulPartitionedCall/jax2tf_apply_/assert_equal_19/Assert/AssertGuard/else/_142/input/_286"]}, {"name": "StatefulPartitionedCall/jax2tf_apply_/assert_equal_21/Assert/AssertGuard/switch_pred/_153", "op": "Switch", "input": ["StatefulPartitionedCall/jax2tf_apply_/assert_equal_21/Equal", "StatefulPartitionedCall/jax2tf_apply_/assert_equal_21/Equal", "^StatefulPartitionedCall/jax2tf_apply_/assert_equal_19/Assert/AssertGuard/branch_executed/_150"], "attr": {"T": {"type": "DT_BOOL"}}, "inputs": ["StatefulPartitionedCall/jax2tf_apply_/assert_equal_21/Equal", "StatefulPartitionedCall/jax2tf_apply_/assert_equal_21/Equal", "^StatefulPartitionedCall/jax2tf_apply_/assert_equal_19/Assert/AssertGuard/branch_executed/_150"]}, {"name": "ConstantFoldingCtrl/StatefulPartitionedCall/jax2tf_apply_/assert_equal_21/Assert/AssertGuard/switch_pred/_153_0", "op": "Identity", "input": ["StatefulPartitionedCall/jax2tf_apply_/assert_equal_21/Assert/AssertGuard/switch_pred/_153"], "attr": {"T": {"type": "DT_BOOL"}}, "inputs": ["StatefulPartitionedCall/jax2tf_apply_/assert_equal_21/Assert/AssertGuard/switch_pred/_153"]}, {"name": "ConstantFoldingCtrl/StatefulPartitionedCall/jax2tf_apply_/assert_equal_21/Assert/AssertGuard/switch_pred/_153_1", "op": "Identity", "input": ["StatefulPartitionedCall/jax2tf_apply_/assert_equal_21/Assert/AssertGuard/switch_pred/_153:1"], "attr": {"T": {"type": "DT_BOOL"}}, "inputs": ["StatefulPartitionedCall/jax2tf_apply_/assert_equal_21/Assert/AssertGuard/switch_pred/_153:1"]}, {"name": "StatefulPartitionedCall/jax2tf_apply_/assert_equal_21/Assert/AssertGuard/pivot_f/_154", "op": "Const", "input": ["^ConstantFoldingCtrl/StatefulPartitionedCall/jax2tf_apply_/assert_equal_21/Assert/AssertGuard/switch_pred/_153_0"], "attr": {"value": {"tensor": {"dtype": "DT_BOOL", "tensorShape": {}}}, "dtype": {"type": "DT_BOOL"}}, "inputs": ["^ConstantFoldingCtrl/StatefulPartitionedCall/jax2tf_apply_/assert_equal_21/Assert/AssertGuard/switch_pred/_153_0"]}, {"name": "StatefulPartitionedCall/jax2tf_apply_/assert_equal_21/Assert/AssertGuard/pivot_t/_155", "op": "Const", "input": ["^ConstantFoldingCtrl/StatefulPartitionedCall/jax2tf_apply_/assert_equal_21/Assert/AssertGuard/switch_pred/_153_1"], "attr": {"value": {"tensor": {"dtype": "DT_BOOL", "tensorShape": {}}}, "dtype": {"type": "DT_BOOL"}}, "inputs": ["^ConstantFoldingCtrl/StatefulPartitionedCall/jax2tf_apply_/assert_equal_21/Assert/AssertGuard/switch_pred/_153_1"]}, {"name": "Func/StatefulPartitionedCall/jax2tf_apply_/assert_equal_21/Assert/AssertGuard/else/_152/input/_300", "op": "Identity", "input": ["StatefulPartitionedCall/jax2tf_apply_/assert_equal_21/Assert/AssertGuard/StatefulPartitionedCall/jax2tf_apply_/assert_equal_21/y/_158", "^StatefulPartitionedCall/jax2tf_apply_/assert_equal_21/Assert/AssertGuard/pivot_f/_154"], "attr": {"T": {"type": "DT_BOOL"}}, "inputs": ["StatefulPartitionedCall/jax2tf_apply_/assert_equal_21/Assert/AssertGuard/StatefulPartitionedCall/jax2tf_apply_/assert_equal_21/y/_158", "^StatefulPartitionedCall/jax2tf_apply_/assert_equal_21/Assert/AssertGuard/pivot_f/_154"]}, {"name": "Func/StatefulPartitionedCall/jax2tf_apply_/assert_equal_21/Assert/AssertGuard/else/_152/input/_299", "op": "Identity", "input": ["StatefulPartitionedCall/jax2tf_apply_/assert_equal_21/Assert/AssertGuard/StatefulPartitionedCall/jax2tf_apply_/Equal_6/_157", "^StatefulPartitionedCall/jax2tf_apply_/assert_equal_21/Assert/AssertGuard/pivot_f/_154"], "attr": {"T": {"type": "DT_BOOL"}}, "inputs": ["StatefulPartitionedCall/jax2tf_apply_/assert_equal_21/Assert/AssertGuard/StatefulPartitionedCall/jax2tf_apply_/Equal_6/_157", "^StatefulPartitionedCall/jax2tf_apply_/assert_equal_21/Assert/AssertGuard/pivot_f/_154"]}, {"name": "Func/StatefulPartitionedCall/jax2tf_apply_/assert_equal_21/Assert/AssertGuard/else/_152/input/_298", "op": "Identity", "input": ["StatefulPartitionedCall/jax2tf_apply_/assert_equal_21/Assert/AssertGuard/StatefulPartitionedCall/jax2tf_apply_/assert_equal_21/All/_156", "^StatefulPartitionedCall/jax2tf_apply_/assert_equal_21/Assert/AssertGuard/pivot_f/_154"], "attr": {"T": {"type": "DT_BOOL"}}, "inputs": ["StatefulPartitionedCall/jax2tf_apply_/assert_equal_21/Assert/AssertGuard/StatefulPartitionedCall/jax2tf_apply_/assert_equal_21/All/_156", "^StatefulPartitionedCall/jax2tf_apply_/assert_equal_21/Assert/AssertGuard/pivot_f/_154"]}, {"name": "StatefulPartitionedCall/jax2tf_apply_/assert_equal_21/Assert/AssertGuard/branch_executed/_160", "op": "Merge", "input": ["StatefulPartitionedCall/jax2tf_apply_/assert_equal_21/Assert/AssertGuard/pivot_t/_155", "StatefulPartitionedCall/jax2tf_apply_/assert_equal_21/Assert/AssertGuard/pivot_f/_154", "^Func/StatefulPartitionedCall/jax2tf_apply_/assert_equal_21/Assert/AssertGuard/else/_152/input/_300", "^Func/StatefulPartitionedCall/jax2tf_apply_/assert_equal_21/Assert/AssertGuard/else/_152/input/_299", "^Func/StatefulPartitionedCall/jax2tf_apply_/assert_equal_21/Assert/AssertGuard/else/_152/input/_298"], "attr": {"N": {"i": "2"}, "_has_manual_control_dependencies": {"b": true}, "T": {"type": "DT_BOOL"}}, "inputs": ["StatefulPartitionedCall/jax2tf_apply_/assert_equal_21/Assert/AssertGuard/pivot_t/_155", "StatefulPartitionedCall/jax2tf_apply_/assert_equal_21/Assert/AssertGuard/pivot_f/_154", "^Func/StatefulPartitionedCall/jax2tf_apply_/assert_equal_21/Assert/AssertGuard/else/_152/input/_300", "^Func/StatefulPartitionedCall/jax2tf_apply_/assert_equal_21/Assert/AssertGuard/else/_152/input/_299", "^Func/StatefulPartitionedCall/jax2tf_apply_/assert_equal_21/Assert/AssertGuard/else/_152/input/_298"]}, {"name": "StatefulPartitionedCall/jax2tf_apply_/assert_equal_23/Assert/AssertGuard/switch_pred/_163", "op": "Switch", "input": ["StatefulPartitionedCall/jax2tf_apply_/assert_equal_23/Equal", "StatefulPartitionedCall/jax2tf_apply_/assert_equal_23/Equal", "^StatefulPartitionedCall/jax2tf_apply_/assert_equal_21/Assert/AssertGuard/branch_executed/_160"], "attr": {"T": {"type": "DT_BOOL"}}, "inputs": ["StatefulPartitionedCall/jax2tf_apply_/assert_equal_23/Equal", "StatefulPartitionedCall/jax2tf_apply_/assert_equal_23/Equal", "^StatefulPartitionedCall/jax2tf_apply_/assert_equal_21/Assert/AssertGuard/branch_executed/_160"]}, {"name": "ConstantFoldingCtrl/StatefulPartitionedCall/jax2tf_apply_/assert_equal_23/Assert/AssertGuard/switch_pred/_163_0", "op": "Identity", "input": ["StatefulPartitionedCall/jax2tf_apply_/assert_equal_23/Assert/AssertGuard/switch_pred/_163"], "attr": {"T": {"type": "DT_BOOL"}}, "inputs": ["StatefulPartitionedCall/jax2tf_apply_/assert_equal_23/Assert/AssertGuard/switch_pred/_163"]}, {"name": "ConstantFoldingCtrl/StatefulPartitionedCall/jax2tf_apply_/assert_equal_23/Assert/AssertGuard/switch_pred/_163_1", "op": "Identity", "input": ["StatefulPartitionedCall/jax2tf_apply_/assert_equal_23/Assert/AssertGuard/switch_pred/_163:1"], "attr": {"T": {"type": "DT_BOOL"}}, "inputs": ["StatefulPartitionedCall/jax2tf_apply_/assert_equal_23/Assert/AssertGuard/switch_pred/_163:1"]}, {"name": "StatefulPartitionedCall/jax2tf_apply_/assert_equal_23/Assert/AssertGuard/pivot_f/_164", "op": "Const", "input": ["^ConstantFoldingCtrl/StatefulPartitionedCall/jax2tf_apply_/assert_equal_23/Assert/AssertGuard/switch_pred/_163_0"], "attr": {"value": {"tensor": {"dtype": "DT_BOOL", "tensorShape": {}}}, "dtype": {"type": "DT_BOOL"}}, "inputs": ["^ConstantFoldingCtrl/StatefulPartitionedCall/jax2tf_apply_/assert_equal_23/Assert/AssertGuard/switch_pred/_163_0"]}, {"name": "StatefulPartitionedCall/jax2tf_apply_/assert_equal_23/Assert/AssertGuard/pivot_t/_165", "op": "Const", "input": ["^ConstantFoldingCtrl/StatefulPartitionedCall/jax2tf_apply_/assert_equal_23/Assert/AssertGuard/switch_pred/_163_1"], "attr": {"value": {"tensor": {"dtype": "DT_BOOL", "tensorShape": {}}}, "dtype": {"type": "DT_BOOL"}}, "inputs": ["^ConstantFoldingCtrl/StatefulPartitionedCall/jax2tf_apply_/assert_equal_23/Assert/AssertGuard/switch_pred/_163_1"]}, {"name": "Func/StatefulPartitionedCall/jax2tf_apply_/assert_equal_23/Assert/AssertGuard/else/_162/input/_312", "op": "Identity", "input": ["StatefulPartitionedCall/jax2tf_apply_/assert_equal_23/Assert/AssertGuard/StatefulPartitionedCall/jax2tf_apply_/assert_equal_23/y/_168", "^StatefulPartitionedCall/jax2tf_apply_/assert_equal_23/Assert/AssertGuard/pivot_f/_164"], "attr": {"T": {"type": "DT_BOOL"}}, "inputs": ["StatefulPartitionedCall/jax2tf_apply_/assert_equal_23/Assert/AssertGuard/StatefulPartitionedCall/jax2tf_apply_/assert_equal_23/y/_168", "^StatefulPartitionedCall/jax2tf_apply_/assert_equal_23/Assert/AssertGuard/pivot_f/_164"]}, {"name": "Func/StatefulPartitionedCall/jax2tf_apply_/assert_equal_23/Assert/AssertGuard/else/_162/input/_311", "op": "Identity", "input": ["StatefulPartitionedCall/jax2tf_apply_/assert_equal_23/Assert/AssertGuard/StatefulPartitionedCall/jax2tf_apply_/Equal_7/_167", "^StatefulPartitionedCall/jax2tf_apply_/assert_equal_23/Assert/AssertGuard/pivot_f/_164"], "attr": {"T": {"type": "DT_BOOL"}}, "inputs": ["StatefulPartitionedCall/jax2tf_apply_/assert_equal_23/Assert/AssertGuard/StatefulPartitionedCall/jax2tf_apply_/Equal_7/_167", "^StatefulPartitionedCall/jax2tf_apply_/assert_equal_23/Assert/AssertGuard/pivot_f/_164"]}, {"name": "Func/StatefulPartitionedCall/jax2tf_apply_/assert_equal_23/Assert/AssertGuard/else/_162/input/_310", "op": "Identity", "input": ["StatefulPartitionedCall/jax2tf_apply_/assert_equal_23/Assert/AssertGuard/StatefulPartitionedCall/jax2tf_apply_/assert_equal_23/All/_166", "^StatefulPartitionedCall/jax2tf_apply_/assert_equal_23/Assert/AssertGuard/pivot_f/_164"], "attr": {"T": {"type": "DT_BOOL"}}, "inputs": ["StatefulPartitionedCall/jax2tf_apply_/assert_equal_23/Assert/AssertGuard/StatefulPartitionedCall/jax2tf_apply_/assert_equal_23/All/_166", "^StatefulPartitionedCall/jax2tf_apply_/assert_equal_23/Assert/AssertGuard/pivot_f/_164"]}, {"name": "StatefulPartitionedCall/jax2tf_apply_/assert_equal_23/Assert/AssertGuard/branch_executed/_170", "op": "Merge", "input": ["StatefulPartitionedCall/jax2tf_apply_/assert_equal_23/Assert/AssertGuard/pivot_t/_165", "StatefulPartitionedCall/jax2tf_apply_/assert_equal_23/Assert/AssertGuard/pivot_f/_164", "^Func/StatefulPartitionedCall/jax2tf_apply_/assert_equal_23/Assert/AssertGuard/else/_162/input/_312", "^Func/StatefulPartitionedCall/jax2tf_apply_/assert_equal_23/Assert/AssertGuard/else/_162/input/_311", "^Func/StatefulPartitionedCall/jax2tf_apply_/assert_equal_23/Assert/AssertGuard/else/_162/input/_310"], "attr": {"N": {"i": "2"}, "_has_manual_control_dependencies": {"b": true}, "T": {"type": "DT_BOOL"}}, "inputs": ["StatefulPartitionedCall/jax2tf_apply_/assert_equal_23/Assert/AssertGuard/pivot_t/_165", "StatefulPartitionedCall/jax2tf_apply_/assert_equal_23/Assert/AssertGuard/pivot_f/_164", "^Func/StatefulPartitionedCall/jax2tf_apply_/assert_equal_23/Assert/AssertGuard/else/_162/input/_312", "^Func/StatefulPartitionedCall/jax2tf_apply_/assert_equal_23/Assert/AssertGuard/else/_162/input/_311", "^Func/StatefulPartitionedCall/jax2tf_apply_/assert_equal_23/Assert/AssertGuard/else/_162/input/_310"]}, {"name": "Func/StatefulPartitionedCall/output_control_node/_50", "op": "NoOp", "input": ["^StatefulPartitionedCall/jax2tf_apply_/assert_equal_1/Assert/AssertGuard/branch_executed/_60", "^StatefulPartitionedCall/jax2tf_apply_/assert_equal_11/Assert/AssertGuard/branch_executed/_110", "^StatefulPartitionedCall/jax2tf_apply_/assert_equal_13/Assert/AssertGuard/branch_executed/_120", "^StatefulPartitionedCall/jax2tf_apply_/assert_equal_15/Assert/AssertGuard/branch_executed/_130", "^StatefulPartitionedCall/jax2tf_apply_/assert_equal_17/Assert/AssertGuard/branch_executed/_140", "^StatefulPartitionedCall/jax2tf_apply_/assert_equal_19/Assert/AssertGuard/branch_executed/_150", "^StatefulPartitionedCall/jax2tf_apply_/assert_equal_21/Assert/AssertGuard/branch_executed/_160", "^StatefulPartitionedCall/jax2tf_apply_/assert_equal_23/Assert/AssertGuard/branch_executed/_170", "^StatefulPartitionedCall/jax2tf_apply_/assert_equal_3/Assert/AssertGuard/branch_executed/_70", "^StatefulPartitionedCall/jax2tf_apply_/assert_equal_5/Assert/AssertGuard/branch_executed/_80", "^StatefulPartitionedCall/jax2tf_apply_/assert_equal_7/Assert/AssertGuard/branch_executed/_90", "^StatefulPartitionedCall/jax2tf_apply_/assert_equal_9/Assert/AssertGuard/branch_executed/_100"], "attr": {"_has_manual_control_dependencies": {"b": true}}, "inputs": ["^StatefulPartitionedCall/jax2tf_apply_/assert_equal_1/Assert/AssertGuard/branch_executed/_60", "^StatefulPartitionedCall/jax2tf_apply_/assert_equal_11/Assert/AssertGuard/branch_executed/_110", "^StatefulPartitionedCall/jax2tf_apply_/assert_equal_13/Assert/AssertGuard/branch_executed/_120", "^StatefulPartitionedCall/jax2tf_apply_/assert_equal_15/Assert/AssertGuard/branch_executed/_130", "^StatefulPartitionedCall/jax2tf_apply_/assert_equal_17/Assert/AssertGuard/branch_executed/_140", "^StatefulPartitionedCall/jax2tf_apply_/assert_equal_19/Assert/AssertGuard/branch_executed/_150", "^StatefulPartitionedCall/jax2tf_apply_/assert_equal_21/Assert/AssertGuard/branch_executed/_160", "^StatefulPartitionedCall/jax2tf_apply_/assert_equal_23/Assert/AssertGuard/branch_executed/_170", "^StatefulPartitionedCall/jax2tf_apply_/assert_equal_3/Assert/AssertGuard/branch_executed/_70", "^StatefulPartitionedCall/jax2tf_apply_/assert_equal_5/Assert/AssertGuard/branch_executed/_80", "^StatefulPartitionedCall/jax2tf_apply_/assert_equal_7/Assert/AssertGuard/branch_executed/_90", "^StatefulPartitionedCall/jax2tf_apply_/assert_equal_9/Assert/AssertGuard/branch_executed/_100"]}, {"name": "StatefulPartitionedCall/NoOp", "op": "NoOp", "input": ["^StatefulPartitionedCall/jax2tf_apply_/assert_equal_1/Assert/AssertGuard/branch_executed/_60", "^StatefulPartitionedCall/jax2tf_apply_/assert_equal_11/Assert/AssertGuard/branch_executed/_110", "^StatefulPartitionedCall/jax2tf_apply_/assert_equal_13/Assert/AssertGuard/branch_executed/_120", "^StatefulPartitionedCall/jax2tf_apply_/assert_equal_15/Assert/AssertGuard/branch_executed/_130", "^StatefulPartitionedCall/jax2tf_apply_/assert_equal_17/Assert/AssertGuard/branch_executed/_140", "^StatefulPartitionedCall/jax2tf_apply_/assert_equal_19/Assert/AssertGuard/branch_executed/_150", "^StatefulPartitionedCall/jax2tf_apply_/assert_equal_21/Assert/AssertGuard/branch_executed/_160", "^StatefulPartitionedCall/jax2tf_apply_/assert_equal_23/Assert/AssertGuard/branch_executed/_170", "^StatefulPartitionedCall/jax2tf_apply_/assert_equal_3/Assert/AssertGuard/branch_executed/_70", "^StatefulPartitionedCall/jax2tf_apply_/assert_equal_5/Assert/AssertGuard/branch_executed/_80", "^StatefulPartitionedCall/jax2tf_apply_/assert_equal_7/Assert/AssertGuard/branch_executed/_90", "^StatefulPartitionedCall/jax2tf_apply_/assert_equal_9/Assert/AssertGuard/branch_executed/_100"], "attr": {"_has_manual_control_dependencies": {"b": true}}, "inputs": ["^StatefulPartitionedCall/jax2tf_apply_/assert_equal_1/Assert/AssertGuard/branch_executed/_60", "^StatefulPartitionedCall/jax2tf_apply_/assert_equal_11/Assert/AssertGuard/branch_executed/_110", "^StatefulPartitionedCall/jax2tf_apply_/assert_equal_13/Assert/AssertGuard/branch_executed/_120", "^StatefulPartitionedCall/jax2tf_apply_/assert_equal_15/Assert/AssertGuard/branch_executed/_130", "^StatefulPartitionedCall/jax2tf_apply_/assert_equal_17/Assert/AssertGuard/branch_executed/_140", "^StatefulPartitionedCall/jax2tf_apply_/assert_equal_19/Assert/AssertGuard/branch_executed/_150", "^StatefulPartitionedCall/jax2tf_apply_/assert_equal_21/Assert/AssertGuard/branch_executed/_160", "^StatefulPartitionedCall/jax2tf_apply_/assert_equal_23/Assert/AssertGuard/branch_executed/_170", "^StatefulPartitionedCall/jax2tf_apply_/assert_equal_3/Assert/AssertGuard/branch_executed/_70", "^StatefulPartitionedCall/jax2tf_apply_/assert_equal_5/Assert/AssertGuard/branch_executed/_80", "^StatefulPartitionedCall/jax2tf_apply_/assert_equal_7/Assert/AssertGuard/branch_executed/_90", "^StatefulPartitionedCall/jax2tf_apply_/assert_equal_9/Assert/AssertGuard/branch_executed/_100"]}, {"name": "Identity", "op": "Identity", "input": ["xs_0", "^Func/StatefulPartitionedCall/output_control_node/_50", "^StatefulPartitionedCall/NoOp"], "attr": {"T": {"type": "DT_FLOAT"}}, "inputs": ["xs_0", "^Func/StatefulPartitionedCall/output_control_node/_50", "^StatefulPartitionedCall/NoOp"]}, {"name": "Identity_1", "op": "Identity", "input": ["StatefulPartitionedCall/jax2tf_apply_/ActorCriticTransformerFlats/ActorCriticTransformerFlats/GeneralActorCriticRNN_0/Dense_10/pjit_add_/AddV2", "^Func/StatefulPartitionedCall/output_control_node/_50", "^StatefulPartitionedCall/NoOp"], "attr": {"T": {"type": "DT_FLOAT"}}, "inputs": ["StatefulPartitionedCall/jax2tf_apply_/ActorCriticTransformerFlats/ActorCriticTransformerFlats/GeneralActorCriticRNN_0/Dense_10/pjit_add_/AddV2", "^Func/StatefulPartitionedCall/output_control_node/_50", "^StatefulPartitionedCall/NoOp"]}, {"name": "Identity_2", "op": "Identity", "input": ["StatefulPartitionedCall/jax2tf_apply_/ActorCriticTransformerFlats/ActorCriticTransformerFlats/GeneralActorCriticRNN_0/pjit__squeeze_/Reshape", "^Func/StatefulPartitionedCall/output_control_node/_50", "^StatefulPartitionedCall/NoOp"], "attr": {"T": {"type": "DT_FLOAT"}}, "inputs": ["StatefulPartitionedCall/jax2tf_apply_/ActorCriticTransformerFlats/ActorCriticTransformerFlats/GeneralActorCriticRNN_0/pjit__squeeze_/Reshape", "^Func/StatefulPartitionedCall/output_control_node/_50", "^StatefulPartitionedCall/NoOp"]}], "library": {}, "versions": {"producer": 1882}}, "weightsManifest": [{"paths": ["group1-shard1of4.bin", "group1-shard2of4.bin", "group1-shard3of4.bin", "group1-shard4of4.bin"], "weights": [{"name": "StatefulPartitionedCall/jax2tf_apply_/ActorCriticTransformerFlats/ActorCriticTransformerFlats/GeneralActorCriticRNN_0/Dense_0/ExpandDims/dim", "shape": [], "dtype": "int32"}, {"name": "StatefulPartitionedCall/jax2tf_arg_9/ReadVariableOp", "shape": [1024, 512], "dtype": "float32"}, {"name": "StatefulPartitionedCall/jax2tf_arg_8/ReadVariableOp", "shape": [512], "dtype": "float32"}, {"name": "StatefulPartitionedCall/jax2tf_apply_/ActorCriticTransformerFlats/ActorCriticTransformerFlats/GeneralActorCriticRNN_0/Dense_2/ExpandDims/dim", "shape": [], "dtype": "int32"}, {"name": "StatefulPartitionedCall/jax2tf_arg_17/ReadVariableOp", "shape": [512, 512], "dtype": "float32"}, {"name": "StatefulPartitionedCall/jax2tf_arg_16/ReadVariableOp", "shape": [512], "dtype": "float32"}, {"name": "StatefulPartitionedCall/jax2tf_apply_/ActorCriticTransformerFlats/ActorCriticTransformerFlats/GeneralActorCriticRNN_0/Dense_4/ExpandDims/dim", "shape": [], "dtype": "int32"}, {"name": "StatefulPartitionedCall/jax2tf_arg_21/ReadVariableOp", "shape": [512, 512], "dtype": "float32"}, {"name": "StatefulPartitionedCall/jax2tf_arg_20/ReadVariableOp", "shape": [512], "dtype": "float32"}, {"name": "StatefulPartitionedCall/jax2tf_apply_/ActorCriticTransformerFlats/ActorCriticTransformerFlats/GeneralActorCriticRNN_0/Dense_6/ExpandDims/dim", "shape": [], "dtype": "int32"}, {"name": "StatefulPartitionedCall/jax2tf_arg_25/ReadVariableOp", "shape": [512, 512], "dtype": "float32"}, {"name": "StatefulPartitionedCall/jax2tf_arg_24/ReadVariableOp", "shape": [512], "dtype": "float32"}, {"name": "StatefulPartitionedCall/jax2tf_apply_/ActorCriticTransformerFlats/ActorCriticTransformerFlats/GeneralActorCriticRNN_0/Dense_8/ExpandDims/dim", "shape": [], "dtype": "int32"}, {"name": "StatefulPartitionedCall/jax2tf_arg_29/ReadVariableOp", "shape": [512, 512], "dtype": "float32"}, {"name": "StatefulPartitionedCall/jax2tf_arg_28/ReadVariableOp", "shape": [512], "dtype": "float32"}, {"name": "StatefulPartitionedCall/jax2tf_apply_/ActorCriticTransformerFlats/ActorCriticTransformerFlats/GeneralActorCriticRNN_0/Dense_10/ExpandDims/dim", "shape": [], "dtype": "int32"}, {"name": "StatefulPartitionedCall/jax2tf_arg_13/ReadVariableOp", "shape": [512, 16], "dtype": "float32"}, {"name": "StatefulPartitionedCall/jax2tf_arg_12/ReadVariableOp", "shape": [16], "dtype": "float32"}, {"name": "StatefulPartitionedCall/jax2tf_apply_/ActorCriticTransformerFlats/ActorCriticTransformerFlats/Cast_9/x", "shape": [], "dtype": "int32"}, {"name": "StatefulPartitionedCall/jax2tf_apply_/ActorCriticTransformerFlats/ActorCriticTransformerFlats/Reshape_12/shape/1", "shape": [], "dtype": "int32"}, {"name": "StatefulPartitionedCall/jax2tf_apply_/ActorCriticTransformerFlats/ActorCriticTransformerFlats/BroadcastTo_12/shape/1", "shape": [], "dtype": "int32"}, {"name": "StatefulPartitionedCall/jax2tf_apply_/ActorCriticTransformerFlats/ActorCriticTransformerFlats/pjit__where_/BroadcastTo/shape/1", "shape": [], "dtype": "int32"}, {"name": "StatefulPartitionedCall/jax2tf_arg_3/ReadVariableOp", "shape": [27, 252], "dtype": "float32"}, {"name": "StatefulPartitionedCall/jax2tf_apply_/ActorCriticTransformerFlats/ActorCriticTransformerFlats/Dense_1/Reshape", "shape": [1, 252], "dtype": "float32"}, {"name": "StatefulPartitionedCall/jax2tf_apply_/ActorCriticTransformerFlats/ActorCriticTransformerFlats/Reshape_3", "shape": [1, 1], "dtype": "float32"}, {"name": "StatefulPartitionedCall/jax2tf_apply_/ActorCriticTransformerFlats/ActorCriticTransformerFlats/BroadcastTo_3/shape/1", "shape": [], "dtype": "int32"}, {"name": "StatefulPartitionedCall/jax2tf_apply_/ActorCriticTransformerFlats/ActorCriticTransformerFlats/transpose_4/perm", "shape": [2], "dtype": "int32"}, {"name": "StatefulPartitionedCall/jax2tf_apply_/ActorCriticTransformerFlats/ActorCriticTransformerFlats/strided_slice_2", "shape": [1, 1], "dtype": "int32"}, {"name": "StatefulPartitionedCall/jax2tf_apply_/ActorCriticTransformerFlats/ActorCriticTransformerFlats/Reshape_5", "shape": [1], "dtype": "float32"}, {"name": "StatefulPartitionedCall/jax2tf_apply_/ActorCriticTransformerFlats/ActorCriticTransformerFlats/strided_slice_3/stack", "shape": [1], "dtype": "int32"}, {"name": "StatefulPartitionedCall/jax2tf_apply_/ActorCriticTransformerFlats/ActorCriticTransformerFlats/strided_slice_3/stack_1", "shape": [1], "dtype": "int32"}, {"name": "StatefulPartitionedCall/jax2tf_apply_/ActorCriticTransformerFlats/ActorCriticTransformerFlats/strided_slice_3/stack_2", "shape": [1], "dtype": "int32"}, {"name": "StatefulPartitionedCall/jax2tf_apply_/ActorCriticTransformerFlats/ActorCriticTransformerFlats/transpose_5/perm", "shape": [2], "dtype": "int32"}, {"name": "StatefulPartitionedCall/jax2tf_apply_/ActorCriticTransformerFlats/ActorCriticTransformerFlats/Cast_3/x", "shape": [], "dtype": "int32"}, {"name": "StatefulPartitionedCall/jax2tf_arg_1/ReadVariableOp", "shape": [19, 252], "dtype": "float32"}, {"name": "StatefulPartitionedCall/jax2tf_apply_/ActorCriticTransformerFlats/ActorCriticTransformerFlats/Dense_0/Reshape", "shape": [1, 252], "dtype": "float32"}, {"name": "StatefulPartitionedCall/jax2tf_apply_/ActorCriticTransformerFlats/ActorCriticTransformerFlats/Reshape", "shape": [1, 1], "dtype": "float32"}, {"name": "StatefulPartitionedCall/jax2tf_apply_/ActorCriticTransformerFlats/ActorCriticTransformerFlats/BroadcastTo/shape/1", "shape": [], "dtype": "int32"}, {"name": "StatefulPartitionedCall/jax2tf_apply_/ActorCriticTransformerFlats/ActorCriticTransformerFlats/transpose_1/perm", "shape": [2], "dtype": "int32"}, {"name": "StatefulPartitionedCall/jax2tf_apply_/ActorCriticTransformerFlats/ActorCriticTransformerFlats/strided_slice", "shape": [1, 1], "dtype": "int32"}, {"name": "StatefulPartitionedCall/jax2tf_apply_/ActorCriticTransformerFlats/ActorCriticTransformerFlats/Reshape_2", "shape": [1], "dtype": "float32"}, {"name": "StatefulPartitionedCall/jax2tf_apply_/ActorCriticTransformerFlats/ActorCriticTransformerFlats/strided_slice_1/stack", "shape": [1], "dtype": "int32"}, {"name": "StatefulPartitionedCall/jax2tf_apply_/ActorCriticTransformerFlats/ActorCriticTransformerFlats/strided_slice_1/stack_1", "shape": [1], "dtype": "int32"}, {"name": "StatefulPartitionedCall/jax2tf_apply_/ActorCriticTransformerFlats/ActorCriticTransformerFlats/strided_slice_1/stack_2", "shape": [1], "dtype": "int32"}, {"name": "StatefulPartitionedCall/jax2tf_apply_/ActorCriticTransformerFlats/ActorCriticTransformerFlats/transpose_2/perm", "shape": [2], "dtype": "int32"}, {"name": "StatefulPartitionedCall/jax2tf_apply_/ActorCriticTransformerFlats/ActorCriticTransformerFlats/Cast_1/x", "shape": [], "dtype": "int32"}, {"name": "StatefulPartitionedCall/jax2tf_arg_5/ReadVariableOp", "shape": [76, 252], "dtype": "float32"}, {"name": "StatefulPartitionedCall/jax2tf_apply_/ActorCriticTransformerFlats/ActorCriticTransformerFlats/Dense_2/Reshape", "shape": [1, 252], "dtype": "float32"}, {"name": "StatefulPartitionedCall/jax2tf_apply_/ActorCriticTransformerFlats/ActorCriticTransformerFlats/Reshape_6", "shape": [1, 1], "dtype": "float32"}, {"name": "StatefulPartitionedCall/jax2tf_apply_/ActorCriticTransformerFlats/ActorCriticTransformerFlats/BroadcastTo_6/shape/1", "shape": [], "dtype": "int32"}, {"name": "StatefulPartitionedCall/jax2tf_apply_/ActorCriticTransformerFlats/ActorCriticTransformerFlats/transpose_7/perm", "shape": [2], "dtype": "int32"}, {"name": "StatefulPartitionedCall/jax2tf_apply_/ActorCriticTransformerFlats/ActorCriticTransformerFlats/strided_slice_4", "shape": [1, 1], "dtype": "int32"}, {"name": "StatefulPartitionedCall/jax2tf_apply_/ActorCriticTransformerFlats/ActorCriticTransformerFlats/Reshape_8", "shape": [1], "dtype": "float32"}, {"name": "StatefulPartitionedCall/jax2tf_apply_/ActorCriticTransformerFlats/ActorCriticTransformerFlats/strided_slice_5/stack", "shape": [1], "dtype": "int32"}, {"name": "StatefulPartitionedCall/jax2tf_apply_/ActorCriticTransformerFlats/ActorCriticTransformerFlats/strided_slice_5/stack_1", "shape": [1], "dtype": "int32"}, {"name": "StatefulPartitionedCall/jax2tf_apply_/ActorCriticTransformerFlats/ActorCriticTransformerFlats/strided_slice_5/stack_2", "shape": [1], "dtype": "int32"}, {"name": "StatefulPartitionedCall/jax2tf_apply_/ActorCriticTransformerFlats/ActorCriticTransformerFlats/transpose_8/perm", "shape": [2], "dtype": "int32"}, {"name": "StatefulPartitionedCall/jax2tf_apply_/ActorCriticTransformerFlats/ActorCriticTransformerFlats/Cast_5/x", "shape": [], "dtype": "int32"}, {"name": "StatefulPartitionedCall/jax2tf_arg_7/ReadVariableOp", "shape": [35, 252], "dtype": "float32"}, {"name": "StatefulPartitionedCall/jax2tf_apply_/ActorCriticTransformerFlats/ActorCriticTransformerFlats/Dense_3/Reshape", "shape": [1, 252], "dtype": "float32"}, {"name": "StatefulPartitionedCall/jax2tf_apply_/ActorCriticTransformerFlats/ActorCriticTransformerFlats/Reshape_9", "shape": [1, 1], "dtype": "float32"}, {"name": "StatefulPartitionedCall/jax2tf_apply_/ActorCriticTransformerFlats/ActorCriticTransformerFlats/BroadcastTo_9/shape/1", "shape": [], "dtype": "int32"}, {"name": "StatefulPartitionedCall/jax2tf_apply_/ActorCriticTransformerFlats/ActorCriticTransformerFlats/transpose_10/perm", "shape": [2], "dtype": "int32"}, {"name": "StatefulPartitionedCall/jax2tf_apply_/ActorCriticTransformerFlats/ActorCriticTransformerFlats/strided_slice_6", "shape": [1, 1], "dtype": "int32"}, {"name": "StatefulPartitionedCall/jax2tf_apply_/ActorCriticTransformerFlats/ActorCriticTransformerFlats/Reshape_11", "shape": [1], "dtype": "float32"}, {"name": "StatefulPartitionedCall/jax2tf_apply_/ActorCriticTransformerFlats/ActorCriticTransformerFlats/strided_slice_7/stack", "shape": [1], "dtype": "int32"}, {"name": "StatefulPartitionedCall/jax2tf_apply_/ActorCriticTransformerFlats/ActorCriticTransformerFlats/strided_slice_7/stack_1", "shape": [1], "dtype": "int32"}, {"name": "StatefulPartitionedCall/jax2tf_apply_/ActorCriticTransformerFlats/ActorCriticTransformerFlats/strided_slice_7/stack_2", "shape": [1], "dtype": "int32"}, {"name": "StatefulPartitionedCall/jax2tf_apply_/ActorCriticTransformerFlats/ActorCriticTransformerFlats/transpose_11/perm", "shape": [2], "dtype": "int32"}, {"name": "StatefulPartitionedCall/jax2tf_apply_/ActorCriticTransformerFlats/ActorCriticTransformerFlats/Cast_7/x", "shape": [], "dtype": "int32"}, {"name": "StatefulPartitionedCall/jax2tf_apply_/ActorCriticTransformerFlats/ActorCriticTransformerFlats/Cast_8/x", "shape": [], "dtype": "int32"}, {"name": "StatefulPartitionedCall/jax2tf_apply_/ActorCriticTransformerFlats/ActorCriticTransformerFlats/Reshape_13", "shape": [1, 1], "dtype": "float32"}, {"name": "StatefulPartitionedCall/jax2tf_apply_/ActorCriticTransformerFlats/ActorCriticTransformerFlats/BroadcastTo_13/shape/1", "shape": [], "dtype": "int32"}, {"name": "StatefulPartitionedCall/jax2tf_apply_/ActorCriticTransformerFlats/ActorCriticTransformerFlats/MultiHeadDense_0/Reshape/shape/1", "shape": [], "dtype": "int32"}, {"name": "StatefulPartitionedCall/jax2tf_apply_/ActorCriticTransformerFlats/ActorCriticTransformerFlats/MultiHeadDense_0/Reshape/shape/2", "shape": [], "dtype": "int32"}, {"name": "StatefulPartitionedCall/jax2tf_apply_/ActorCriticTransformerFlats/ActorCriticTransformerFlats/MultiHeadDense_0/BroadcastTo/shape/1", "shape": [], "dtype": "int32"}, {"name": "StatefulPartitionedCall/jax2tf_apply_/ActorCriticTransformerFlats/ActorCriticTransformerFlats/MultiHeadDense_0/BroadcastTo/shape/2", "shape": [], "dtype": "int32"}, {"name": "StatefulPartitionedCall/jax2tf_apply_/ActorCriticTransformerFlats/ActorCriticTransformerFlats/MultiHeadDense_0/...fhd_hdo-_...fho/pjit__einsum_/Reshape/shape/1", "shape": [], "dtype": "int32"}, {"name": "StatefulPartitionedCall/jax2tf_arg_33/ReadVariableOp", "shape": [8, 256, 128], "dtype": "float32"}, {"name": "StatefulPartitionedCall/jax2tf_apply_/ActorCriticTransformerFlats/ActorCriticTransformerFlats/MultiHeadDense_0/pjit_add_/BroadcastTo", "shape": [1, 8, 128], "dtype": "float32"}, {"name": "StatefulPartitionedCall/jax2tf_apply_/ActorCriticTransformerFlats/ActorCriticTransformerFlats/MultiHeadDense_0/Const_4", "shape": [], "dtype": "float32"}, {"name": "StatefulPartitionedCall/jax2tf_apply_/ActorCriticTransformerFlats/ActorCriticTransformerFlats/MultiHeadDense_0/pjit__reduce_sum_/Sum/reduction_indices", "shape": [1], "dtype": "int32"}, {"name": "StatefulPartitionedCall/jax2tf_apply_/ActorCriticTransformerFlats/ActorCriticTransformerFlats/MultiHeadDense_0/Reshape_1/shape", "shape": [1], "dtype": "int32"}, {"name": "StatefulPartitionedCall/jax2tf_apply_/ActorCriticTransformerFlats/ActorCriticTransformerFlats/GeneralActorCriticRNN_0/Dense_1/ExpandDims/dim", "shape": [], "dtype": "int32"}, {"name": "StatefulPartitionedCall/jax2tf_arg_11/ReadVariableOp", "shape": [1024, 512], "dtype": "float32"}, {"name": "StatefulPartitionedCall/jax2tf_arg_10/ReadVariableOp", "shape": [512], "dtype": "float32"}, {"name": "StatefulPartitionedCall/jax2tf_apply_/ActorCriticTransformerFlats/ActorCriticTransformerFlats/GeneralActorCriticRNN_0/Dense_3/ExpandDims/dim", "shape": [], "dtype": "int32"}, {"name": "StatefulPartitionedCall/jax2tf_arg_19/ReadVariableOp", "shape": [512, 512], "dtype": "float32"}, {"name": "StatefulPartitionedCall/jax2tf_arg_18/ReadVariableOp", "shape": [512], "dtype": "float32"}, {"name": "StatefulPartitionedCall/jax2tf_apply_/ActorCriticTransformerFlats/ActorCriticTransformerFlats/GeneralActorCriticRNN_0/Dense_5/ExpandDims/dim", "shape": [], "dtype": "int32"}, {"name": "StatefulPartitionedCall/jax2tf_arg_23/ReadVariableOp", "shape": [512, 512], "dtype": "float32"}, {"name": "StatefulPartitionedCall/jax2tf_arg_22/ReadVariableOp", "shape": [512], "dtype": "float32"}, {"name": "StatefulPartitionedCall/jax2tf_apply_/ActorCriticTransformerFlats/ActorCriticTransformerFlats/GeneralActorCriticRNN_0/Dense_7/ExpandDims/dim", "shape": [], "dtype": "int32"}, {"name": "StatefulPartitionedCall/jax2tf_arg_27/ReadVariableOp", "shape": [512, 512], "dtype": "float32"}, {"name": "StatefulPartitionedCall/jax2tf_arg_26/ReadVariableOp", "shape": [512], "dtype": "float32"}, {"name": "StatefulPartitionedCall/jax2tf_apply_/ActorCriticTransformerFlats/ActorCriticTransformerFlats/GeneralActorCriticRNN_0/Dense_9/ExpandDims/dim", "shape": [], "dtype": "int32"}, {"name": "StatefulPartitionedCall/jax2tf_arg_31/ReadVariableOp", "shape": [512, 512], "dtype": "float32"}, {"name": "StatefulPartitionedCall/jax2tf_arg_30/ReadVariableOp", "shape": [512], "dtype": "float32"}, {"name": "StatefulPartitionedCall/jax2tf_apply_/ActorCriticTransformerFlats/ActorCriticTransformerFlats/GeneralActorCriticRNN_0/Dense_11/ExpandDims/dim", "shape": [], "dtype": "int32"}, {"name": "StatefulPartitionedCall/jax2tf_arg_15/ReadVariableOp", "shape": [512, 1], "dtype": "float32"}, {"name": "StatefulPartitionedCall/jax2tf_arg_14/ReadVariableOp", "shape": [1], "dtype": "float32"}, {"name": "StatefulPartitionedCall/jax2tf_apply_/ActorCriticTransformerFlats/ActorCriticTransformerFlats/GeneralActorCriticRNN_0/pjit__squeeze_/Reshape/shape_1", "shape": [0], "dtype": "int32"}, {"name": "StatefulPartitionedCall/jax2tf_apply_/strided_slice_11/stack", "shape": [1], "dtype": "int32"}, {"name": "StatefulPartitionedCall/jax2tf_apply_/strided_slice_11/stack_1", "shape": [1], "dtype": "int32"}, {"name": "StatefulPartitionedCall/jax2tf_apply_/strided_slice_11/stack_2", "shape": [1], "dtype": "int32"}, {"name": "StatefulPartitionedCall/jax2tf_apply_/assert_equal_23/y", "shape": [], "dtype": "bool"}, {"name": "StatefulPartitionedCall/jax2tf_apply_/strided_slice_10/stack", "shape": [1], "dtype": "int32"}, {"name": "StatefulPartitionedCall/jax2tf_apply_/strided_slice_10/stack_1", "shape": [1], "dtype": "int32"}, {"name": "StatefulPartitionedCall/jax2tf_apply_/strided_slice_10/stack_2", "shape": [1], "dtype": "int32"}, {"name": "StatefulPartitionedCall/jax2tf_apply_/assert_equal_21/y", "shape": [], "dtype": "bool"}, {"name": "StatefulPartitionedCall/jax2tf_apply_/strided_slice_9/stack", "shape": [1], "dtype": "int32"}, {"name": "StatefulPartitionedCall/jax2tf_apply_/strided_slice_9/stack_1", "shape": [1], "dtype": "int32"}, {"name": "StatefulPartitionedCall/jax2tf_apply_/strided_slice_9/stack_2", "shape": [1], "dtype": "int32"}, {"name": "StatefulPartitionedCall/jax2tf_apply_/assert_equal_19/y", "shape": [], "dtype": "bool"}, {"name": "StatefulPartitionedCall/jax2tf_apply_/strided_slice_8/stack", "shape": [1], "dtype": "int32"}, {"name": "StatefulPartitionedCall/jax2tf_apply_/strided_slice_8/stack_1", "shape": [1], "dtype": "int32"}, {"name": "StatefulPartitionedCall/jax2tf_apply_/strided_slice_8/stack_2", "shape": [1], "dtype": "int32"}, {"name": "StatefulPartitionedCall/jax2tf_apply_/assert_equal_17/y", "shape": [], "dtype": "bool"}, {"name": "StatefulPartitionedCall/jax2tf_apply_/strided_slice_7/stack", "shape": [1], "dtype": "int32"}, {"name": "StatefulPartitionedCall/jax2tf_apply_/strided_slice_7/stack_1", "shape": [1], "dtype": "int32"}, {"name": "StatefulPartitionedCall/jax2tf_apply_/strided_slice_7/stack_2", "shape": [1], "dtype": "int32"}, {"name": "StatefulPartitionedCall/jax2tf_apply_/assert_equal_15/y", "shape": [], "dtype": "bool"}, {"name": "StatefulPartitionedCall/jax2tf_apply_/strided_slice_6/stack", "shape": [1], "dtype": "int32"}, {"name": "StatefulPartitionedCall/jax2tf_apply_/strided_slice_6/stack_1", "shape": [1], "dtype": "int32"}, {"name": "StatefulPartitionedCall/jax2tf_apply_/strided_slice_6/stack_2", "shape": [1], "dtype": "int32"}, {"name": "StatefulPartitionedCall/jax2tf_apply_/assert_equal_13/y", "shape": [], "dtype": "bool"}, {"name": "StatefulPartitionedCall/jax2tf_apply_/strided_slice_5/stack", "shape": [1], "dtype": "int32"}, {"name": "StatefulPartitionedCall/jax2tf_apply_/strided_slice_5/stack_1", "shape": [1], "dtype": "int32"}, {"name": "StatefulPartitionedCall/jax2tf_apply_/strided_slice_5/stack_2", "shape": [1], "dtype": "int32"}, {"name": "StatefulPartitionedCall/jax2tf_apply_/assert_equal_11/y", "shape": [], "dtype": "bool"}, {"name": "StatefulPartitionedCall/jax2tf_apply_/strided_slice_4/stack", "shape": [1], "dtype": "int32"}, {"name": "StatefulPartitionedCall/jax2tf_apply_/strided_slice_4/stack_1", "shape": [1], "dtype": "int32"}, {"name": "StatefulPartitionedCall/jax2tf_apply_/strided_slice_4/stack_2", "shape": [1], "dtype": "int32"}, {"name": "StatefulPartitionedCall/jax2tf_apply_/assert_equal_9/y", "shape": [], "dtype": "bool"}, {"name": "StatefulPartitionedCall/jax2tf_apply_/strided_slice_3/stack", "shape": [1], "dtype": "int32"}, {"name": "StatefulPartitionedCall/jax2tf_apply_/strided_slice_3/stack_1", "shape": [1], "dtype": "int32"}, {"name": "StatefulPartitionedCall/jax2tf_apply_/strided_slice_3/stack_2", "shape": [1], "dtype": "int32"}, {"name": "StatefulPartitionedCall/Const_3", "shape": [], "dtype": "int32"}, {"name": "StatefulPartitionedCall/jax2tf_apply_/assert_equal_7/y", "shape": [], "dtype": "bool"}, {"name": "StatefulPartitionedCall/jax2tf_apply_/strided_slice_2/stack", "shape": [1], "dtype": "int32"}, {"name": "StatefulPartitionedCall/jax2tf_apply_/strided_slice_2/stack_1", "shape": [1], "dtype": "int32"}, {"name": "StatefulPartitionedCall/jax2tf_apply_/strided_slice_2/stack_2", "shape": [1], "dtype": "int32"}, {"name": "StatefulPartitionedCall/Const_2", "shape": [], "dtype": "int32"}, {"name": "StatefulPartitionedCall/jax2tf_apply_/assert_equal_5/y", "shape": [], "dtype": "bool"}, {"name": "StatefulPartitionedCall/jax2tf_apply_/strided_slice_1/stack", "shape": [1], "dtype": "int32"}, {"name": "StatefulPartitionedCall/jax2tf_apply_/strided_slice_1/stack_1", "shape": [1], "dtype": "int32"}, {"name": "StatefulPartitionedCall/jax2tf_apply_/strided_slice_1/stack_2", "shape": [1], "dtype": "int32"}, {"name": "StatefulPartitionedCall/Const_1", "shape": [], "dtype": "int32"}, {"name": "StatefulPartitionedCall/jax2tf_apply_/assert_equal_3/y", "shape": [], "dtype": "bool"}, {"name": "StatefulPartitionedCall/jax2tf_apply_/strided_slice/stack", "shape": [1], "dtype": "int32"}, {"name": "StatefulPartitionedCall/jax2tf_apply_/strided_slice/stack_1", "shape": [1], "dtype": "int32"}, {"name": "StatefulPartitionedCall/jax2tf_apply_/strided_slice/stack_2", "shape": [1], "dtype": "int32"}, {"name": "StatefulPartitionedCall/Const", "shape": [], "dtype": "int32"}, {"name": "StatefulPartitionedCall/jax2tf_apply_/assert_equal_1/y", "shape": [], "dtype": "bool"}, {"name": "ConstantFolding/StatefulPartitionedCall/jax2tf_apply_/ActorCriticTransformerFlats/ActorCriticTransformerFlats/BroadcastTo_2/shape_const_axis", "shape": [], "dtype": "int32"}, {"name": "ConstantFolding/StatefulPartitionedCall/jax2tf_apply_/ActorCriticTransformerFlats/ActorCriticTransformerFlats/BroadcastTo_5/shape_const_axis", "shape": [], "dtype": "int32"}, {"name": "ConstantFolding/StatefulPartitionedCall/jax2tf_apply_/ActorCriticTransformerFlats/ActorCriticTransformerFlats/BroadcastTo_8/shape_const_axis", "shape": [], "dtype": "int32"}, {"name": "ConstantFolding/StatefulPartitionedCall/jax2tf_apply_/ActorCriticTransformerFlats/ActorCriticTransformerFlats/BroadcastTo_11/shape_const_axis", "shape": [], "dtype": "int32"}, {"name": "StatefulPartitionedCall/jax2tf_apply_/assert_equal_1/Assert/AssertGuard/pivot_f/_54", "shape": [], "dtype": "bool"}, {"name": "StatefulPartitionedCall/jax2tf_apply_/assert_equal_1/Assert/AssertGuard/pivot_t/_55", "shape": [], "dtype": "bool"}, {"name": "StatefulPartitionedCall/jax2tf_apply_/assert_equal_3/Assert/AssertGuard/pivot_f/_64", "shape": [], "dtype": "bool"}, {"name": "StatefulPartitionedCall/jax2tf_apply_/assert_equal_3/Assert/AssertGuard/pivot_t/_65", "shape": [], "dtype": "bool"}, {"name": "StatefulPartitionedCall/jax2tf_apply_/assert_equal_5/Assert/AssertGuard/pivot_f/_74", "shape": [], "dtype": "bool"}, {"name": "StatefulPartitionedCall/jax2tf_apply_/assert_equal_5/Assert/AssertGuard/pivot_t/_75", "shape": [], "dtype": "bool"}, {"name": "StatefulPartitionedCall/jax2tf_apply_/assert_equal_7/Assert/AssertGuard/pivot_f/_84", "shape": [], "dtype": "bool"}, {"name": "StatefulPartitionedCall/jax2tf_apply_/assert_equal_7/Assert/AssertGuard/pivot_t/_85", "shape": [], "dtype": "bool"}, {"name": "StatefulPartitionedCall/jax2tf_apply_/assert_equal_9/Assert/AssertGuard/pivot_f/_94", "shape": [], "dtype": "bool"}, {"name": "StatefulPartitionedCall/jax2tf_apply_/assert_equal_9/Assert/AssertGuard/pivot_t/_95", "shape": [], "dtype": "bool"}, {"name": "StatefulPartitionedCall/jax2tf_apply_/assert_equal_11/Assert/AssertGuard/pivot_f/_104", "shape": [], "dtype": "bool"}, {"name": "StatefulPartitionedCall/jax2tf_apply_/assert_equal_11/Assert/AssertGuard/pivot_t/_105", "shape": [], "dtype": "bool"}, {"name": "StatefulPartitionedCall/jax2tf_apply_/assert_equal_13/Assert/AssertGuard/pivot_f/_114", "shape": [], "dtype": "bool"}, {"name": "StatefulPartitionedCall/jax2tf_apply_/assert_equal_13/Assert/AssertGuard/pivot_t/_115", "shape": [], "dtype": "bool"}, {"name": "StatefulPartitionedCall/jax2tf_apply_/assert_equal_15/Assert/AssertGuard/pivot_f/_124", "shape": [], "dtype": "bool"}, {"name": "StatefulPartitionedCall/jax2tf_apply_/assert_equal_15/Assert/AssertGuard/pivot_t/_125", "shape": [], "dtype": "bool"}, {"name": "StatefulPartitionedCall/jax2tf_apply_/assert_equal_17/Assert/AssertGuard/pivot_f/_134", "shape": [], "dtype": "bool"}, {"name": "StatefulPartitionedCall/jax2tf_apply_/assert_equal_17/Assert/AssertGuard/pivot_t/_135", "shape": [], "dtype": "bool"}, {"name": "StatefulPartitionedCall/jax2tf_apply_/assert_equal_19/Assert/AssertGuard/pivot_f/_144", "shape": [], "dtype": "bool"}, {"name": "StatefulPartitionedCall/jax2tf_apply_/assert_equal_19/Assert/AssertGuard/pivot_t/_145", "shape": [], "dtype": "bool"}, {"name": "StatefulPartitionedCall/jax2tf_apply_/assert_equal_21/Assert/AssertGuard/pivot_f/_154", "shape": [], "dtype": "bool"}, {"name": "StatefulPartitionedCall/jax2tf_apply_/assert_equal_21/Assert/AssertGuard/pivot_t/_155", "shape": [], "dtype": "bool"}, {"name": "StatefulPartitionedCall/jax2tf_apply_/assert_equal_23/Assert/AssertGuard/pivot_f/_164", "shape": [], "dtype": "bool"}, {"name": "StatefulPartitionedCall/jax2tf_apply_/assert_equal_23/Assert/AssertGuard/pivot_t/_165", "shape": [], "dtype": "bool"}]}]}