{"format": "graph-model", "generatedBy": "2.17.0", "convertedBy": "TensorFlow.js Converter v4.21.0", "signature": {"inputs": {"xs_10": {"name": "xs_10:0", "dtype": "DT_BOOL", "tensorShape": {"dim": [{"size": "4"}, {"size": "16"}, {"size": "16"}]}}, "xs_6": {"name": "xs_6:0", "dtype": "DT_BOOL", "tensorShape": {"dim": [{"size": "4"}]}}, "xs_2": {"name": "xs_2:0", "dtype": "DT_FLOAT", "tensorShape": {"dim": [{"size": "4"}, {"size": "19"}]}}, "xs_8:0": {"name": "xs_8:0", "dtype": "DT_BOOL", "tensorShape": {"dim": [{"size": "12"}]}}, "xs_11": {"name": "xs_11:0", "dtype": "DT_INT32", "tensorShape": {"dim": [{"size": "12"}, {"size": "2"}]}}, "xs_9": {"name": "xs_9:0", "dtype": "DT_BOOL", "tensorShape": {"dim": [{"size": "2"}]}}, "xs_3": {"name": "xs_3:0", "dtype": "DT_FLOAT", "tensorShape": {"dim": [{"size": "12"}, {"size": "27"}]}}, "xs_1": {"name": "xs_1:0", "dtype": "DT_FLOAT", "tensorShape": {"dim": [{"size": "1"}]}}, "xs_4": {"name": "xs_4:0", "dtype": "DT_FLOAT", "tensorShape": {"dim": [{"size": "12"}, {"size": "22"}]}}, "xs_5": {"name": "xs_5:0", "dtype": "DT_FLOAT", "tensorShape": {"dim": [{"size": "2"}, {"size": "8"}]}}, "xs_7:0": {"name": "xs_7:0", "dtype": "DT_BOOL", "tensorShape": {"dim": [{"size": "12"}]}}, "xs_0": {"name": "xs_0:0", "dtype": "DT_FLOAT", "tensorShape": {"dim": [{"size": "1"}, {"size": "256"}]}}, "xs_12": {"name": "xs_12:0", "dtype": "DT_INT32", "tensorShape": {"dim": [{"size": "2"}]}}}, "outputs": {"output_2": {"name": "Identity_2:0", "dtype": "DT_FLOAT", "tensorShape": {}}, "output_1": {"name": "Identity_1:0", "dtype": "DT_FLOAT", "tensorShape": {"dim": [{"size": "16"}]}}, "output_0": {"name": "Identity:0", "dtype": "DT_FLOAT", "tensorShape": {"dim": [{"size": "1"}, {"size": "256"}]}}}}, "modelTopology": {"node": [{"name": "StatefulPartitionedCall/jax2tf_apply_/ActorCriticTransformerFlats/ActorCriticTransformerFlats/GeneralActorCriticRNN_0/Dense_0/ExpandDims/dim", "op": "Const", "attr": {"value": {"tensor": {"dtype": "DT_INT32", "tensorShape": {}}}, "dtype": {"type": "DT_INT32"}}}, {"name": "StatefulPartitionedCall/jax2tf_arg_9/ReadVariableOp", "op": "Const", "attr": {"value": {"tensor": {"dtype": "DT_FLOAT", "tensorShape": {"dim": [{"size": "128"}, {"size": "128"}]}}}, "dtype": {"type": "DT_FLOAT"}}}, {"name": "StatefulPartitionedCall/jax2tf_arg_8/ReadVariableOp", "op": "Const", "attr": {"value": {"tensor": {"dtype": "DT_FLOAT", "tensorShape": {"dim": [{"size": "128"}]}}}, "dtype": {"type": "DT_FLOAT"}}}, {"name": "StatefulPartitionedCall/jax2tf_apply_/ActorCriticTransformerFlats/ActorCriticTransformerFlats/GeneralActorCriticRNN_0/Dense_2/ExpandDims/dim", "op": "Const", "attr": {"value": {"tensor": {"dtype": "DT_INT32", "tensorShape": {}}}, "dtype": {"type": "DT_INT32"}}}, {"name": "StatefulPartitionedCall/jax2tf_arg_17/ReadVariableOp", "op": "Const", "attr": {"value": {"tensor": {"dtype": "DT_FLOAT", "tensorShape": {"dim": [{"size": "128"}, {"size": "128"}]}}}, "dtype": {"type": "DT_FLOAT"}}}, {"name": "StatefulPartitionedCall/jax2tf_arg_16/ReadVariableOp", "op": "Const", "attr": {"value": {"tensor": {"dtype": "DT_FLOAT", "tensorShape": {"dim": [{"size": "128"}]}}}, "dtype": {"type": "DT_FLOAT"}}}, {"name": "StatefulPartitionedCall/jax2tf_apply_/ActorCriticTransformerFlats/ActorCriticTransformerFlats/GeneralActorCriticRNN_0/Dense_4/ExpandDims/dim", "op": "Const", "attr": {"value": {"tensor": {"dtype": "DT_INT32", "tensorShape": {}}}, "dtype": {"type": "DT_INT32"}}}, {"name": "StatefulPartitionedCall/jax2tf_arg_21/ReadVariableOp", "op": "Const", "attr": {"value": {"tensor": {"dtype": "DT_FLOAT", "tensorShape": {"dim": [{"size": "128"}, {"size": "128"}]}}}, "dtype": {"type": "DT_FLOAT"}}}, {"name": "StatefulPartitionedCall/jax2tf_arg_20/ReadVariableOp", "op": "Const", "attr": {"value": {"tensor": {"dtype": "DT_FLOAT", "tensorShape": {"dim": [{"size": "128"}]}}}, "dtype": {"type": "DT_FLOAT"}}}, {"name": "StatefulPartitionedCall/jax2tf_apply_/ActorCriticTransformerFlats/ActorCriticTransformerFlats/GeneralActorCriticRNN_0/Dense_6/ExpandDims/dim", "op": "Const", "attr": {"value": {"tensor": {"dtype": "DT_INT32", "tensorShape": {}}}, "dtype": {"type": "DT_INT32"}}}, {"name": "StatefulPartitionedCall/jax2tf_arg_25/ReadVariableOp", "op": "Const", "attr": {"value": {"tensor": {"dtype": "DT_FLOAT", "tensorShape": {"dim": [{"size": "128"}, {"size": "128"}]}}}, "dtype": {"type": "DT_FLOAT"}}}, {"name": "StatefulPartitionedCall/jax2tf_arg_24/ReadVariableOp", "op": "Const", "attr": {"value": {"tensor": {"dtype": "DT_FLOAT", "tensorShape": {"dim": [{"size": "128"}]}}}, "dtype": {"type": "DT_FLOAT"}}}, {"name": "StatefulPartitionedCall/jax2tf_apply_/ActorCriticTransformerFlats/ActorCriticTransformerFlats/GeneralActorCriticRNN_0/Dense_8/ExpandDims/dim", "op": "Const", "attr": {"value": {"tensor": {"dtype": "DT_INT32", "tensorShape": {}}}, "dtype": {"type": "DT_INT32"}}}, {"name": "StatefulPartitionedCall/jax2tf_arg_29/ReadVariableOp", "op": "Const", "attr": {"value": {"tensor": {"dtype": "DT_FLOAT", "tensorShape": {"dim": [{"size": "128"}, {"size": "128"}]}}}, "dtype": {"type": "DT_FLOAT"}}}, {"name": "StatefulPartitionedCall/jax2tf_arg_28/ReadVariableOp", "op": "Const", "attr": {"value": {"tensor": {"dtype": "DT_FLOAT", "tensorShape": {"dim": [{"size": "128"}]}}}, "dtype": {"type": "DT_FLOAT"}}}, {"name": "StatefulPartitionedCall/jax2tf_apply_/ActorCriticTransformerFlats/ActorCriticTransformerFlats/GeneralActorCriticRNN_0/Dense_10/ExpandDims/dim", "op": "Const", "attr": {"value": {"tensor": {"dtype": "DT_INT32", "tensorShape": {}}}, "dtype": {"type": "DT_INT32"}}}, {"name": "StatefulPartitionedCall/jax2tf_arg_13/ReadVariableOp", "op": "Const", "attr": {"value": {"tensor": {"dtype": "DT_FLOAT", "tensorShape": {"dim": [{"size": "128"}, {"size": "16"}]}}}, "dtype": {"type": "DT_FLOAT"}}}, {"name": "StatefulPartitionedCall/jax2tf_arg_12/ReadVariableOp", "op": "Const", "attr": {"value": {"tensor": {"dtype": "DT_FLOAT", "tensorShape": {"dim": [{"size": "16"}]}}}, "dtype": {"type": "DT_FLOAT"}}}, {"name": "StatefulPartitionedCall/jax2tf_apply_/ActorCriticTransformerFlats/ActorCriticTransformerFlats/pjit__mean_/pjit__where_/BroadcastTo/shape", "op": "Const", "attr": {"value": {"tensor": {"dtype": "DT_INT32", "tensorShape": {"dim": [{"size": "2"}]}}}, "dtype": {"type": "DT_INT32"}}}, {"name": "StatefulPartitionedCall/jax2tf_apply_/ActorCriticTransformerFlats/ActorCriticTransformerFlats/Transformer_0/clip_by_value_11", "op": "Const", "attr": {"value": {"tensor": {"dtype": "DT_INT32", "tensorShape": {"dim": [{"size": "2"}]}}}, "dtype": {"type": "DT_INT32"}}}, {"name": "StatefulPartitionedCall/jax2tf_apply_/ActorCriticTransformerFlats/ActorCriticTransformerFlats/Transformer_0/add_5", "op": "Const", "attr": {"value": {"tensor": {"dtype": "DT_INT32", "tensorShape": {"dim": [{"size": "2"}]}}}, "dtype": {"type": "DT_INT32"}}}, {"name": "StatefulPartitionedCall/jax2tf_apply_/ActorCriticTransformerFlats/ActorCriticTransformerFlats/Transformer_0/ones_like_5", "op": "Const", "attr": {"value": {"tensor": {"dtype": "DT_INT32", "tensorShape": {"dim": [{"size": "2"}]}}}, "dtype": {"type": "DT_INT32"}}}, {"name": "StatefulPartitionedCall/jax2tf_apply_/ActorCriticTransformerFlats/ActorCriticTransformerFlats/Transformer_0/Reshape_27/shape", "op": "Const", "attr": {"value": {"tensor": {"dtype": "DT_INT32", "tensorShape": {"dim": [{"size": "1"}]}}}, "dtype": {"type": "DT_INT32"}}}, {"name": "StatefulPartitionedCall/Const_38", "op": "Const", "attr": {"value": {"tensor": {"dtype": "DT_INT32", "tensorShape": {}}}, "dtype": {"type": "DT_INT32"}}}, {"name": "StatefulPartitionedCall/Const_39", "op": "Const", "attr": {"value": {"tensor": {"dtype": "DT_INT32", "tensorShape": {}}}, "dtype": {"type": "DT_INT32"}}}, {"name": "StatefulPartitionedCall/jax2tf_apply_/ActorCriticTransformerFlats/ActorCriticTransformerFlats/Transformer_0/clip_by_value_6", "op": "Const", "attr": {"value": {"tensor": {"dtype": "DT_INT32", "tensorShape": {"dim": [{"size": "2"}]}}}, "dtype": {"type": "DT_INT32"}}}, {"name": "StatefulPartitionedCall/jax2tf_apply_/ActorCriticTransformerFlats/ActorCriticTransformerFlats/Transformer_0/add_3", "op": "Const", "attr": {"value": {"tensor": {"dtype": "DT_INT32", "tensorShape": {"dim": [{"size": "2"}]}}}, "dtype": {"type": "DT_INT32"}}}, {"name": "StatefulPartitionedCall/jax2tf_apply_/ActorCriticTransformerFlats/ActorCriticTransformerFlats/Transformer_0/ones_like_3", "op": "Const", "attr": {"value": {"tensor": {"dtype": "DT_INT32", "tensorShape": {"dim": [{"size": "2"}]}}}, "dtype": {"type": "DT_INT32"}}}, {"name": "StatefulPartitionedCall/jax2tf_apply_/ActorCriticTransformerFlats/ActorCriticTransformerFlats/Transformer_0/Reshape_15/shape", "op": "Const", "attr": {"value": {"tensor": {"dtype": "DT_INT32", "tensorShape": {"dim": [{"size": "1"}]}}}, "dtype": {"type": "DT_INT32"}}}, {"name": "StatefulPartitionedCall/jax2tf_apply_/ActorCriticTransformerFlats/ActorCriticTransformerFlats/Transformer_0/Reshape_16/shape", "op": "Const", "attr": {"value": {"tensor": {"dtype": "DT_INT32", "tensorShape": {"dim": [{"size": "2"}]}}}, "dtype": {"type": "DT_INT32"}}}, {"name": "StatefulPartitionedCall/jax2tf_apply_/ActorCriticTransformerFlats/ActorCriticTransformerFlats/Transformer_0/Sub_7", "op": "Const", "attr": {"value": {"tensor": {"dtype": "DT_INT32", "tensorShape": {"dim": [{"size": "1"}]}}}, "dtype": {"type": "DT_INT32"}}}, {"name": "StatefulPartitionedCall/jax2tf_apply_/ActorCriticTransformerFlats/ActorCriticTransformerFlats/Transformer_0/clip_by_value_7/y", "op": "Const", "attr": {"value": {"tensor": {"dtype": "DT_INT32", "tensorShape": {}}}, "dtype": {"type": "DT_INT32"}}}, {"name": "StatefulPartitionedCall/jax2tf_apply_/ActorCriticTransformerFlats/ActorCriticTransformerFlats/Transformer_0/GatherV2_3/axis", "op": "Const", "attr": {"value": {"tensor": {"dtype": "DT_INT32", "tensorShape": {}}}, "dtype": {"type": "DT_INT32"}}}, {"name": "StatefulPartitionedCall/Const_41", "op": "Const", "attr": {"value": {"tensor": {"dtype": "DT_INT32", "tensorShape": {}}}, "dtype": {"type": "DT_INT32"}}}, {"name": "StatefulPartitionedCall/Const_42", "op": "Const", "attr": {"value": {"tensor": {"dtype": "DT_INT32", "tensorShape": {}}}, "dtype": {"type": "DT_INT32"}}}, {"name": "StatefulPartitionedCall/jax2tf_apply_/ActorCriticTransformerFlats/ActorCriticTransformerFlats/Transformer_0/clip_by_value_8", "op": "Const", "attr": {"value": {"tensor": {"dtype": "DT_INT32", "tensorShape": {"dim": [{"size": "2"}]}}}, "dtype": {"type": "DT_INT32"}}}, {"name": "StatefulPartitionedCall/jax2tf_apply_/ActorCriticTransformerFlats/ActorCriticTransformerFlats/Transformer_0/add_4", "op": "Const", "attr": {"value": {"tensor": {"dtype": "DT_INT32", "tensorShape": {"dim": [{"size": "2"}]}}}, "dtype": {"type": "DT_INT32"}}}, {"name": "StatefulPartitionedCall/jax2tf_apply_/ActorCriticTransformerFlats/ActorCriticTransformerFlats/Transformer_0/ones_like_4", "op": "Const", "attr": {"value": {"tensor": {"dtype": "DT_INT32", "tensorShape": {"dim": [{"size": "2"}]}}}, "dtype": {"type": "DT_INT32"}}}, {"name": "StatefulPartitionedCall/jax2tf_apply_/ActorCriticTransformerFlats/ActorCriticTransformerFlats/Transformer_0/Reshape_19/shape", "op": "Const", "attr": {"value": {"tensor": {"dtype": "DT_INT32", "tensorShape": {"dim": [{"size": "1"}]}}}, "dtype": {"type": "DT_INT32"}}}, {"name": "StatefulPartitionedCall/jax2tf_apply_/ActorCriticTransformerFlats/ActorCriticTransformerFlats/Transformer_0/Reshape_20/shape", "op": "Const", "attr": {"value": {"tensor": {"dtype": "DT_INT32", "tensorShape": {"dim": [{"size": "2"}]}}}, "dtype": {"type": "DT_INT32"}}}, {"name": "StatefulPartitionedCall/jax2tf_apply_/ActorCriticTransformerFlats/ActorCriticTransformerFlats/Transformer_0/Sub_9", "op": "Const", "attr": {"value": {"tensor": {"dtype": "DT_INT32", "tensorShape": {"dim": [{"size": "1"}]}}}, "dtype": {"type": "DT_INT32"}}}, {"name": "StatefulPartitionedCall/jax2tf_apply_/ActorCriticTransformerFlats/ActorCriticTransformerFlats/Transformer_0/clip_by_value_9/y", "op": "Const", "attr": {"value": {"tensor": {"dtype": "DT_INT32", "tensorShape": {}}}, "dtype": {"type": "DT_INT32"}}}, {"name": "StatefulPartitionedCall/jax2tf_apply_/ActorCriticTransformerFlats/ActorCriticTransformerFlats/Transformer_0/GatherV2_4/axis", "op": "Const", "attr": {"value": {"tensor": {"dtype": "DT_INT32", "tensorShape": {}}}, "dtype": {"type": "DT_INT32"}}}, {"name": "StatefulPartitionedCall/jax2tf_apply_/ActorCriticTransformerFlats/ActorCriticTransformerFlats/Transformer_0/Cast_2/x", "op": "Const", "attr": {"value": {"tensor": {"dtype": "DT_INT32", "tensorShape": {}}}, "dtype": {"type": "DT_INT32"}}}, {"name": "StatefulPartitionedCall/jax2tf_arg_35/ReadVariableOp", "op": "Const", "attr": {"value": {"tensor": {"dtype": "DT_FLOAT", "tensorShape": {"dim": [{"size": "384"}, {"size": "128"}]}}}, "dtype": {"type": "DT_FLOAT"}}}, {"name": "StatefulPartitionedCall/jax2tf_apply_/ActorCriticTransformerFlats/ActorCriticTransformerFlats/Transformer_0/joint_layers_1/Reshape", "op": "Const", "attr": {"value": {"tensor": {"dtype": "DT_FLOAT", "tensorShape": {"dim": [{"size": "1"}, {"size": "128"}]}}}, "dtype": {"type": "DT_FLOAT"}}}, {"name": "StatefulPartitionedCall/jax2tf_apply_/ActorCriticTransformerFlats/ActorCriticTransformerFlats/Transformer_0/Reshape_22/shape", "op": "Const", "attr": {"value": {"tensor": {"dtype": "DT_INT32", "tensorShape": {"dim": [{"size": "2"}]}}}, "dtype": {"type": "DT_INT32"}}}, {"name": "StatefulPartitionedCall/jax2tf_apply_/ActorCriticTransformerFlats/ActorCriticTransformerFlats/Transformer_0/Const_2", "op": "Const", "attr": {"value": {"tensor": {"dtype": "DT_INT32", "tensorShape": {}}}, "dtype": {"type": "DT_INT32"}}}, {"name": "StatefulPartitionedCall/jax2tf_apply_/ActorCriticTransformerFlats/ActorCriticTransformerFlats/Transformer_0/scan/while_2/loop_counter", "op": "Const", "attr": {"value": {"tensor": {"dtype": "DT_INT32", "tensorShape": {}}}, "dtype": {"type": "DT_INT32"}}}, {"name": "StatefulPartitionedCall/jax2tf_apply_/ActorCriticTransformerFlats/ActorCriticTransformerFlats/Transformer_0/tf_layers_1/gate2/pjit__lambda__/Cast", "op": "Const", "attr": {"value": {"tensor": {"dtype": "DT_FLOAT", "tensorShape": {}}}, "dtype": {"type": "DT_FLOAT"}}}, {"name": "StatefulPartitionedCall/jax2tf_apply_/ActorCriticTransformerFlats/ActorCriticTransformerFlats/Transformer_0/tf_layers_1/gate2/pjit_sigmoid_/Const_2", "op": "Const", "attr": {"value": {"tensor": {"dtype": "DT_FLOAT", "tensorShape": {}}}, "dtype": {"type": "DT_FLOAT"}}}, {"name": "StatefulPartitionedCall/jax2tf_arg_83/ReadVariableOp", "op": "Const", "attr": {"value": {"tensor": {"dtype": "DT_FLOAT", "tensorShape": {"dim": [{"size": "128"}, {"size": "128"}]}}}, "dtype": {"type": "DT_FLOAT"}}}, {"name": "StatefulPartitionedCall/jax2tf_arg_84/ReadVariableOp", "op": "Const", "attr": {"value": {"tensor": {"dtype": "DT_FLOAT", "tensorShape": {"dim": [{"size": "128"}, {"size": "128"}]}}}, "dtype": {"type": "DT_FLOAT"}}}, {"name": "StatefulPartitionedCall/jax2tf_apply_/ActorCriticTransformerFlats/ActorCriticTransformerFlats/Transformer_0/tf_layers_1/gate2/pjit__lambda__/BroadcastTo", "op": "Const", "attr": {"value": {"tensor": {"dtype": "DT_FLOAT", "tensorShape": {"dim": [{"size": "1"}, {"size": "128"}]}}}, "dtype": {"type": "DT_FLOAT"}}}, {"name": "StatefulPartitionedCall/jax2tf_arg_85/ReadVariableOp", "op": "Const", "attr": {"value": {"tensor": {"dtype": "DT_FLOAT", "tensorShape": {"dim": [{"size": "128"}, {"size": "128"}]}}}, "dtype": {"type": "DT_FLOAT"}}}, {"name": "StatefulPartitionedCall/jax2tf_apply_/ActorCriticTransformerFlats/ActorCriticTransformerFlats/Transformer_0/tf_layers_1/gate2/pjit_sigmoid_/Const", "op": "Const", "attr": {"value": {"tensor": {"dtype": "DT_FLOAT", "tensorShape": {}}}, "dtype": {"type": "DT_FLOAT"}}}, {"name": "StatefulPartitionedCall/Const_34", "op": "Const", "attr": {"value": {"tensor": {"dtype": "DT_FLOAT", "tensorShape": {}}}, "dtype": {"type": "DT_FLOAT"}}}, {"name": "StatefulPartitionedCall/jax2tf_apply_/ActorCriticTransformerFlats/ActorCriticTransformerFlats/Transformer_0/tf_layers_1/ln2/pjit__mean_/Sum_1/reduction_indices", "op": "Const", "attr": {"value": {"tensor": {"dtype": "DT_INT32", "tensorShape": {"dim": [{"size": "1"}]}}}, "dtype": {"type": "DT_INT32"}}}, {"name": "ConstantFolding/StatefulPartitionedCall/jax2tf_apply_/ActorCriticTransformerFlats/ActorCriticTransformerFlats/Transformer_0/tf_layers_1/ln2/pjit__mean_/truediv_1_recip", "op": "Const", "attr": {"value": {"tensor": {"dtype": "DT_FLOAT", "tensorShape": {}}}, "dtype": {"type": "DT_FLOAT"}}}, {"name": "StatefulPartitionedCall/jax2tf_apply_/ActorCriticTransformerFlats/ActorCriticTransformerFlats/Transformer_0/tf_layers_1/ln2/Reshape_1/shape", "op": "Const", "attr": {"value": {"tensor": {"dtype": "DT_INT32", "tensorShape": {"dim": [{"size": "2"}]}}}, "dtype": {"type": "DT_INT32"}}}, {"name": "StatefulPartitionedCall/Const_35", "op": "Const", "attr": {"value": {"tensor": {"dtype": "DT_FLOAT", "tensorShape": {}}}, "dtype": {"type": "DT_FLOAT"}}}, {"name": "StatefulPartitionedCall/jax2tf_apply_/ActorCriticTransformerFlats/ActorCriticTransformerFlats/Transformer_0/tf_layers_1/ln2/Reshape_2", "op": "Const", "attr": {"value": {"tensor": {"dtype": "DT_FLOAT", "tensorShape": {"dim": [{"size": "1"}, {"size": "128"}]}}}, "dtype": {"type": "DT_FLOAT"}}}, {"name": "StatefulPartitionedCall/jax2tf_apply_/ActorCriticTransformerFlats/ActorCriticTransformerFlats/Transformer_0/tf_layers_1/ln2/pjit__mean_/Sum/reduction_indices", "op": "Const", "attr": {"value": {"tensor": {"dtype": "DT_INT32", "tensorShape": {"dim": [{"size": "1"}]}}}, "dtype": {"type": "DT_INT32"}}}, {"name": "ConstantFolding/StatefulPartitionedCall/jax2tf_apply_/ActorCriticTransformerFlats/ActorCriticTransformerFlats/Transformer_0/tf_layers_1/ln2/pjit__mean_/truediv_recip", "op": "Const", "attr": {"value": {"tensor": {"dtype": "DT_FLOAT", "tensorShape": {}}}, "dtype": {"type": "DT_FLOAT"}}}, {"name": "StatefulPartitionedCall/jax2tf_apply_/ActorCriticTransformerFlats/ActorCriticTransformerFlats/Transformer_0/tf_layers_1/ln2/Reshape/shape", "op": "Const", "attr": {"value": {"tensor": {"dtype": "DT_INT32", "tensorShape": {"dim": [{"size": "2"}]}}}, "dtype": {"type": "DT_INT32"}}}, {"name": "StatefulPartitionedCall/jax2tf_apply_/ActorCriticTransformerFlats/ActorCriticTransformerFlats/Transformer_0/tf_layers_1/ln2/Reshape_3", "op": "Const", "attr": {"value": {"tensor": {"dtype": "DT_FLOAT", "tensorShape": {"dim": [{"size": "1"}, {"size": "128"}]}}}, "dtype": {"type": "DT_FLOAT"}}}, {"name": "StatefulPartitionedCall/jax2tf_arg_73/ReadVariableOp", "op": "Const", "attr": {"value": {"tensor": {"dtype": "DT_FLOAT", "tensorShape": {"dim": [{"size": "128"}, {"size": "128"}]}}}, "dtype": {"type": "DT_FLOAT"}}}, {"name": "StatefulPartitionedCall/jax2tf_apply_/ActorCriticTransformerFlats/ActorCriticTransformerFlats/Transformer_0/tf_layers_1/dense1/Reshape", "op": "Const", "attr": {"value": {"tensor": {"dtype": "DT_FLOAT", "tensorShape": {"dim": [{"size": "1"}, {"size": "128"}]}}}, "dtype": {"type": "DT_FLOAT"}}}, {"name": "StatefulPartitionedCall/jax2tf_apply_/ActorCriticTransformerFlats/ActorCriticTransformerFlats/Transformer_0/tf_layers_1/Const_1", "op": "Const", "attr": {"value": {"tensor": {"dtype": "DT_FLOAT", "tensorShape": {}}}, "dtype": {"type": "DT_FLOAT"}}}, {"name": "StatefulPartitionedCall/jax2tf_arg_81/ReadVariableOp", "op": "Const", "attr": {"value": {"tensor": {"dtype": "DT_FLOAT", "tensorShape": {"dim": [{"size": "128"}, {"size": "128"}]}}}, "dtype": {"type": "DT_FLOAT"}}}, {"name": "StatefulPartitionedCall/jax2tf_arg_82/ReadVariableOp", "op": "Const", "attr": {"value": {"tensor": {"dtype": "DT_FLOAT", "tensorShape": {"dim": [{"size": "128"}, {"size": "128"}]}}}, "dtype": {"type": "DT_FLOAT"}}}, {"name": "StatefulPartitionedCall/jax2tf_apply_/ActorCriticTransformerFlats/ActorCriticTransformerFlats/Transformer_0/tf_layers_1/gate1/pjit__lambda__/Cast", "op": "Const", "attr": {"value": {"tensor": {"dtype": "DT_FLOAT", "tensorShape": {}}}, "dtype": {"type": "DT_FLOAT"}}}, {"name": "StatefulPartitionedCall/jax2tf_apply_/ActorCriticTransformerFlats/ActorCriticTransformerFlats/Transformer_0/tf_layers_1/gate1/pjit_sigmoid_/Const_2", "op": "Const", "attr": {"value": {"tensor": {"dtype": "DT_FLOAT", "tensorShape": {}}}, "dtype": {"type": "DT_FLOAT"}}}, {"name": "StatefulPartitionedCall/jax2tf_arg_76/ReadVariableOp", "op": "Const", "attr": {"value": {"tensor": {"dtype": "DT_FLOAT", "tensorShape": {"dim": [{"size": "128"}, {"size": "128"}]}}}, "dtype": {"type": "DT_FLOAT"}}}, {"name": "StatefulPartitionedCall/jax2tf_arg_77/ReadVariableOp", "op": "Const", "attr": {"value": {"tensor": {"dtype": "DT_FLOAT", "tensorShape": {"dim": [{"size": "128"}, {"size": "128"}]}}}, "dtype": {"type": "DT_FLOAT"}}}, {"name": "StatefulPartitionedCall/jax2tf_apply_/ActorCriticTransformerFlats/ActorCriticTransformerFlats/Transformer_0/tf_layers_1/gate1/pjit__lambda__/BroadcastTo", "op": "Const", "attr": {"value": {"tensor": {"dtype": "DT_FLOAT", "tensorShape": {"dim": [{"size": "1"}, {"size": "128"}]}}}, "dtype": {"type": "DT_FLOAT"}}}, {"name": "StatefulPartitionedCall/jax2tf_arg_78/ReadVariableOp", "op": "Const", "attr": {"value": {"tensor": {"dtype": "DT_FLOAT", "tensorShape": {"dim": [{"size": "128"}, {"size": "128"}]}}}, "dtype": {"type": "DT_FLOAT"}}}, {"name": "StatefulPartitionedCall/jax2tf_apply_/ActorCriticTransformerFlats/ActorCriticTransformerFlats/Transformer_0/tf_layers_1/gate1/pjit_sigmoid_/Const", "op": "Const", "attr": {"value": {"tensor": {"dtype": "DT_FLOAT", "tensorShape": {}}}, "dtype": {"type": "DT_FLOAT"}}}, {"name": "StatefulPartitionedCall/jax2tf_arg_71/ReadVariableOp", "op": "Const", "attr": {"value": {"tensor": {"dtype": "DT_FLOAT", "tensorShape": {"dim": [{"size": "128"}, {"size": "8"}, {"size": "2"}]}}}, "dtype": {"type": "DT_FLOAT"}}}, {"name": "StatefulPartitionedCall/jax2tf_apply_/ActorCriticTransformerFlats/ActorCriticTransformerFlats/Transformer_0/tf_layers_1/attention1/value/Reshape", "op": "Const", "attr": {"value": {"tensor": {"dtype": "DT_FLOAT", "tensorShape": {"dim": [{"size": "1"}, {"size": "8"}, {"size": "2"}]}}}, "dtype": {"type": "DT_FLOAT"}}}, {"name": "StatefulPartitionedCall/jax2tf_arg_69/ReadVariableOp", "op": "Const", "attr": {"value": {"tensor": {"dtype": "DT_FLOAT", "tensorShape": {"dim": [{"size": "128"}, {"size": "8"}, {"size": "2"}]}}}, "dtype": {"type": "DT_FLOAT"}}}, {"name": "StatefulPartitionedCall/jax2tf_apply_/ActorCriticTransformerFlats/ActorCriticTransformerFlats/Transformer_0/tf_layers_1/attention1/query/Reshape", "op": "Const", "attr": {"value": {"tensor": {"dtype": "DT_FLOAT", "tensorShape": {"dim": [{"size": "1"}, {"size": "8"}, {"size": "2"}]}}}, "dtype": {"type": "DT_FLOAT"}}}, {"name": "ConstantFolding/StatefulPartitionedCall/jax2tf_apply_/ActorCriticTransformerFlats/ActorCriticTransformerFlats/Transformer_0/tf_layers_1/attention1/pjit_true_divide_/truediv_recip", "op": "Const", "attr": {"value": {"tensor": {"dtype": "DT_FLOAT", "tensorShape": {}}}, "dtype": {"type": "DT_FLOAT"}}}, {"name": "StatefulPartitionedCall/Const_29", "op": "Const", "attr": {"value": {"tensor": {"dtype": "DT_FLOAT", "tensorShape": {}}}, "dtype": {"type": "DT_FLOAT"}}}, {"name": "StatefulPartitionedCall/jax2tf_apply_/ActorCriticTransformerFlats/ActorCriticTransformerFlats/Transformer_0/tf_layers_1/ln1/pjit__mean_/Sum_1/reduction_indices", "op": "Const", "attr": {"value": {"tensor": {"dtype": "DT_INT32", "tensorShape": {"dim": [{"size": "1"}]}}}, "dtype": {"type": "DT_INT32"}}}, {"name": "ConstantFolding/StatefulPartitionedCall/jax2tf_apply_/ActorCriticTransformerFlats/ActorCriticTransformerFlats/Transformer_0/tf_layers_1/ln1/pjit__mean_/truediv_1_recip", "op": "Const", "attr": {"value": {"tensor": {"dtype": "DT_FLOAT", "tensorShape": {}}}, "dtype": {"type": "DT_FLOAT"}}}, {"name": "StatefulPartitionedCall/jax2tf_apply_/ActorCriticTransformerFlats/ActorCriticTransformerFlats/Transformer_0/tf_layers_1/ln1/Reshape_1/shape", "op": "Const", "attr": {"value": {"tensor": {"dtype": "DT_INT32", "tensorShape": {"dim": [{"size": "2"}]}}}, "dtype": {"type": "DT_INT32"}}}, {"name": "StatefulPartitionedCall/Const_30", "op": "Const", "attr": {"value": {"tensor": {"dtype": "DT_FLOAT", "tensorShape": {}}}, "dtype": {"type": "DT_FLOAT"}}}, {"name": "StatefulPartitionedCall/jax2tf_apply_/ActorCriticTransformerFlats/ActorCriticTransformerFlats/Transformer_0/tf_layers_1/ln1/Reshape_2", "op": "Const", "attr": {"value": {"tensor": {"dtype": "DT_FLOAT", "tensorShape": {"dim": [{"size": "1"}, {"size": "128"}]}}}, "dtype": {"type": "DT_FLOAT"}}}, {"name": "StatefulPartitionedCall/jax2tf_apply_/ActorCriticTransformerFlats/ActorCriticTransformerFlats/Transformer_0/tf_layers_1/ln1/pjit__mean_/Sum/reduction_indices", "op": "Const", "attr": {"value": {"tensor": {"dtype": "DT_INT32", "tensorShape": {"dim": [{"size": "1"}]}}}, "dtype": {"type": "DT_INT32"}}}, {"name": "ConstantFolding/StatefulPartitionedCall/jax2tf_apply_/ActorCriticTransformerFlats/ActorCriticTransformerFlats/Transformer_0/tf_layers_1/ln1/pjit__mean_/truediv_recip", "op": "Const", "attr": {"value": {"tensor": {"dtype": "DT_FLOAT", "tensorShape": {}}}, "dtype": {"type": "DT_FLOAT"}}}, {"name": "StatefulPartitionedCall/jax2tf_apply_/ActorCriticTransformerFlats/ActorCriticTransformerFlats/Transformer_0/tf_layers_1/ln1/Reshape/shape", "op": "Const", "attr": {"value": {"tensor": {"dtype": "DT_INT32", "tensorShape": {"dim": [{"size": "2"}]}}}, "dtype": {"type": "DT_INT32"}}}, {"name": "StatefulPartitionedCall/jax2tf_apply_/ActorCriticTransformerFlats/ActorCriticTransformerFlats/Transformer_0/tf_layers_1/ln1/Reshape_3", "op": "Const", "attr": {"value": {"tensor": {"dtype": "DT_FLOAT", "tensorShape": {"dim": [{"size": "1"}, {"size": "128"}]}}}, "dtype": {"type": "DT_FLOAT"}}}, {"name": "StatefulPartitionedCall/jax2tf_arg_65/ReadVariableOp", "op": "Const", "attr": {"value": {"tensor": {"dtype": "DT_FLOAT", "tensorShape": {"dim": [{"size": "128"}, {"size": "8"}, {"size": "2"}]}}}, "dtype": {"type": "DT_FLOAT"}}}, {"name": "StatefulPartitionedCall/jax2tf_apply_/ActorCriticTransformerFlats/ActorCriticTransformerFlats/Transformer_0/tf_layers_1/attention1/key/Reshape", "op": "Const", "attr": {"value": {"tensor": {"dtype": "DT_FLOAT", "tensorShape": {"dim": [{"size": "1"}, {"size": "8"}, {"size": "2"}]}}}, "dtype": {"type": "DT_FLOAT"}}}, {"name": "StatefulPartitionedCall/jax2tf_apply_/ActorCriticTransformerFlats/ActorCriticTransformerFlats/Transformer_0/tf_layers_1/attention1/pjit__where_/BroadcastTo", "op": "Const", "attr": {"value": {"tensor": {"dtype": "DT_FLOAT", "tensorShape": {"dim": [{"size": "8"}, {"size": "17"}, {"size": "17"}]}}}, "dtype": {"type": "DT_FLOAT"}}}, {"name": "StatefulPartitionedCall/jax2tf_apply_/ActorCriticTransformerFlats/ActorCriticTransformerFlats/Transformer_0/tf_layers_1/attention1/pjit__reduce_max_/Max/reduction_indices", "op": "Const", "attr": {"value": {"tensor": {"dtype": "DT_INT32", "tensorShape": {"dim": [{"size": "1"}]}}}, "dtype": {"type": "DT_INT32"}}}, {"name": "StatefulPartitionedCall/jax2tf_apply_/ActorCriticTransformerFlats/ActorCriticTransformerFlats/Transformer_0/tf_layers_1/attention1/pjit__reduce_max_/Reshape/shape", "op": "Const", "attr": {"value": {"tensor": {"dtype": "DT_INT32", "tensorShape": {"dim": [{"size": "3"}]}}}, "dtype": {"type": "DT_INT32"}}}, {"name": "StatefulPartitionedCall/jax2tf_apply_/ActorCriticTransformerFlats/ActorCriticTransformerFlats/Transformer_0/tf_layers_1/attention1/pjit__reduce_sum_/Sum/reduction_indices", "op": "Const", "attr": {"value": {"tensor": {"dtype": "DT_INT32", "tensorShape": {"dim": [{"size": "1"}]}}}, "dtype": {"type": "DT_INT32"}}}, {"name": "StatefulPartitionedCall/jax2tf_apply_/ActorCriticTransformerFlats/ActorCriticTransformerFlats/Transformer_0/tf_layers_1/attention1/pjit__reduce_sum_/Reshape/shape", "op": "Const", "attr": {"value": {"tensor": {"dtype": "DT_INT32", "tensorShape": {"dim": [{"size": "3"}]}}}, "dtype": {"type": "DT_INT32"}}}, {"name": "StatefulPartitionedCall/jax2tf_apply_/ActorCriticTransformerFlats/ActorCriticTransformerFlats/Transformer_0/tf_layers_1/attention1/...hqk_...khd-_...qhd/pjit__einsum_/transpose/perm", "op": "Const", "attr": {"value": {"tensor": {"dtype": "DT_INT32", "tensorShape": {"dim": [{"size": "3"}]}}}, "dtype": {"type": "DT_INT32"}}}, {"name": "StatefulPartitionedCall/jax2tf_arg_67/ReadVariableOp", "op": "Const", "attr": {"value": {"tensor": {"dtype": "DT_FLOAT", "tensorShape": {"dim": [{"size": "8"}, {"size": "2"}, {"size": "128"}]}}}, "dtype": {"type": "DT_FLOAT"}}}, {"name": "StatefulPartitionedCall/jax2tf_apply_/ActorCriticTransformerFlats/ActorCriticTransformerFlats/Transformer_0/tf_layers_1/attention1/out/Reshape", "op": "Const", "attr": {"value": {"tensor": {"dtype": "DT_FLOAT", "tensorShape": {"dim": [{"size": "1"}, {"size": "128"}]}}}, "dtype": {"type": "DT_FLOAT"}}}, {"name": "StatefulPartitionedCall/jax2tf_apply_/ActorCriticTransformerFlats/ActorCriticTransformerFlats/Transformer_0/tf_layers_1/Const", "op": "Const", "attr": {"value": {"tensor": {"dtype": "DT_FLOAT", "tensorShape": {}}}, "dtype": {"type": "DT_FLOAT"}}}, {"name": "StatefulPartitionedCall/jax2tf_arg_74/ReadVariableOp", "op": "Const", "attr": {"value": {"tensor": {"dtype": "DT_FLOAT", "tensorShape": {"dim": [{"size": "128"}, {"size": "128"}]}}}, "dtype": {"type": "DT_FLOAT"}}}, {"name": "StatefulPartitionedCall/jax2tf_arg_75/ReadVariableOp", "op": "Const", "attr": {"value": {"tensor": {"dtype": "DT_FLOAT", "tensorShape": {"dim": [{"size": "128"}, {"size": "128"}]}}}, "dtype": {"type": "DT_FLOAT"}}}, {"name": "StatefulPartitionedCall/jax2tf_apply_/ActorCriticTransformerFlats/ActorCriticTransformerFlats/Transformer_0/clip_by_value_5", "op": "Const", "attr": {"value": {"tensor": {"dtype": "DT_INT32", "tensorShape": {"dim": [{"size": "2"}]}}}, "dtype": {"type": "DT_INT32"}}}, {"name": "StatefulPartitionedCall/jax2tf_apply_/ActorCriticTransformerFlats/ActorCriticTransformerFlats/Transformer_0/add_2", "op": "Const", "attr": {"value": {"tensor": {"dtype": "DT_INT32", "tensorShape": {"dim": [{"size": "2"}]}}}, "dtype": {"type": "DT_INT32"}}}, {"name": "StatefulPartitionedCall/jax2tf_apply_/ActorCriticTransformerFlats/ActorCriticTransformerFlats/Transformer_0/ones_like_2", "op": "Const", "attr": {"value": {"tensor": {"dtype": "DT_INT32", "tensorShape": {"dim": [{"size": "2"}]}}}, "dtype": {"type": "DT_INT32"}}}, {"name": "StatefulPartitionedCall/jax2tf_apply_/ActorCriticTransformerFlats/ActorCriticTransformerFlats/Transformer_0/Reshape_13/shape", "op": "Const", "attr": {"value": {"tensor": {"dtype": "DT_INT32", "tensorShape": {"dim": [{"size": "1"}]}}}, "dtype": {"type": "DT_INT32"}}}, {"name": "StatefulPartitionedCall/Const_21", "op": "Const", "attr": {"value": {"tensor": {"dtype": "DT_INT32", "tensorShape": {}}}, "dtype": {"type": "DT_INT32"}}}, {"name": "StatefulPartitionedCall/Const_22", "op": "Const", "attr": {"value": {"tensor": {"dtype": "DT_INT32", "tensorShape": {}}}, "dtype": {"type": "DT_INT32"}}}, {"name": "StatefulPartitionedCall/jax2tf_apply_/ActorCriticTransformerFlats/ActorCriticTransformerFlats/Transformer_0/clip_by_value", "op": "Const", "attr": {"value": {"tensor": {"dtype": "DT_INT32", "tensorShape": {"dim": [{"size": "2"}]}}}, "dtype": {"type": "DT_INT32"}}}, {"name": "StatefulPartitionedCall/jax2tf_apply_/ActorCriticTransformerFlats/ActorCriticTransformerFlats/Transformer_0/add", "op": "Const", "attr": {"value": {"tensor": {"dtype": "DT_INT32", "tensorShape": {"dim": [{"size": "2"}]}}}, "dtype": {"type": "DT_INT32"}}}, {"name": "StatefulPartitionedCall/jax2tf_apply_/ActorCriticTransformerFlats/ActorCriticTransformerFlats/Transformer_0/ones_like", "op": "Const", "attr": {"value": {"tensor": {"dtype": "DT_INT32", "tensorShape": {"dim": [{"size": "2"}]}}}, "dtype": {"type": "DT_INT32"}}}, {"name": "StatefulPartitionedCall/jax2tf_apply_/ActorCriticTransformerFlats/ActorCriticTransformerFlats/Transformer_0/Reshape_1/shape", "op": "Const", "attr": {"value": {"tensor": {"dtype": "DT_INT32", "tensorShape": {"dim": [{"size": "1"}]}}}, "dtype": {"type": "DT_INT32"}}}, {"name": "StatefulPartitionedCall/jax2tf_apply_/ActorCriticTransformerFlats/ActorCriticTransformerFlats/Transformer_0/Reshape_2/shape", "op": "Const", "attr": {"value": {"tensor": {"dtype": "DT_INT32", "tensorShape": {"dim": [{"size": "2"}]}}}, "dtype": {"type": "DT_INT32"}}}, {"name": "StatefulPartitionedCall/jax2tf_apply_/ActorCriticTransformerFlats/ActorCriticTransformerFlats/Transformer_0/Sub_1", "op": "Const", "attr": {"value": {"tensor": {"dtype": "DT_INT32", "tensorShape": {"dim": [{"size": "1"}]}}}, "dtype": {"type": "DT_INT32"}}}, {"name": "StatefulPartitionedCall/jax2tf_apply_/ActorCriticTransformerFlats/ActorCriticTransformerFlats/Transformer_0/clip_by_value_1/y", "op": "Const", "attr": {"value": {"tensor": {"dtype": "DT_INT32", "tensorShape": {}}}, "dtype": {"type": "DT_INT32"}}}, {"name": "StatefulPartitionedCall/jax2tf_apply_/ActorCriticTransformerFlats/ActorCriticTransformerFlats/Transformer_0/GatherV2/axis", "op": "Const", "attr": {"value": {"tensor": {"dtype": "DT_INT32", "tensorShape": {}}}, "dtype": {"type": "DT_INT32"}}}, {"name": "StatefulPartitionedCall/Const_24", "op": "Const", "attr": {"value": {"tensor": {"dtype": "DT_INT32", "tensorShape": {}}}, "dtype": {"type": "DT_INT32"}}}, {"name": "StatefulPartitionedCall/Const_25", "op": "Const", "attr": {"value": {"tensor": {"dtype": "DT_INT32", "tensorShape": {}}}, "dtype": {"type": "DT_INT32"}}}, {"name": "StatefulPartitionedCall/Const_10", "op": "Const", "attr": {"value": {"tensor": {"dtype": "DT_INT32", "tensorShape": {}}}, "dtype": {"type": "DT_INT32"}}}, {"name": "StatefulPartitionedCall/jax2tf_apply_/ActorCriticTransformerFlats/ActorCriticTransformerFlats/Transformer_0/clip_by_value_2", "op": "Const", "attr": {"value": {"tensor": {"dtype": "DT_INT32", "tensorShape": {"dim": [{"size": "2"}]}}}, "dtype": {"type": "DT_INT32"}}}, {"name": "StatefulPartitionedCall/jax2tf_apply_/ActorCriticTransformerFlats/ActorCriticTransformerFlats/Transformer_0/add_1", "op": "Const", "attr": {"value": {"tensor": {"dtype": "DT_INT32", "tensorShape": {"dim": [{"size": "2"}]}}}, "dtype": {"type": "DT_INT32"}}}, {"name": "StatefulPartitionedCall/jax2tf_apply_/ActorCriticTransformerFlats/ActorCriticTransformerFlats/Transformer_0/ones_like_1", "op": "Const", "attr": {"value": {"tensor": {"dtype": "DT_INT32", "tensorShape": {"dim": [{"size": "2"}]}}}, "dtype": {"type": "DT_INT32"}}}, {"name": "StatefulPartitionedCall/jax2tf_apply_/ActorCriticTransformerFlats/ActorCriticTransformerFlats/Transformer_0/Reshape_5/shape", "op": "Const", "attr": {"value": {"tensor": {"dtype": "DT_INT32", "tensorShape": {"dim": [{"size": "1"}]}}}, "dtype": {"type": "DT_INT32"}}}, {"name": "StatefulPartitionedCall/jax2tf_apply_/ActorCriticTransformerFlats/ActorCriticTransformerFlats/Transformer_0/Reshape_6/shape", "op": "Const", "attr": {"value": {"tensor": {"dtype": "DT_INT32", "tensorShape": {"dim": [{"size": "2"}]}}}, "dtype": {"type": "DT_INT32"}}}, {"name": "StatefulPartitionedCall/jax2tf_apply_/ActorCriticTransformerFlats/ActorCriticTransformerFlats/Transformer_0/Sub_3", "op": "Const", "attr": {"value": {"tensor": {"dtype": "DT_INT32", "tensorShape": {"dim": [{"size": "1"}]}}}, "dtype": {"type": "DT_INT32"}}}, {"name": "StatefulPartitionedCall/jax2tf_apply_/ActorCriticTransformerFlats/ActorCriticTransformerFlats/Transformer_0/clip_by_value_3/y", "op": "Const", "attr": {"value": {"tensor": {"dtype": "DT_INT32", "tensorShape": {}}}, "dtype": {"type": "DT_INT32"}}}, {"name": "StatefulPartitionedCall/jax2tf_apply_/ActorCriticTransformerFlats/ActorCriticTransformerFlats/Transformer_0/GatherV2_1/axis", "op": "Const", "attr": {"value": {"tensor": {"dtype": "DT_INT32", "tensorShape": {}}}, "dtype": {"type": "DT_INT32"}}}, {"name": "StatefulPartitionedCall/jax2tf_arg_5/ReadVariableOp", "op": "Const", "attr": {"value": {"tensor": {"dtype": "DT_FLOAT", "tensorShape": {"dim": [{"size": "22"}, {"size": "128"}]}}}, "dtype": {"type": "DT_FLOAT"}}}, {"name": "StatefulPartitionedCall/jax2tf_apply_/ActorCriticTransformerFlats/ActorCriticTransformerFlats/Dense_2/Reshape", "op": "Const", "attr": {"value": {"tensor": {"dtype": "DT_FLOAT", "tensorShape": {"dim": [{"size": "1"}, {"size": "128"}]}}}, "dtype": {"type": "DT_FLOAT"}}}, {"name": "StatefulPartitionedCall/jax2tf_apply_/ActorCriticTransformerFlats/ActorCriticTransformerFlats/Transformer_0/Cast/x", "op": "Const", "attr": {"value": {"tensor": {"dtype": "DT_INT32", "tensorShape": {}}}, "dtype": {"type": "DT_INT32"}}}, {"name": "StatefulPartitionedCall/jax2tf_arg_33/ReadVariableOp", "op": "Const", "attr": {"value": {"tensor": {"dtype": "DT_FLOAT", "tensorShape": {"dim": [{"size": "384"}, {"size": "128"}]}}}, "dtype": {"type": "DT_FLOAT"}}}, {"name": "StatefulPartitionedCall/jax2tf_apply_/ActorCriticTransformerFlats/ActorCriticTransformerFlats/Transformer_0/joint_layers_0/Reshape", "op": "Const", "attr": {"value": {"tensor": {"dtype": "DT_FLOAT", "tensorShape": {"dim": [{"size": "1"}, {"size": "128"}]}}}, "dtype": {"type": "DT_FLOAT"}}}, {"name": "StatefulPartitionedCall/jax2tf_apply_/ActorCriticTransformerFlats/ActorCriticTransformerFlats/Transformer_0/Reshape_8/shape", "op": "Const", "attr": {"value": {"tensor": {"dtype": "DT_INT32", "tensorShape": {"dim": [{"size": "2"}]}}}, "dtype": {"type": "DT_INT32"}}}, {"name": "StatefulPartitionedCall/jax2tf_apply_/ActorCriticTransformerFlats/ActorCriticTransformerFlats/Transformer_0/Const", "op": "Const", "attr": {"value": {"tensor": {"dtype": "DT_INT32", "tensorShape": {}}}, "dtype": {"type": "DT_INT32"}}}, {"name": "StatefulPartitionedCall/jax2tf_apply_/ActorCriticTransformerFlats/ActorCriticTransformerFlats/Transformer_0/scan/while/loop_counter", "op": "Const", "attr": {"value": {"tensor": {"dtype": "DT_INT32", "tensorShape": {}}}, "dtype": {"type": "DT_INT32"}}}, {"name": "StatefulPartitionedCall/jax2tf_apply_/ActorCriticTransformerFlats/ActorCriticTransformerFlats/Transformer_0/tf_layers_0/gate2/pjit__lambda__/Cast", "op": "Const", "attr": {"value": {"tensor": {"dtype": "DT_FLOAT", "tensorShape": {}}}, "dtype": {"type": "DT_FLOAT"}}}, {"name": "StatefulPartitionedCall/jax2tf_apply_/ActorCriticTransformerFlats/ActorCriticTransformerFlats/Transformer_0/tf_layers_0/gate2/pjit_sigmoid_/Const_2", "op": "Const", "attr": {"value": {"tensor": {"dtype": "DT_FLOAT", "tensorShape": {}}}, "dtype": {"type": "DT_FLOAT"}}}, {"name": "StatefulPartitionedCall/jax2tf_arg_55/ReadVariableOp", "op": "Const", "attr": {"value": {"tensor": {"dtype": "DT_FLOAT", "tensorShape": {"dim": [{"size": "128"}, {"size": "128"}]}}}, "dtype": {"type": "DT_FLOAT"}}}, {"name": "StatefulPartitionedCall/jax2tf_arg_56/ReadVariableOp", "op": "Const", "attr": {"value": {"tensor": {"dtype": "DT_FLOAT", "tensorShape": {"dim": [{"size": "128"}, {"size": "128"}]}}}, "dtype": {"type": "DT_FLOAT"}}}, {"name": "StatefulPartitionedCall/jax2tf_apply_/ActorCriticTransformerFlats/ActorCriticTransformerFlats/Transformer_0/tf_layers_0/gate2/pjit__lambda__/BroadcastTo", "op": "Const", "attr": {"value": {"tensor": {"dtype": "DT_FLOAT", "tensorShape": {"dim": [{"size": "1"}, {"size": "128"}]}}}, "dtype": {"type": "DT_FLOAT"}}}, {"name": "StatefulPartitionedCall/jax2tf_arg_57/ReadVariableOp", "op": "Const", "attr": {"value": {"tensor": {"dtype": "DT_FLOAT", "tensorShape": {"dim": [{"size": "128"}, {"size": "128"}]}}}, "dtype": {"type": "DT_FLOAT"}}}, {"name": "StatefulPartitionedCall/jax2tf_apply_/ActorCriticTransformerFlats/ActorCriticTransformerFlats/Transformer_0/tf_layers_0/gate2/pjit_sigmoid_/Const", "op": "Const", "attr": {"value": {"tensor": {"dtype": "DT_FLOAT", "tensorShape": {}}}, "dtype": {"type": "DT_FLOAT"}}}, {"name": "StatefulPartitionedCall/Const_17", "op": "Const", "attr": {"value": {"tensor": {"dtype": "DT_FLOAT", "tensorShape": {}}}, "dtype": {"type": "DT_FLOAT"}}}, {"name": "StatefulPartitionedCall/jax2tf_apply_/ActorCriticTransformerFlats/ActorCriticTransformerFlats/Transformer_0/tf_layers_0/ln2/pjit__mean_/Sum_1/reduction_indices", "op": "Const", "attr": {"value": {"tensor": {"dtype": "DT_INT32", "tensorShape": {"dim": [{"size": "1"}]}}}, "dtype": {"type": "DT_INT32"}}}, {"name": "ConstantFolding/StatefulPartitionedCall/jax2tf_apply_/ActorCriticTransformerFlats/ActorCriticTransformerFlats/Transformer_0/tf_layers_0/ln2/pjit__mean_/truediv_1_recip", "op": "Const", "attr": {"value": {"tensor": {"dtype": "DT_FLOAT", "tensorShape": {}}}, "dtype": {"type": "DT_FLOAT"}}}, {"name": "StatefulPartitionedCall/jax2tf_apply_/ActorCriticTransformerFlats/ActorCriticTransformerFlats/Transformer_0/tf_layers_0/ln2/Reshape_1/shape", "op": "Const", "attr": {"value": {"tensor": {"dtype": "DT_INT32", "tensorShape": {"dim": [{"size": "2"}]}}}, "dtype": {"type": "DT_INT32"}}}, {"name": "StatefulPartitionedCall/Const_18", "op": "Const", "attr": {"value": {"tensor": {"dtype": "DT_FLOAT", "tensorShape": {}}}, "dtype": {"type": "DT_FLOAT"}}}, {"name": "StatefulPartitionedCall/jax2tf_apply_/ActorCriticTransformerFlats/ActorCriticTransformerFlats/Transformer_0/tf_layers_0/ln2/Reshape_2", "op": "Const", "attr": {"value": {"tensor": {"dtype": "DT_FLOAT", "tensorShape": {"dim": [{"size": "1"}, {"size": "128"}]}}}, "dtype": {"type": "DT_FLOAT"}}}, {"name": "StatefulPartitionedCall/jax2tf_apply_/ActorCriticTransformerFlats/ActorCriticTransformerFlats/Transformer_0/tf_layers_0/ln2/pjit__mean_/Sum/reduction_indices", "op": "Const", "attr": {"value": {"tensor": {"dtype": "DT_INT32", "tensorShape": {"dim": [{"size": "1"}]}}}, "dtype": {"type": "DT_INT32"}}}, {"name": "ConstantFolding/StatefulPartitionedCall/jax2tf_apply_/ActorCriticTransformerFlats/ActorCriticTransformerFlats/Transformer_0/tf_layers_0/ln2/pjit__mean_/truediv_recip", "op": "Const", "attr": {"value": {"tensor": {"dtype": "DT_FLOAT", "tensorShape": {}}}, "dtype": {"type": "DT_FLOAT"}}}, {"name": "StatefulPartitionedCall/jax2tf_apply_/ActorCriticTransformerFlats/ActorCriticTransformerFlats/Transformer_0/tf_layers_0/ln2/Reshape/shape", "op": "Const", "attr": {"value": {"tensor": {"dtype": "DT_INT32", "tensorShape": {"dim": [{"size": "2"}]}}}, "dtype": {"type": "DT_INT32"}}}, {"name": "StatefulPartitionedCall/jax2tf_apply_/ActorCriticTransformerFlats/ActorCriticTransformerFlats/Transformer_0/tf_layers_0/ln2/Reshape_3", "op": "Const", "attr": {"value": {"tensor": {"dtype": "DT_FLOAT", "tensorShape": {"dim": [{"size": "1"}, {"size": "128"}]}}}, "dtype": {"type": "DT_FLOAT"}}}, {"name": "StatefulPartitionedCall/jax2tf_arg_45/ReadVariableOp", "op": "Const", "attr": {"value": {"tensor": {"dtype": "DT_FLOAT", "tensorShape": {"dim": [{"size": "128"}, {"size": "128"}]}}}, "dtype": {"type": "DT_FLOAT"}}}, {"name": "StatefulPartitionedCall/jax2tf_apply_/ActorCriticTransformerFlats/ActorCriticTransformerFlats/Transformer_0/tf_layers_0/dense1/Reshape", "op": "Const", "attr": {"value": {"tensor": {"dtype": "DT_FLOAT", "tensorShape": {"dim": [{"size": "1"}, {"size": "128"}]}}}, "dtype": {"type": "DT_FLOAT"}}}, {"name": "StatefulPartitionedCall/jax2tf_apply_/ActorCriticTransformerFlats/ActorCriticTransformerFlats/Transformer_0/tf_layers_0/Const_1", "op": "Const", "attr": {"value": {"tensor": {"dtype": "DT_FLOAT", "tensorShape": {}}}, "dtype": {"type": "DT_FLOAT"}}}, {"name": "StatefulPartitionedCall/jax2tf_arg_53/ReadVariableOp", "op": "Const", "attr": {"value": {"tensor": {"dtype": "DT_FLOAT", "tensorShape": {"dim": [{"size": "128"}, {"size": "128"}]}}}, "dtype": {"type": "DT_FLOAT"}}}, {"name": "StatefulPartitionedCall/jax2tf_arg_54/ReadVariableOp", "op": "Const", "attr": {"value": {"tensor": {"dtype": "DT_FLOAT", "tensorShape": {"dim": [{"size": "128"}, {"size": "128"}]}}}, "dtype": {"type": "DT_FLOAT"}}}, {"name": "StatefulPartitionedCall/jax2tf_apply_/ActorCriticTransformerFlats/ActorCriticTransformerFlats/Transformer_0/tf_layers_0/gate1/pjit__lambda__/Cast", "op": "Const", "attr": {"value": {"tensor": {"dtype": "DT_FLOAT", "tensorShape": {}}}, "dtype": {"type": "DT_FLOAT"}}}, {"name": "StatefulPartitionedCall/jax2tf_apply_/ActorCriticTransformerFlats/ActorCriticTransformerFlats/Transformer_0/tf_layers_0/gate1/pjit_sigmoid_/Const_2", "op": "Const", "attr": {"value": {"tensor": {"dtype": "DT_FLOAT", "tensorShape": {}}}, "dtype": {"type": "DT_FLOAT"}}}, {"name": "StatefulPartitionedCall/jax2tf_arg_48/ReadVariableOp", "op": "Const", "attr": {"value": {"tensor": {"dtype": "DT_FLOAT", "tensorShape": {"dim": [{"size": "128"}, {"size": "128"}]}}}, "dtype": {"type": "DT_FLOAT"}}}, {"name": "StatefulPartitionedCall/jax2tf_arg_49/ReadVariableOp", "op": "Const", "attr": {"value": {"tensor": {"dtype": "DT_FLOAT", "tensorShape": {"dim": [{"size": "128"}, {"size": "128"}]}}}, "dtype": {"type": "DT_FLOAT"}}}, {"name": "StatefulPartitionedCall/jax2tf_apply_/ActorCriticTransformerFlats/ActorCriticTransformerFlats/Transformer_0/tf_layers_0/gate1/pjit__lambda__/BroadcastTo", "op": "Const", "attr": {"value": {"tensor": {"dtype": "DT_FLOAT", "tensorShape": {"dim": [{"size": "1"}, {"size": "128"}]}}}, "dtype": {"type": "DT_FLOAT"}}}, {"name": "StatefulPartitionedCall/jax2tf_arg_50/ReadVariableOp", "op": "Const", "attr": {"value": {"tensor": {"dtype": "DT_FLOAT", "tensorShape": {"dim": [{"size": "128"}, {"size": "128"}]}}}, "dtype": {"type": "DT_FLOAT"}}}, {"name": "StatefulPartitionedCall/jax2tf_apply_/ActorCriticTransformerFlats/ActorCriticTransformerFlats/Transformer_0/tf_layers_0/gate1/pjit_sigmoid_/Const", "op": "Const", "attr": {"value": {"tensor": {"dtype": "DT_FLOAT", "tensorShape": {}}}, "dtype": {"type": "DT_FLOAT"}}}, {"name": "StatefulPartitionedCall/jax2tf_arg_43/ReadVariableOp", "op": "Const", "attr": {"value": {"tensor": {"dtype": "DT_FLOAT", "tensorShape": {"dim": [{"size": "128"}, {"size": "8"}, {"size": "2"}]}}}, "dtype": {"type": "DT_FLOAT"}}}, {"name": "StatefulPartitionedCall/jax2tf_apply_/ActorCriticTransformerFlats/ActorCriticTransformerFlats/Transformer_0/tf_layers_0/attention1/value/Reshape", "op": "Const", "attr": {"value": {"tensor": {"dtype": "DT_FLOAT", "tensorShape": {"dim": [{"size": "1"}, {"size": "8"}, {"size": "2"}]}}}, "dtype": {"type": "DT_FLOAT"}}}, {"name": "StatefulPartitionedCall/jax2tf_apply_/ActorCriticTransformerFlats/ActorCriticTransformerFlats/BroadcastTo_8", "op": "Const", "attr": {"value": {"tensor": {"dtype": "DT_BOOL", "tensorShape": {"dim": [{"size": "4"}, {"size": "1"}, {"size": "17"}]}}}, "dtype": {"type": "DT_BOOL"}}}, {"name": "StatefulPartitionedCall/jax2tf_apply_/ActorCriticTransformerFlats/ActorCriticTransformerFlats/BroadcastTo_9", "op": "Const", "attr": {"value": {"tensor": {"dtype": "DT_BOOL", "tensorShape": {"dim": [{"size": "4"}, {"size": "16"}, {"size": "1"}]}}}, "dtype": {"type": "DT_BOOL"}}}, {"name": "StatefulPartitionedCall/jax2tf_apply_/ActorCriticTransformerFlats/ActorCriticTransformerFlats/Cast_8/x", "op": "Const", "attr": {"value": {"tensor": {"dtype": "DT_INT32", "tensorShape": {}}}, "dtype": {"type": "DT_INT32"}}}, {"name": "StatefulPartitionedCall/jax2tf_apply_/ActorCriticTransformerFlats/ActorCriticTransformerFlats/Cast_9/x", "op": "Const", "attr": {"value": {"tensor": {"dtype": "DT_INT32", "tensorShape": {}}}, "dtype": {"type": "DT_INT32"}}}, {"name": "StatefulPartitionedCall/jax2tf_apply_/ActorCriticTransformerFlats/ActorCriticTransformerFlats/pjit__lambda__/Reshape/shape", "op": "Const", "attr": {"value": {"tensor": {"dtype": "DT_INT32", "tensorShape": {"dim": [{"size": "3"}]}}}, "dtype": {"type": "DT_INT32"}}}, {"name": "StatefulPartitionedCall/jax2tf_apply_/ActorCriticTransformerFlats/ActorCriticTransformerFlats/pjit__lambda__/Reshape_1/shape", "op": "Const", "attr": {"value": {"tensor": {"dtype": "DT_INT32", "tensorShape": {"dim": [{"size": "3"}]}}}, "dtype": {"type": "DT_INT32"}}}, {"name": "StatefulPartitionedCall/jax2tf_apply_/ActorCriticTransformerFlats/ActorCriticTransformerFlats/Reshape_13/shape", "op": "Const", "attr": {"value": {"tensor": {"dtype": "DT_INT32", "tensorShape": {"dim": [{"size": "8"}]}}}, "dtype": {"type": "DT_INT32"}}}, {"name": "StatefulPartitionedCall/jax2tf_apply_/ActorCriticTransformerFlats/ActorCriticTransformerFlats/BroadcastTo_13/shape", "op": "Const", "attr": {"value": {"tensor": {"dtype": "DT_INT32", "tensorShape": {"dim": [{"size": "8"}]}}}, "dtype": {"type": "DT_INT32"}}}, {"name": "StatefulPartitionedCall/jax2tf_apply_/ActorCriticTransformerFlats/ActorCriticTransformerFlats/Reshape_17/shape", "op": "Const", "attr": {"value": {"tensor": {"dtype": "DT_INT32", "tensorShape": {"dim": [{"size": "3"}]}}}, "dtype": {"type": "DT_INT32"}}}, {"name": "StatefulPartitionedCall/jax2tf_arg_41/ReadVariableOp", "op": "Const", "attr": {"value": {"tensor": {"dtype": "DT_FLOAT", "tensorShape": {"dim": [{"size": "128"}, {"size": "8"}, {"size": "2"}]}}}, "dtype": {"type": "DT_FLOAT"}}}, {"name": "StatefulPartitionedCall/jax2tf_apply_/ActorCriticTransformerFlats/ActorCriticTransformerFlats/Transformer_0/tf_layers_0/attention1/query/Reshape", "op": "Const", "attr": {"value": {"tensor": {"dtype": "DT_FLOAT", "tensorShape": {"dim": [{"size": "1"}, {"size": "8"}, {"size": "2"}]}}}, "dtype": {"type": "DT_FLOAT"}}}, {"name": "ConstantFolding/StatefulPartitionedCall/jax2tf_apply_/ActorCriticTransformerFlats/ActorCriticTransformerFlats/Transformer_0/tf_layers_0/attention1/pjit_true_divide_/truediv_recip", "op": "Const", "attr": {"value": {"tensor": {"dtype": "DT_FLOAT", "tensorShape": {}}}, "dtype": {"type": "DT_FLOAT"}}}, {"name": "StatefulPartitionedCall/Const_12", "op": "Const", "attr": {"value": {"tensor": {"dtype": "DT_FLOAT", "tensorShape": {}}}, "dtype": {"type": "DT_FLOAT"}}}, {"name": "StatefulPartitionedCall/jax2tf_apply_/ActorCriticTransformerFlats/ActorCriticTransformerFlats/Transformer_0/tf_layers_0/ln1/pjit__mean_/Sum_1/reduction_indices", "op": "Const", "attr": {"value": {"tensor": {"dtype": "DT_INT32", "tensorShape": {"dim": [{"size": "1"}]}}}, "dtype": {"type": "DT_INT32"}}}, {"name": "ConstantFolding/StatefulPartitionedCall/jax2tf_apply_/ActorCriticTransformerFlats/ActorCriticTransformerFlats/Transformer_0/tf_layers_0/ln1/pjit__mean_/truediv_1_recip", "op": "Const", "attr": {"value": {"tensor": {"dtype": "DT_FLOAT", "tensorShape": {}}}, "dtype": {"type": "DT_FLOAT"}}}, {"name": "StatefulPartitionedCall/jax2tf_apply_/ActorCriticTransformerFlats/ActorCriticTransformerFlats/Transformer_0/tf_layers_0/ln1/Reshape_1/shape", "op": "Const", "attr": {"value": {"tensor": {"dtype": "DT_INT32", "tensorShape": {"dim": [{"size": "2"}]}}}, "dtype": {"type": "DT_INT32"}}}, {"name": "StatefulPartitionedCall/Const_13", "op": "Const", "attr": {"value": {"tensor": {"dtype": "DT_FLOAT", "tensorShape": {}}}, "dtype": {"type": "DT_FLOAT"}}}, {"name": "StatefulPartitionedCall/jax2tf_apply_/ActorCriticTransformerFlats/ActorCriticTransformerFlats/Transformer_0/tf_layers_0/ln1/Reshape_2", "op": "Const", "attr": {"value": {"tensor": {"dtype": "DT_FLOAT", "tensorShape": {"dim": [{"size": "1"}, {"size": "128"}]}}}, "dtype": {"type": "DT_FLOAT"}}}, {"name": "StatefulPartitionedCall/jax2tf_apply_/ActorCriticTransformerFlats/ActorCriticTransformerFlats/Transformer_0/tf_layers_0/ln1/pjit__mean_/Sum/reduction_indices", "op": "Const", "attr": {"value": {"tensor": {"dtype": "DT_INT32", "tensorShape": {"dim": [{"size": "1"}]}}}, "dtype": {"type": "DT_INT32"}}}, {"name": "ConstantFolding/StatefulPartitionedCall/jax2tf_apply_/ActorCriticTransformerFlats/ActorCriticTransformerFlats/Transformer_0/tf_layers_0/ln1/pjit__mean_/truediv_recip", "op": "Const", "attr": {"value": {"tensor": {"dtype": "DT_FLOAT", "tensorShape": {}}}, "dtype": {"type": "DT_FLOAT"}}}, {"name": "StatefulPartitionedCall/jax2tf_apply_/ActorCriticTransformerFlats/ActorCriticTransformerFlats/Transformer_0/tf_layers_0/ln1/Reshape/shape", "op": "Const", "attr": {"value": {"tensor": {"dtype": "DT_INT32", "tensorShape": {"dim": [{"size": "2"}]}}}, "dtype": {"type": "DT_INT32"}}}, {"name": "StatefulPartitionedCall/jax2tf_apply_/ActorCriticTransformerFlats/ActorCriticTransformerFlats/Transformer_0/tf_layers_0/ln1/Reshape_3", "op": "Const", "attr": {"value": {"tensor": {"dtype": "DT_FLOAT", "tensorShape": {"dim": [{"size": "1"}, {"size": "128"}]}}}, "dtype": {"type": "DT_FLOAT"}}}, {"name": "StatefulPartitionedCall/jax2tf_arg_37/ReadVariableOp", "op": "Const", "attr": {"value": {"tensor": {"dtype": "DT_FLOAT", "tensorShape": {"dim": [{"size": "128"}, {"size": "8"}, {"size": "2"}]}}}, "dtype": {"type": "DT_FLOAT"}}}, {"name": "StatefulPartitionedCall/jax2tf_apply_/ActorCriticTransformerFlats/ActorCriticTransformerFlats/Transformer_0/tf_layers_0/attention1/key/Reshape", "op": "Const", "attr": {"value": {"tensor": {"dtype": "DT_FLOAT", "tensorShape": {"dim": [{"size": "1"}, {"size": "8"}, {"size": "2"}]}}}, "dtype": {"type": "DT_FLOAT"}}}, {"name": "StatefulPartitionedCall/jax2tf_apply_/ActorCriticTransformerFlats/ActorCriticTransformerFlats/Transformer_0/tf_layers_0/attention1/pjit__where_/BroadcastTo", "op": "Const", "attr": {"value": {"tensor": {"dtype": "DT_FLOAT", "tensorShape": {"dim": [{"size": "8"}, {"size": "17"}, {"size": "17"}]}}}, "dtype": {"type": "DT_FLOAT"}}}, {"name": "StatefulPartitionedCall/jax2tf_apply_/ActorCriticTransformerFlats/ActorCriticTransformerFlats/Transformer_0/tf_layers_0/attention1/pjit__reduce_max_/Max/reduction_indices", "op": "Const", "attr": {"value": {"tensor": {"dtype": "DT_INT32", "tensorShape": {"dim": [{"size": "1"}]}}}, "dtype": {"type": "DT_INT32"}}}, {"name": "StatefulPartitionedCall/jax2tf_apply_/ActorCriticTransformerFlats/ActorCriticTransformerFlats/Transformer_0/tf_layers_0/attention1/pjit__reduce_max_/Reshape/shape", "op": "Const", "attr": {"value": {"tensor": {"dtype": "DT_INT32", "tensorShape": {"dim": [{"size": "3"}]}}}, "dtype": {"type": "DT_INT32"}}}, {"name": "StatefulPartitionedCall/jax2tf_apply_/ActorCriticTransformerFlats/ActorCriticTransformerFlats/Transformer_0/tf_layers_0/attention1/pjit__reduce_sum_/Sum/reduction_indices", "op": "Const", "attr": {"value": {"tensor": {"dtype": "DT_INT32", "tensorShape": {"dim": [{"size": "1"}]}}}, "dtype": {"type": "DT_INT32"}}}, {"name": "StatefulPartitionedCall/jax2tf_apply_/ActorCriticTransformerFlats/ActorCriticTransformerFlats/Transformer_0/tf_layers_0/attention1/pjit__reduce_sum_/Reshape/shape", "op": "Const", "attr": {"value": {"tensor": {"dtype": "DT_INT32", "tensorShape": {"dim": [{"size": "3"}]}}}, "dtype": {"type": "DT_INT32"}}}, {"name": "StatefulPartitionedCall/jax2tf_apply_/ActorCriticTransformerFlats/ActorCriticTransformerFlats/Transformer_0/tf_layers_0/attention1/...hqk_...khd-_...qhd/pjit__einsum_/transpose/perm", "op": "Const", "attr": {"value": {"tensor": {"dtype": "DT_INT32", "tensorShape": {"dim": [{"size": "3"}]}}}, "dtype": {"type": "DT_INT32"}}}, {"name": "StatefulPartitionedCall/jax2tf_arg_39/ReadVariableOp", "op": "Const", "attr": {"value": {"tensor": {"dtype": "DT_FLOAT", "tensorShape": {"dim": [{"size": "8"}, {"size": "2"}, {"size": "128"}]}}}, "dtype": {"type": "DT_FLOAT"}}}, {"name": "StatefulPartitionedCall/jax2tf_apply_/ActorCriticTransformerFlats/ActorCriticTransformerFlats/Transformer_0/tf_layers_0/attention1/out/Reshape", "op": "Const", "attr": {"value": {"tensor": {"dtype": "DT_FLOAT", "tensorShape": {"dim": [{"size": "1"}, {"size": "128"}]}}}, "dtype": {"type": "DT_FLOAT"}}}, {"name": "StatefulPartitionedCall/jax2tf_apply_/ActorCriticTransformerFlats/ActorCriticTransformerFlats/Transformer_0/tf_layers_0/Const", "op": "Const", "attr": {"value": {"tensor": {"dtype": "DT_FLOAT", "tensorShape": {}}}, "dtype": {"type": "DT_FLOAT"}}}, {"name": "StatefulPartitionedCall/jax2tf_arg_46/ReadVariableOp", "op": "Const", "attr": {"value": {"tensor": {"dtype": "DT_FLOAT", "tensorShape": {"dim": [{"size": "128"}, {"size": "128"}]}}}, "dtype": {"type": "DT_FLOAT"}}}, {"name": "StatefulPartitionedCall/jax2tf_arg_47/ReadVariableOp", "op": "Const", "attr": {"value": {"tensor": {"dtype": "DT_FLOAT", "tensorShape": {"dim": [{"size": "128"}, {"size": "128"}]}}}, "dtype": {"type": "DT_FLOAT"}}}, {"name": "StatefulPartitionedCall/jax2tf_apply_/ActorCriticTransformerFlats/ActorCriticTransformerFlats/BroadcastTo_6", "op": "Const", "attr": {"value": {"tensor": {"dtype": "DT_FLOAT", "tensorShape": {"dim": [{"size": "1"}, {"size": "128"}]}}}, "dtype": {"type": "DT_FLOAT"}}}, {"name": "StatefulPartitionedCall/jax2tf_arg_3/ReadVariableOp", "op": "Const", "attr": {"value": {"tensor": {"dtype": "DT_FLOAT", "tensorShape": {"dim": [{"size": "27"}, {"size": "127"}]}}}, "dtype": {"type": "DT_FLOAT"}}}, {"name": "StatefulPartitionedCall/jax2tf_apply_/ActorCriticTransformerFlats/ActorCriticTransformerFlats/Dense_1/Reshape", "op": "Const", "attr": {"value": {"tensor": {"dtype": "DT_FLOAT", "tensorShape": {"dim": [{"size": "1"}, {"size": "127"}]}}}, "dtype": {"type": "DT_FLOAT"}}}, {"name": "StatefulPartitionedCall/jax2tf_apply_/ActorCriticTransformerFlats/ActorCriticTransformerFlats/transpose_5", "op": "Const", "attr": {"value": {"tensor": {"dtype": "DT_FLOAT", "tensorShape": {"dim": [{"size": "12"}, {"size": "1"}]}}}, "dtype": {"type": "DT_FLOAT"}}}, {"name": "StatefulPartitionedCall/jax2tf_apply_/ActorCriticTransformerFlats/ActorCriticTransformerFlats/Cast_3/x", "op": "Const", "attr": {"value": {"tensor": {"dtype": "DT_INT32", "tensorShape": {}}}, "dtype": {"type": "DT_INT32"}}}, {"name": "StatefulPartitionedCall/jax2tf_arg_1/ReadVariableOp", "op": "Const", "attr": {"value": {"tensor": {"dtype": "DT_FLOAT", "tensorShape": {"dim": [{"size": "19"}, {"size": "127"}]}}}, "dtype": {"type": "DT_FLOAT"}}}, {"name": "StatefulPartitionedCall/jax2tf_apply_/ActorCriticTransformerFlats/ActorCriticTransformerFlats/Dense_0/Reshape", "op": "Const", "attr": {"value": {"tensor": {"dtype": "DT_FLOAT", "tensorShape": {"dim": [{"size": "1"}, {"size": "127"}]}}}, "dtype": {"type": "DT_FLOAT"}}}, {"name": "StatefulPartitionedCall/jax2tf_apply_/ActorCriticTransformerFlats/ActorCriticTransformerFlats/transpose_2", "op": "Const", "attr": {"value": {"tensor": {"dtype": "DT_FLOAT", "tensorShape": {"dim": [{"size": "4"}, {"size": "1"}]}}}, "dtype": {"type": "DT_FLOAT"}}}, {"name": "StatefulPartitionedCall/jax2tf_apply_/ActorCriticTransformerFlats/ActorCriticTransformerFlats/Cast_1/x", "op": "Const", "attr": {"value": {"tensor": {"dtype": "DT_INT32", "tensorShape": {}}}, "dtype": {"type": "DT_INT32"}}}, {"name": "StatefulPartitionedCall/jax2tf_apply_/ActorCriticTransformerFlats/ActorCriticTransformerFlats/Cast_6/x", "op": "Const", "attr": {"value": {"tensor": {"dtype": "DT_INT32", "tensorShape": {}}}, "dtype": {"type": "DT_INT32"}}}, {"name": "StatefulPartitionedCall/jax2tf_arg_51/ReadVariableOp", "op": "Const", "attr": {"value": {"tensor": {"dtype": "DT_FLOAT", "tensorShape": {"dim": [{"size": "128"}, {"size": "128"}]}}}, "dtype": {"type": "DT_FLOAT"}}}, {"name": "StatefulPartitionedCall/jax2tf_arg_58/ReadVariableOp", "op": "Const", "attr": {"value": {"tensor": {"dtype": "DT_FLOAT", "tensorShape": {"dim": [{"size": "128"}, {"size": "128"}]}}}, "dtype": {"type": "DT_FLOAT"}}}, {"name": "StatefulPartitionedCall/Const_26", "op": "Const", "attr": {"value": {"tensor": {"dtype": "DT_INT32", "tensorShape": {}}}, "dtype": {"type": "DT_INT32"}}}, {"name": "StatefulPartitionedCall/Const_27", "op": "Const", "attr": {"value": {"tensor": {"dtype": "DT_INT32", "tensorShape": {}}}, "dtype": {"type": "DT_INT32"}}}, {"name": "StatefulPartitionedCall/jax2tf_apply_/ActorCriticTransformerFlats/ActorCriticTransformerFlats/Transformer_0/Reshape_9/shape", "op": "Const", "attr": {"value": {"tensor": {"dtype": "DT_INT32", "tensorShape": {"dim": [{"size": "2"}]}}}, "dtype": {"type": "DT_INT32"}}}, {"name": "StatefulPartitionedCall/jax2tf_apply_/ActorCriticTransformerFlats/ActorCriticTransformerFlats/Transformer_0/Sub_4", "op": "Const", "attr": {"value": {"tensor": {"dtype": "DT_INT32", "tensorShape": {"dim": [{"size": "1"}]}}}, "dtype": {"type": "DT_INT32"}}}, {"name": "StatefulPartitionedCall/jax2tf_apply_/ActorCriticTransformerFlats/ActorCriticTransformerFlats/Transformer_0/clip_by_value_4/y", "op": "Const", "attr": {"value": {"tensor": {"dtype": "DT_INT32", "tensorShape": {}}}, "dtype": {"type": "DT_INT32"}}}, {"name": "StatefulPartitionedCall/jax2tf_apply_/ActorCriticTransformerFlats/ActorCriticTransformerFlats/Transformer_0/GatherV2_2/axis", "op": "Const", "attr": {"value": {"tensor": {"dtype": "DT_INT32", "tensorShape": {}}}, "dtype": {"type": "DT_INT32"}}}, {"name": "StatefulPartitionedCall/jax2tf_apply_/ActorCriticTransformerFlats/ActorCriticTransformerFlats/Transformer_0/Cast_1/x", "op": "Const", "attr": {"value": {"tensor": {"dtype": "DT_INT32", "tensorShape": {}}}, "dtype": {"type": "DT_INT32"}}}, {"name": "StatefulPartitionedCall/jax2tf_arg_93/ReadVariableOp", "op": "Const", "attr": {"value": {"tensor": {"dtype": "DT_FLOAT", "tensorShape": {"dim": [{"size": "256"}, {"size": "128"}]}}}, "dtype": {"type": "DT_FLOAT"}}}, {"name": "StatefulPartitionedCall/jax2tf_apply_/ActorCriticTransformerFlats/ActorCriticTransformerFlats/Transformer_0/thruster_layers_0/Reshape", "op": "Const", "attr": {"value": {"tensor": {"dtype": "DT_FLOAT", "tensorShape": {"dim": [{"size": "1"}, {"size": "128"}]}}}, "dtype": {"type": "DT_FLOAT"}}}, {"name": "StatefulPartitionedCall/jax2tf_apply_/ActorCriticTransformerFlats/ActorCriticTransformerFlats/Transformer_0/Reshape_11/shape", "op": "Const", "attr": {"value": {"tensor": {"dtype": "DT_INT32", "tensorShape": {"dim": [{"size": "2"}]}}}, "dtype": {"type": "DT_INT32"}}}, {"name": "StatefulPartitionedCall/jax2tf_apply_/ActorCriticTransformerFlats/ActorCriticTransformerFlats/Transformer_0/Const_1", "op": "Const", "attr": {"value": {"tensor": {"dtype": "DT_INT32", "tensorShape": {}}}, "dtype": {"type": "DT_INT32"}}}, {"name": "StatefulPartitionedCall/jax2tf_apply_/ActorCriticTransformerFlats/ActorCriticTransformerFlats/Transformer_0/scan/while_1/loop_counter", "op": "Const", "attr": {"value": {"tensor": {"dtype": "DT_INT32", "tensorShape": {}}}, "dtype": {"type": "DT_INT32"}}}, {"name": "StatefulPartitionedCall/jax2tf_arg_79/ReadVariableOp", "op": "Const", "attr": {"value": {"tensor": {"dtype": "DT_FLOAT", "tensorShape": {"dim": [{"size": "128"}, {"size": "128"}]}}}, "dtype": {"type": "DT_FLOAT"}}}, {"name": "StatefulPartitionedCall/jax2tf_arg_86/ReadVariableOp", "op": "Const", "attr": {"value": {"tensor": {"dtype": "DT_FLOAT", "tensorShape": {"dim": [{"size": "128"}, {"size": "128"}]}}}, "dtype": {"type": "DT_FLOAT"}}}, {"name": "StatefulPartitionedCall/Const_43", "op": "Const", "attr": {"value": {"tensor": {"dtype": "DT_INT32", "tensorShape": {}}}, "dtype": {"type": "DT_INT32"}}}, {"name": "StatefulPartitionedCall/Const_44", "op": "Const", "attr": {"value": {"tensor": {"dtype": "DT_INT32", "tensorShape": {}}}, "dtype": {"type": "DT_INT32"}}}, {"name": "StatefulPartitionedCall/Const_11", "op": "Const", "attr": {"value": {"tensor": {"dtype": "DT_INT32", "tensorShape": {}}}, "dtype": {"type": "DT_INT32"}}}, {"name": "StatefulPartitionedCall/jax2tf_apply_/ActorCriticTransformerFlats/ActorCriticTransformerFlats/Transformer_0/Reshape_23/shape", "op": "Const", "attr": {"value": {"tensor": {"dtype": "DT_INT32", "tensorShape": {"dim": [{"size": "2"}]}}}, "dtype": {"type": "DT_INT32"}}}, {"name": "StatefulPartitionedCall/jax2tf_apply_/ActorCriticTransformerFlats/ActorCriticTransformerFlats/Transformer_0/Sub_10", "op": "Const", "attr": {"value": {"tensor": {"dtype": "DT_INT32", "tensorShape": {"dim": [{"size": "1"}]}}}, "dtype": {"type": "DT_INT32"}}}, {"name": "StatefulPartitionedCall/jax2tf_apply_/ActorCriticTransformerFlats/ActorCriticTransformerFlats/Transformer_0/clip_by_value_10/y", "op": "Const", "attr": {"value": {"tensor": {"dtype": "DT_INT32", "tensorShape": {}}}, "dtype": {"type": "DT_INT32"}}}, {"name": "StatefulPartitionedCall/jax2tf_apply_/ActorCriticTransformerFlats/ActorCriticTransformerFlats/Transformer_0/GatherV2_5/axis", "op": "Const", "attr": {"value": {"tensor": {"dtype": "DT_INT32", "tensorShape": {}}}, "dtype": {"type": "DT_INT32"}}}, {"name": "StatefulPartitionedCall/jax2tf_arg_7/ReadVariableOp", "op": "Const", "attr": {"value": {"tensor": {"dtype": "DT_FLOAT", "tensorShape": {"dim": [{"size": "8"}, {"size": "128"}]}}}, "dtype": {"type": "DT_FLOAT"}}}, {"name": "StatefulPartitionedCall/jax2tf_apply_/ActorCriticTransformerFlats/ActorCriticTransformerFlats/Dense_3/Reshape", "op": "Const", "attr": {"value": {"tensor": {"dtype": "DT_FLOAT", "tensorShape": {"dim": [{"size": "1"}, {"size": "128"}]}}}, "dtype": {"type": "DT_FLOAT"}}}, {"name": "StatefulPartitionedCall/jax2tf_apply_/ActorCriticTransformerFlats/ActorCriticTransformerFlats/Transformer_0/Cast_3/x", "op": "Const", "attr": {"value": {"tensor": {"dtype": "DT_INT32", "tensorShape": {}}}, "dtype": {"type": "DT_INT32"}}}, {"name": "StatefulPartitionedCall/jax2tf_arg_95/ReadVariableOp", "op": "Const", "attr": {"value": {"tensor": {"dtype": "DT_FLOAT", "tensorShape": {"dim": [{"size": "256"}, {"size": "128"}]}}}, "dtype": {"type": "DT_FLOAT"}}}, {"name": "StatefulPartitionedCall/jax2tf_apply_/ActorCriticTransformerFlats/ActorCriticTransformerFlats/Transformer_0/thruster_layers_1/Reshape", "op": "Const", "attr": {"value": {"tensor": {"dtype": "DT_FLOAT", "tensorShape": {"dim": [{"size": "1"}, {"size": "128"}]}}}, "dtype": {"type": "DT_FLOAT"}}}, {"name": "StatefulPartitionedCall/jax2tf_apply_/ActorCriticTransformerFlats/ActorCriticTransformerFlats/Transformer_0/Reshape_25/shape", "op": "Const", "attr": {"value": {"tensor": {"dtype": "DT_INT32", "tensorShape": {"dim": [{"size": "2"}]}}}, "dtype": {"type": "DT_INT32"}}}, {"name": "StatefulPartitionedCall/jax2tf_apply_/ActorCriticTransformerFlats/ActorCriticTransformerFlats/Transformer_0/Const_3", "op": "Const", "attr": {"value": {"tensor": {"dtype": "DT_INT32", "tensorShape": {}}}, "dtype": {"type": "DT_INT32"}}}, {"name": "StatefulPartitionedCall/jax2tf_apply_/ActorCriticTransformerFlats/ActorCriticTransformerFlats/Transformer_0/scan/while_3/loop_counter", "op": "Const", "attr": {"value": {"tensor": {"dtype": "DT_INT32", "tensorShape": {}}}, "dtype": {"type": "DT_INT32"}}}, {"name": "StatefulPartitionedCall/jax2tf_apply_/ActorCriticTransformerFlats/ActorCriticTransformerFlats/pjit__mean_/pjit__where_/BroadcastTo_1", "op": "Const", "attr": {"value": {"tensor": {"dtype": "DT_FLOAT", "tensorShape": {"dim": [{"size": "17"}, {"size": "128"}]}}}, "dtype": {"type": "DT_FLOAT"}}}, {"name": "StatefulPartitionedCall/jax2tf_apply_/ActorCriticTransformerFlats/ActorCriticTransformerFlats/pjit__mean_/Sum_1/reduction_indices", "op": "Const", "attr": {"value": {"tensor": {"dtype": "DT_INT32", "tensorShape": {"dim": [{"size": "1"}]}}}, "dtype": {"type": "DT_INT32"}}}, {"name": "StatefulPartitionedCall/jax2tf_apply_/ActorCriticTransformerFlats/ActorCriticTransformerFlats/BroadcastTo_7", "op": "Const", "attr": {"value": {"tensor": {"dtype": "DT_BOOL", "tensorShape": {"dim": [{"size": "1"}]}}}, "dtype": {"type": "DT_BOOL"}}}, {"name": "StatefulPartitionedCall/jax2tf_apply_/ActorCriticTransformerFlats/ActorCriticTransformerFlats/Cast_7/x", "op": "Const", "attr": {"value": {"tensor": {"dtype": "DT_INT32", "tensorShape": {}}}, "dtype": {"type": "DT_INT32"}}}, {"name": "StatefulPartitionedCall/jax2tf_apply_/ActorCriticTransformerFlats/ActorCriticTransformerFlats/Reshape_18/shape", "op": "Const", "attr": {"value": {"tensor": {"dtype": "DT_INT32", "tensorShape": {"dim": [{"size": "2"}]}}}, "dtype": {"type": "DT_INT32"}}}, {"name": "StatefulPartitionedCall/jax2tf_apply_/ActorCriticTransformerFlats/ActorCriticTransformerFlats/pjit__mean_/BroadcastTo/shape", "op": "Const", "attr": {"value": {"tensor": {"dtype": "DT_INT32", "tensorShape": {"dim": [{"size": "2"}]}}}, "dtype": {"type": "DT_INT32"}}}, {"name": "StatefulPartitionedCall/jax2tf_apply_/ActorCriticTransformerFlats/ActorCriticTransformerFlats/pjit__mean_/Sum/reduction_indices", "op": "Const", "attr": {"value": {"tensor": {"dtype": "DT_INT32", "tensorShape": {"dim": [{"size": "1"}]}}}, "dtype": {"type": "DT_INT32"}}}, {"name": "StatefulPartitionedCall/jax2tf_apply_/ActorCriticTransformerFlats/ActorCriticTransformerFlats/GeneralActorCriticRNN_0/Dense_1/ExpandDims/dim", "op": "Const", "attr": {"value": {"tensor": {"dtype": "DT_INT32", "tensorShape": {}}}, "dtype": {"type": "DT_INT32"}}}, {"name": "StatefulPartitionedCall/jax2tf_arg_11/ReadVariableOp", "op": "Const", "attr": {"value": {"tensor": {"dtype": "DT_FLOAT", "tensorShape": {"dim": [{"size": "128"}, {"size": "128"}]}}}, "dtype": {"type": "DT_FLOAT"}}}, {"name": "StatefulPartitionedCall/jax2tf_arg_10/ReadVariableOp", "op": "Const", "attr": {"value": {"tensor": {"dtype": "DT_FLOAT", "tensorShape": {"dim": [{"size": "128"}]}}}, "dtype": {"type": "DT_FLOAT"}}}, {"name": "StatefulPartitionedCall/jax2tf_apply_/ActorCriticTransformerFlats/ActorCriticTransformerFlats/GeneralActorCriticRNN_0/Dense_3/ExpandDims/dim", "op": "Const", "attr": {"value": {"tensor": {"dtype": "DT_INT32", "tensorShape": {}}}, "dtype": {"type": "DT_INT32"}}}, {"name": "StatefulPartitionedCall/jax2tf_arg_19/ReadVariableOp", "op": "Const", "attr": {"value": {"tensor": {"dtype": "DT_FLOAT", "tensorShape": {"dim": [{"size": "128"}, {"size": "128"}]}}}, "dtype": {"type": "DT_FLOAT"}}}, {"name": "StatefulPartitionedCall/jax2tf_arg_18/ReadVariableOp", "op": "Const", "attr": {"value": {"tensor": {"dtype": "DT_FLOAT", "tensorShape": {"dim": [{"size": "128"}]}}}, "dtype": {"type": "DT_FLOAT"}}}, {"name": "StatefulPartitionedCall/jax2tf_apply_/ActorCriticTransformerFlats/ActorCriticTransformerFlats/GeneralActorCriticRNN_0/Dense_5/ExpandDims/dim", "op": "Const", "attr": {"value": {"tensor": {"dtype": "DT_INT32", "tensorShape": {}}}, "dtype": {"type": "DT_INT32"}}}, {"name": "StatefulPartitionedCall/jax2tf_arg_23/ReadVariableOp", "op": "Const", "attr": {"value": {"tensor": {"dtype": "DT_FLOAT", "tensorShape": {"dim": [{"size": "128"}, {"size": "128"}]}}}, "dtype": {"type": "DT_FLOAT"}}}, {"name": "StatefulPartitionedCall/jax2tf_arg_22/ReadVariableOp", "op": "Const", "attr": {"value": {"tensor": {"dtype": "DT_FLOAT", "tensorShape": {"dim": [{"size": "128"}]}}}, "dtype": {"type": "DT_FLOAT"}}}, {"name": "StatefulPartitionedCall/jax2tf_apply_/ActorCriticTransformerFlats/ActorCriticTransformerFlats/GeneralActorCriticRNN_0/Dense_7/ExpandDims/dim", "op": "Const", "attr": {"value": {"tensor": {"dtype": "DT_INT32", "tensorShape": {}}}, "dtype": {"type": "DT_INT32"}}}, {"name": "StatefulPartitionedCall/jax2tf_arg_27/ReadVariableOp", "op": "Const", "attr": {"value": {"tensor": {"dtype": "DT_FLOAT", "tensorShape": {"dim": [{"size": "128"}, {"size": "128"}]}}}, "dtype": {"type": "DT_FLOAT"}}}, {"name": "StatefulPartitionedCall/jax2tf_arg_26/ReadVariableOp", "op": "Const", "attr": {"value": {"tensor": {"dtype": "DT_FLOAT", "tensorShape": {"dim": [{"size": "128"}]}}}, "dtype": {"type": "DT_FLOAT"}}}, {"name": "StatefulPartitionedCall/jax2tf_apply_/ActorCriticTransformerFlats/ActorCriticTransformerFlats/GeneralActorCriticRNN_0/Dense_9/ExpandDims/dim", "op": "Const", "attr": {"value": {"tensor": {"dtype": "DT_INT32", "tensorShape": {}}}, "dtype": {"type": "DT_INT32"}}}, {"name": "StatefulPartitionedCall/jax2tf_arg_31/ReadVariableOp", "op": "Const", "attr": {"value": {"tensor": {"dtype": "DT_FLOAT", "tensorShape": {"dim": [{"size": "128"}, {"size": "128"}]}}}, "dtype": {"type": "DT_FLOAT"}}}, {"name": "StatefulPartitionedCall/jax2tf_arg_30/ReadVariableOp", "op": "Const", "attr": {"value": {"tensor": {"dtype": "DT_FLOAT", "tensorShape": {"dim": [{"size": "128"}]}}}, "dtype": {"type": "DT_FLOAT"}}}, {"name": "StatefulPartitionedCall/jax2tf_apply_/ActorCriticTransformerFlats/ActorCriticTransformerFlats/GeneralActorCriticRNN_0/Dense_11/ExpandDims/dim", "op": "Const", "attr": {"value": {"tensor": {"dtype": "DT_INT32", "tensorShape": {}}}, "dtype": {"type": "DT_INT32"}}}, {"name": "StatefulPartitionedCall/jax2tf_arg_15/ReadVariableOp", "op": "Const", "attr": {"value": {"tensor": {"dtype": "DT_FLOAT", "tensorShape": {"dim": [{"size": "128"}, {"size": "1"}]}}}, "dtype": {"type": "DT_FLOAT"}}}, {"name": "StatefulPartitionedCall/jax2tf_arg_14/ReadVariableOp", "op": "Const", "attr": {"value": {"tensor": {"dtype": "DT_FLOAT", "tensorShape": {"dim": [{"size": "1"}]}}}, "dtype": {"type": "DT_FLOAT"}}}, {"name": "StatefulPartitionedCall/jax2tf_apply_/ActorCriticTransformerFlats/ActorCriticTransformerFlats/GeneralActorCriticRNN_0/pjit__squeeze_/Reshape/shape_1", "op": "Const", "attr": {"value": {"tensor": {"dtype": "DT_INT32", "tensorShape": {"dim": [{}]}}}, "dtype": {"type": "DT_INT32"}}}, {"name": "xs_0", "op": "Placeholder", "attr": {"shape": {"shape": {"dim": [{"size": "1"}, {"size": "256"}]}}, "dtype": {"type": "DT_FLOAT"}}}, {"name": "xs_1", "op": "Placeholder", "attr": {"shape": {"shape": {"dim": [{"size": "1"}]}}, "dtype": {"type": "DT_FLOAT"}}}, {"name": "xs_10", "op": "Placeholder", "attr": {"shape": {"shape": {"dim": [{"size": "4"}, {"size": "16"}, {"size": "16"}]}}, "dtype": {"type": "DT_BOOL"}}}, {"name": "xs_11", "op": "Placeholder", "attr": {"shape": {"shape": {"dim": [{"size": "12"}, {"size": "2"}]}}, "dtype": {"type": "DT_INT32"}}}, {"name": "xs_12", "op": "Placeholder", "attr": {"shape": {"shape": {"dim": [{"size": "2"}]}}, "dtype": {"type": "DT_INT32"}}}, {"name": "xs_2", "op": "Placeholder", "attr": {"shape": {"shape": {"dim": [{"size": "4"}, {"size": "19"}]}}, "dtype": {"type": "DT_FLOAT"}}}, {"name": "xs_3", "op": "Placeholder", "attr": {"shape": {"shape": {"dim": [{"size": "12"}, {"size": "27"}]}}, "dtype": {"type": "DT_FLOAT"}}}, {"name": "xs_9", "op": "Placeholder", "attr": {"shape": {"shape": {"dim": [{"size": "2"}]}}, "dtype": {"type": "DT_BOOL"}}}, {"name": "xs_4", "op": "Placeholder", "attr": {"shape": {"shape": {"dim": [{"size": "12"}, {"size": "22"}]}}, "dtype": {"type": "DT_FLOAT"}}}, {"name": "xs_5", "op": "Placeholder", "attr": {"shape": {"shape": {"dim": [{"size": "2"}, {"size": "8"}]}}, "dtype": {"type": "DT_FLOAT"}}}, {"name": "xs_6", "op": "Placeholder", "attr": {"shape": {"shape": {"dim": [{"size": "4"}]}}, "dtype": {"type": "DT_BOOL"}}}, {"name": "xs_7", "op": "Placeholder", "attr": {"shape": {"shape": {"dim": [{"size": "12"}]}}, "dtype": {"type": "DT_BOOL"}}}, {"name": "xs_8", "op": "Placeholder", "attr": {"shape": {"shape": {"dim": [{"size": "12"}]}}, "dtype": {"type": "DT_BOOL"}}}, {"name": "StatefulPartitionedCall/jax2tf_apply_/ActorCriticTransformerFlats/ActorCriticTransformerFlats/Transformer_0/scan/while_2/enter/_187", "op": "Enter", "input": ["StatefulPartitionedCall/jax2tf_apply_/ActorCriticTransformerFlats/ActorCriticTransformerFlats/Transformer_0/Const_2"], "attr": {"is_constant": {"b": false}, "frame_name": {"s": "U3RhdGVmdWxQYXJ0aXRpb25lZENhbGwvamF4MnRmX2FwcGx5Xy9BY3RvckNyaXRpY1RyYW5zZm9ybWVyRmxhdHMvQWN0b3JDcml0aWNUcmFuc2Zvcm1lckZsYXRzL1RyYW5zZm9ybWVyXzAvc2Nhbi93aGlsZV8y"}, "T": {"type": "DT_INT32"}, "parallel_iterations": {"i": "10"}}}, {"name": "StatefulPartitionedCall/jax2tf_apply_/ActorCriticTransformerFlats/ActorCriticTransformerFlats/Transformer_0/scan/while_2/enter/_185", "op": "Enter", "input": ["StatefulPartitionedCall/jax2tf_apply_/ActorCriticTransformerFlats/ActorCriticTransformerFlats/Transformer_0/scan/while_2/loop_counter"], "attr": {"is_constant": {"b": false}, "frame_name": {"s": "U3RhdGVmdWxQYXJ0aXRpb25lZENhbGwvamF4MnRmX2FwcGx5Xy9BY3RvckNyaXRpY1RyYW5zZm9ybWVyRmxhdHMvQWN0b3JDcml0aWNUcmFuc2Zvcm1lckZsYXRzL1RyYW5zZm9ybWVyXzAvc2Nhbi93aGlsZV8y"}, "T": {"type": "DT_INT32"}, "parallel_iterations": {"i": "10"}}}, {"name": "StatefulPartitionedCall/jax2tf_apply_/ActorCriticTransformerFlats/ActorCriticTransformerFlats/Transformer_0/scan/while/enter/_117", "op": "Enter", "input": ["StatefulPartitionedCall/jax2tf_apply_/ActorCriticTransformerFlats/ActorCriticTransformerFlats/Transformer_0/Const"], "attr": {"is_constant": {"b": false}, "frame_name": {"s": "U3RhdGVmdWxQYXJ0aXRpb25lZENhbGwvamF4MnRmX2FwcGx5Xy9BY3RvckNyaXRpY1RyYW5zZm9ybWVyRmxhdHMvQWN0b3JDcml0aWNUcmFuc2Zvcm1lckZsYXRzL1RyYW5zZm9ybWVyXzAvc2Nhbi93aGlsZQ=="}, "T": {"type": "DT_INT32"}, "parallel_iterations": {"i": "10"}}}, {"name": "StatefulPartitionedCall/jax2tf_apply_/ActorCriticTransformerFlats/ActorCriticTransformerFlats/Transformer_0/scan/while/enter/_115", "op": "Enter", "input": ["StatefulPartitionedCall/jax2tf_apply_/ActorCriticTransformerFlats/ActorCriticTransformerFlats/Transformer_0/scan/while/loop_counter"], "attr": {"is_constant": {"b": false}, "frame_name": {"s": "U3RhdGVmdWxQYXJ0aXRpb25lZENhbGwvamF4MnRmX2FwcGx5Xy9BY3RvckNyaXRpY1RyYW5zZm9ybWVyRmxhdHMvQWN0b3JDcml0aWNUcmFuc2Zvcm1lckZsYXRzL1RyYW5zZm9ybWVyXzAvc2Nhbi93aGlsZQ=="}, "T": {"type": "DT_INT32"}, "parallel_iterations": {"i": "10"}}}, {"name": "StatefulPartitionedCall/jax2tf_apply_/ActorCriticTransformerFlats/ActorCriticTransformerFlats/Transformer_0/scan/while_1/enter/_152", "op": "Enter", "input": ["StatefulPartitionedCall/jax2tf_apply_/ActorCriticTransformerFlats/ActorCriticTransformerFlats/Transformer_0/Const_1"], "attr": {"is_constant": {"b": false}, "frame_name": {"s": "U3RhdGVmdWxQYXJ0aXRpb25lZENhbGwvamF4MnRmX2FwcGx5Xy9BY3RvckNyaXRpY1RyYW5zZm9ybWVyRmxhdHMvQWN0b3JDcml0aWNUcmFuc2Zvcm1lckZsYXRzL1RyYW5zZm9ybWVyXzAvc2Nhbi93aGlsZV8x"}, "T": {"type": "DT_INT32"}, "parallel_iterations": {"i": "10"}}}, {"name": "StatefulPartitionedCall/jax2tf_apply_/ActorCriticTransformerFlats/ActorCriticTransformerFlats/Transformer_0/scan/while_1/enter/_150", "op": "Enter", "input": ["StatefulPartitionedCall/jax2tf_apply_/ActorCriticTransformerFlats/ActorCriticTransformerFlats/Transformer_0/scan/while_1/loop_counter"], "attr": {"is_constant": {"b": false}, "frame_name": {"s": "U3RhdGVmdWxQYXJ0aXRpb25lZENhbGwvamF4MnRmX2FwcGx5Xy9BY3RvckNyaXRpY1RyYW5zZm9ybWVyRmxhdHMvQWN0b3JDcml0aWNUcmFuc2Zvcm1lckZsYXRzL1RyYW5zZm9ybWVyXzAvc2Nhbi93aGlsZV8x"}, "T": {"type": "DT_INT32"}, "parallel_iterations": {"i": "10"}}}, {"name": "StatefulPartitionedCall/jax2tf_apply_/ActorCriticTransformerFlats/ActorCriticTransformerFlats/Transformer_0/scan/while_3/enter/_222", "op": "Enter", "input": ["StatefulPartitionedCall/jax2tf_apply_/ActorCriticTransformerFlats/ActorCriticTransformerFlats/Transformer_0/Const_3"], "attr": {"is_constant": {"b": false}, "frame_name": {"s": "U3RhdGVmdWxQYXJ0aXRpb25lZENhbGwvamF4MnRmX2FwcGx5Xy9BY3RvckNyaXRpY1RyYW5zZm9ybWVyRmxhdHMvQWN0b3JDcml0aWNUcmFuc2Zvcm1lckZsYXRzL1RyYW5zZm9ybWVyXzAvc2Nhbi93aGlsZV8z"}, "T": {"type": "DT_INT32"}, "parallel_iterations": {"i": "10"}}}, {"name": "StatefulPartitionedCall/jax2tf_apply_/ActorCriticTransformerFlats/ActorCriticTransformerFlats/Transformer_0/scan/while_3/enter/_220", "op": "Enter", "input": ["StatefulPartitionedCall/jax2tf_apply_/ActorCriticTransformerFlats/ActorCriticTransformerFlats/Transformer_0/scan/while_3/loop_counter"], "attr": {"is_constant": {"b": false}, "frame_name": {"s": "U3RhdGVmdWxQYXJ0aXRpb25lZENhbGwvamF4MnRmX2FwcGx5Xy9BY3RvckNyaXRpY1RyYW5zZm9ybWVyRmxhdHMvQWN0b3JDcml0aWNUcmFuc2Zvcm1lckZsYXRzL1RyYW5zZm9ybWVyXzAvc2Nhbi93aGlsZV8z"}, "T": {"type": "DT_INT32"}, "parallel_iterations": {"i": "10"}}}, {"name": "Identity", "op": "Identity", "input": ["xs_0"], "attr": {"T": {"type": "DT_FLOAT"}}}, {"name": "StatefulPartitionedCall/jax2tf_apply_/ActorCriticTransformerFlats/ActorCriticTransformerFlats/concat_6", "op": "ConcatV2", "input": ["StatefulPartitionedCall/jax2tf_apply_/ActorCriticTransformerFlats/ActorCriticTransformerFlats/BroadcastTo_9", "xs_10", "StatefulPartitionedCall/jax2tf_apply_/ActorCriticTransformerFlats/ActorCriticTransformerFlats/Cast_8/x"], "attr": {"N": {"i": "2"}, "T": {"type": "DT_BOOL"}, "Tidx": {"type": "DT_INT32"}}}, {"name": "StatefulPartitionedCall/jax2tf_apply_/ActorCriticTransformerFlats/ActorCriticTransformerFlats/pjit_fn_/AddV2", "op": "AddV2", "input": ["xs_11", "StatefulPartitionedCall/Const_10"], "attr": {"T": {"type": "DT_INT32"}}}, {"name": "StatefulPartitionedCall/jax2tf_apply_/ActorCriticTransformerFlats/ActorCriticTransformerFlats/pjit_fn_/AddV2_1", "op": "AddV2", "input": ["xs_12", "StatefulPartitionedCall/Const_11"], "attr": {"T": {"type": "DT_INT32"}}}, {"name": "StatefulPartitionedCall/jax2tf_apply_/ActorCriticTransformerFlats/ActorCriticTransformerFlats/pjit_tanh_/Tanh", "op": "_FusedMatMul", "input": ["xs_2", "StatefulPartitionedCall/jax2tf_arg_1/ReadVariableOp", "StatefulPartitionedCall/jax2tf_apply_/ActorCriticTransformerFlats/ActorCriticTransformerFlats/Dense_0/Reshape"], "device": "/device:CPU:0", "attr": {"transpose_a": {"b": false}, "_input_shapes": {"list": {"shape": [{"dim": [{"size": "-39"}, {"size": "19"}]}, {"dim": [{"size": "19"}, {"size": "127"}]}]}}, "transpose_b": {"b": false}, "fused_ops": {"list": {"s": ["Qmlhc0FkZA==", "VGFuaA=="]}}, "leakyrelu_alpha": {"f": 0.2}, "num_args": {"i": "1"}, "epsilon": {"f": 0.0}, "T": {"type": "DT_FLOAT"}}}, {"name": "StatefulPartitionedCall/jax2tf_apply_/ActorCriticTransformerFlats/ActorCriticTransformerFlats/pjit_tanh_/Tanh_1", "op": "_FusedMatMul", "input": ["xs_3", "StatefulPartitionedCall/jax2tf_arg_3/ReadVariableOp", "StatefulPartitionedCall/jax2tf_apply_/ActorCriticTransformerFlats/ActorCriticTransformerFlats/Dense_1/Reshape"], "device": "/device:CPU:0", "attr": {"transpose_a": {"b": false}, "_input_shapes": {"list": {"shape": [{"dim": [{"size": "-40"}, {"size": "27"}]}, {"dim": [{"size": "27"}, {"size": "127"}]}]}}, "transpose_b": {"b": false}, "fused_ops": {"list": {"s": ["Qmlhc0FkZA==", "VGFuaA=="]}}, "num_args": {"i": "1"}, "leakyrelu_alpha": {"f": 0.2}, "epsilon": {"f": 0.0}, "T": {"type": "DT_FLOAT"}}}, {"name": "StatefulPartitionedCall/jax2tf_apply_/ActorCriticTransformerFlats/ActorCriticTransformerFlats/Transformer_0/Reshape_11", "op": "Reshape", "input": ["xs_9", "StatefulPartitionedCall/jax2tf_apply_/ActorCriticTransformerFlats/ActorCriticTransformerFlats/Transformer_0/Reshape_11/shape"], "attr": {"T": {"type": "DT_BOOL"}, "Tshape": {"type": "DT_INT32"}}}, {"name": "StatefulPartitionedCall/jax2tf_apply_/ActorCriticTransformerFlats/ActorCriticTransformerFlats/Transformer_0/Reshape_25", "op": "Reshape", "input": ["xs_9", "StatefulPartitionedCall/jax2tf_apply_/ActorCriticTransformerFlats/ActorCriticTransformerFlats/Transformer_0/Reshape_25/shape"], "attr": {"T": {"type": "DT_BOOL"}, "Tshape": {"type": "DT_INT32"}}}, {"name": "StatefulPartitionedCall/jax2tf_apply_/ActorCriticTransformerFlats/ActorCriticTransformerFlats/pjit_tanh_/Tanh_2", "op": "_FusedMatMul", "input": ["xs_4", "StatefulPartitionedCall/jax2tf_arg_5/ReadVariableOp", "StatefulPartitionedCall/jax2tf_apply_/ActorCriticTransformerFlats/ActorCriticTransformerFlats/Dense_2/Reshape"], "device": "/device:CPU:0", "attr": {"transpose_a": {"b": false}, "_input_shapes": {"list": {"shape": [{"dim": [{"size": "-41"}, {"size": "22"}]}, {"dim": [{"size": "22"}, {"size": "128"}]}]}}, "transpose_b": {"b": false}, "fused_ops": {"list": {"s": ["Qmlhc0FkZA==", "VGFuaA=="]}}, "leakyrelu_alpha": {"f": 0.2}, "num_args": {"i": "1"}, "epsilon": {"f": 0.0}, "T": {"type": "DT_FLOAT"}}}, {"name": "StatefulPartitionedCall/jax2tf_apply_/ActorCriticTransformerFlats/ActorCriticTransformerFlats/pjit_tanh_/Tanh_3", "op": "_FusedMatMul", "input": ["xs_5", "StatefulPartitionedCall/jax2tf_arg_7/ReadVariableOp", "StatefulPartitionedCall/jax2tf_apply_/ActorCriticTransformerFlats/ActorCriticTransformerFlats/Dense_3/Reshape"], "device": "/device:CPU:0", "attr": {"transpose_a": {"b": false}, "_input_shapes": {"list": {"shape": [{"dim": [{"size": "-42"}, {"size": "8"}]}, {"dim": [{"size": "8"}, {"size": "128"}]}]}}, "transpose_b": {"b": false}, "fused_ops": {"list": {"s": ["Qmlhc0FkZA==", "VGFuaA=="]}}, "leakyrelu_alpha": {"f": 0.2}, "num_args": {"i": "1"}, "epsilon": {"f": 0.0}, "T": {"type": "DT_FLOAT"}}}, {"name": "StatefulPartitionedCall/jax2tf_apply_/ActorCriticTransformerFlats/ActorCriticTransformerFlats/concat_5", "op": "ConcatV2", "input": ["StatefulPartitionedCall/jax2tf_apply_/ActorCriticTransformerFlats/ActorCriticTransformerFlats/BroadcastTo_7", "xs_7", "xs_6", "StatefulPartitionedCall/jax2tf_apply_/ActorCriticTransformerFlats/ActorCriticTransformerFlats/Cast_7/x"], "attr": {"N": {"i": "3"}, "Tidx": {"type": "DT_INT32"}, "T": {"type": "DT_BOOL"}}}, {"name": "StatefulPartitionedCall/jax2tf_apply_/ActorCriticTransformerFlats/ActorCriticTransformerFlats/Transformer_0/Reshape_22", "op": "Reshape", "input": ["xs_8", "StatefulPartitionedCall/jax2tf_apply_/ActorCriticTransformerFlats/ActorCriticTransformerFlats/Transformer_0/Reshape_22/shape"], "attr": {"T": {"type": "DT_BOOL"}, "Tshape": {"type": "DT_INT32"}}}, {"name": "StatefulPartitionedCall/jax2tf_apply_/ActorCriticTransformerFlats/ActorCriticTransformerFlats/Transformer_0/Reshape_8", "op": "Reshape", "input": ["xs_8", "StatefulPartitionedCall/jax2tf_apply_/ActorCriticTransformerFlats/ActorCriticTransformerFlats/Transformer_0/Reshape_8/shape"], "attr": {"T": {"type": "DT_BOOL"}, "Tshape": {"type": "DT_INT32"}}}, {"name": "StatefulPartitionedCall/jax2tf_apply_/ActorCriticTransformerFlats/ActorCriticTransformerFlats/Transformer_0/scan/while_2/merge/_193", "op": "Merge", "input": ["StatefulPartitionedCall/jax2tf_apply_/ActorCriticTransformerFlats/ActorCriticTransformerFlats/Transformer_0/scan/while_2/enter/_187", "StatefulPartitionedCall/jax2tf_apply_/ActorCriticTransformerFlats/ActorCriticTransformerFlats/Transformer_0/scan/while_2/next_iteration/_214"], "attr": {"N": {"i": "2"}, "T": {"type": "DT_INT32"}}}, {"name": "StatefulPartitionedCall/jax2tf_apply_/ActorCriticTransformerFlats/ActorCriticTransformerFlats/Transformer_0/scan/while_2/merge/_191", "op": "Merge", "input": ["StatefulPartitionedCall/jax2tf_apply_/ActorCriticTransformerFlats/ActorCriticTransformerFlats/Transformer_0/scan/while_2/enter/_185", "StatefulPartitionedCall/jax2tf_apply_/ActorCriticTransformerFlats/ActorCriticTransformerFlats/Transformer_0/scan/while_2/next_iteration/_212"], "attr": {"N": {"i": "2"}, "_has_manual_control_dependencies": {"b": true}, "T": {"type": "DT_INT32"}}}, {"name": "StatefulPartitionedCall/jax2tf_apply_/ActorCriticTransformerFlats/ActorCriticTransformerFlats/Transformer_0/scan/while/merge/_123", "op": "Merge", "input": ["StatefulPartitionedCall/jax2tf_apply_/ActorCriticTransformerFlats/ActorCriticTransformerFlats/Transformer_0/scan/while/enter/_117", "StatefulPartitionedCall/jax2tf_apply_/ActorCriticTransformerFlats/ActorCriticTransformerFlats/Transformer_0/scan/while/next_iteration/_144"], "attr": {"N": {"i": "2"}, "T": {"type": "DT_INT32"}}}, {"name": "StatefulPartitionedCall/jax2tf_apply_/ActorCriticTransformerFlats/ActorCriticTransformerFlats/Transformer_0/scan/while/merge/_121", "op": "Merge", "input": ["StatefulPartitionedCall/jax2tf_apply_/ActorCriticTransformerFlats/ActorCriticTransformerFlats/Transformer_0/scan/while/enter/_115", "StatefulPartitionedCall/jax2tf_apply_/ActorCriticTransformerFlats/ActorCriticTransformerFlats/Transformer_0/scan/while/next_iteration/_142"], "attr": {"N": {"i": "2"}, "_has_manual_control_dependencies": {"b": true}, "T": {"type": "DT_INT32"}}}, {"name": "StatefulPartitionedCall/jax2tf_apply_/ActorCriticTransformerFlats/ActorCriticTransformerFlats/Transformer_0/scan/while_1/merge/_158", "op": "Merge", "input": ["StatefulPartitionedCall/jax2tf_apply_/ActorCriticTransformerFlats/ActorCriticTransformerFlats/Transformer_0/scan/while_1/enter/_152", "StatefulPartitionedCall/jax2tf_apply_/ActorCriticTransformerFlats/ActorCriticTransformerFlats/Transformer_0/scan/while_1/next_iteration/_179"], "attr": {"N": {"i": "2"}, "T": {"type": "DT_INT32"}}}, {"name": "StatefulPartitionedCall/jax2tf_apply_/ActorCriticTransformerFlats/ActorCriticTransformerFlats/Transformer_0/scan/while_1/merge/_156", "op": "Merge", "input": ["StatefulPartitionedCall/jax2tf_apply_/ActorCriticTransformerFlats/ActorCriticTransformerFlats/Transformer_0/scan/while_1/enter/_150", "StatefulPartitionedCall/jax2tf_apply_/ActorCriticTransformerFlats/ActorCriticTransformerFlats/Transformer_0/scan/while_1/next_iteration/_177"], "attr": {"N": {"i": "2"}, "_has_manual_control_dependencies": {"b": true}, "T": {"type": "DT_INT32"}}}, {"name": "StatefulPartitionedCall/jax2tf_apply_/ActorCriticTransformerFlats/ActorCriticTransformerFlats/Transformer_0/scan/while_3/merge/_228", "op": "Merge", "input": ["StatefulPartitionedCall/jax2tf_apply_/ActorCriticTransformerFlats/ActorCriticTransformerFlats/Transformer_0/scan/while_3/enter/_222", "StatefulPartitionedCall/jax2tf_apply_/ActorCriticTransformerFlats/ActorCriticTransformerFlats/Transformer_0/scan/while_3/next_iteration/_249"], "attr": {"N": {"i": "2"}, "T": {"type": "DT_INT32"}}}, {"name": "StatefulPartitionedCall/jax2tf_apply_/ActorCriticTransformerFlats/ActorCriticTransformerFlats/Transformer_0/scan/while_3/merge/_226", "op": "Merge", "input": ["StatefulPartitionedCall/jax2tf_apply_/ActorCriticTransformerFlats/ActorCriticTransformerFlats/Transformer_0/scan/while_3/enter/_220", "StatefulPartitionedCall/jax2tf_apply_/ActorCriticTransformerFlats/ActorCriticTransformerFlats/Transformer_0/scan/while_3/next_iteration/_247"], "attr": {"N": {"i": "2"}, "_has_manual_control_dependencies": {"b": true}, "T": {"type": "DT_INT32"}}}, {"name": "StatefulPartitionedCall/jax2tf_apply_/ActorCriticTransformerFlats/ActorCriticTransformerFlats/concat_7", "op": "ConcatV2", "input": ["StatefulPartitionedCall/jax2tf_apply_/ActorCriticTransformerFlats/ActorCriticTransformerFlats/BroadcastTo_8", "StatefulPartitionedCall/jax2tf_apply_/ActorCriticTransformerFlats/ActorCriticTransformerFlats/concat_6", "StatefulPartitionedCall/jax2tf_apply_/ActorCriticTransformerFlats/ActorCriticTransformerFlats/Cast_9/x"], "attr": {"N": {"i": "2"}, "T": {"type": "DT_BOOL"}, "Tidx": {"type": "DT_INT32"}}}, {"name": "StatefulPartitionedCall/jax2tf_apply_/ActorCriticTransformerFlats/ActorCriticTransformerFlats/Transformer_0/StridedSlice_5", "op": "StridedSlice", "input": ["StatefulPartitionedCall/jax2tf_apply_/ActorCriticTransformerFlats/ActorCriticTransformerFlats/pjit_fn_/AddV2", "StatefulPartitionedCall/jax2tf_apply_/ActorCriticTransformerFlats/ActorCriticTransformerFlats/Transformer_0/clip_by_value_11", "StatefulPartitionedCall/jax2tf_apply_/ActorCriticTransformerFlats/ActorCriticTransformerFlats/Transformer_0/add_5", "StatefulPartitionedCall/jax2tf_apply_/ActorCriticTransformerFlats/ActorCriticTransformerFlats/Transformer_0/ones_like_5"], "attr": {"shrink_axis_mask": {"i": "2"}, "new_axis_mask": {"i": "0"}, "Index": {"type": "DT_INT32"}, "begin_mask": {"i": "0"}, "T": {"type": "DT_INT32"}, "end_mask": {"i": "0"}, "ellipsis_mask": {"i": "0"}}}, {"name": "StatefulPartitionedCall/jax2tf_apply_/ActorCriticTransformerFlats/ActorCriticTransformerFlats/Transformer_0/StridedSlice_3", "op": "StridedSlice", "input": ["StatefulPartitionedCall/jax2tf_apply_/ActorCriticTransformerFlats/ActorCriticTransformerFlats/pjit_fn_/AddV2", "StatefulPartitionedCall/jax2tf_apply_/ActorCriticTransformerFlats/ActorCriticTransformerFlats/Transformer_0/clip_by_value_6", "StatefulPartitionedCall/jax2tf_apply_/ActorCriticTransformerFlats/ActorCriticTransformerFlats/Transformer_0/add_3", "StatefulPartitionedCall/jax2tf_apply_/ActorCriticTransformerFlats/ActorCriticTransformerFlats/Transformer_0/ones_like_3"], "attr": {"shrink_axis_mask": {"i": "2"}, "Index": {"type": "DT_INT32"}, "new_axis_mask": {"i": "0"}, "begin_mask": {"i": "0"}, "T": {"type": "DT_INT32"}, "end_mask": {"i": "0"}, "ellipsis_mask": {"i": "0"}}}, {"name": "StatefulPartitionedCall/jax2tf_apply_/ActorCriticTransformerFlats/ActorCriticTransformerFlats/Transformer_0/StridedSlice_4", "op": "StridedSlice", "input": ["StatefulPartitionedCall/jax2tf_apply_/ActorCriticTransformerFlats/ActorCriticTransformerFlats/pjit_fn_/AddV2", "StatefulPartitionedCall/jax2tf_apply_/ActorCriticTransformerFlats/ActorCriticTransformerFlats/Transformer_0/clip_by_value_8", "StatefulPartitionedCall/jax2tf_apply_/ActorCriticTransformerFlats/ActorCriticTransformerFlats/Transformer_0/add_4", "StatefulPartitionedCall/jax2tf_apply_/ActorCriticTransformerFlats/ActorCriticTransformerFlats/Transformer_0/ones_like_4"], "attr": {"shrink_axis_mask": {"i": "2"}, "Index": {"type": "DT_INT32"}, "new_axis_mask": {"i": "0"}, "begin_mask": {"i": "0"}, "end_mask": {"i": "0"}, "T": {"type": "DT_INT32"}, "ellipsis_mask": {"i": "0"}}}, {"name": "StatefulPartitionedCall/jax2tf_apply_/ActorCriticTransformerFlats/ActorCriticTransformerFlats/Transformer_0/StridedSlice_2", "op": "StridedSlice", "input": ["StatefulPartitionedCall/jax2tf_apply_/ActorCriticTransformerFlats/ActorCriticTransformerFlats/pjit_fn_/AddV2", "StatefulPartitionedCall/jax2tf_apply_/ActorCriticTransformerFlats/ActorCriticTransformerFlats/Transformer_0/clip_by_value_5", "StatefulPartitionedCall/jax2tf_apply_/ActorCriticTransformerFlats/ActorCriticTransformerFlats/Transformer_0/add_2", "StatefulPartitionedCall/jax2tf_apply_/ActorCriticTransformerFlats/ActorCriticTransformerFlats/Transformer_0/ones_like_2"], "attr": {"shrink_axis_mask": {"i": "2"}, "new_axis_mask": {"i": "0"}, "Index": {"type": "DT_INT32"}, "begin_mask": {"i": "0"}, "T": {"type": "DT_INT32"}, "end_mask": {"i": "0"}, "ellipsis_mask": {"i": "0"}}}, {"name": "StatefulPartitionedCall/jax2tf_apply_/ActorCriticTransformerFlats/ActorCriticTransformerFlats/Transformer_0/StridedSlice", "op": "StridedSlice", "input": ["StatefulPartitionedCall/jax2tf_apply_/ActorCriticTransformerFlats/ActorCriticTransformerFlats/pjit_fn_/AddV2", "StatefulPartitionedCall/jax2tf_apply_/ActorCriticTransformerFlats/ActorCriticTransformerFlats/Transformer_0/clip_by_value", "StatefulPartitionedCall/jax2tf_apply_/ActorCriticTransformerFlats/ActorCriticTransformerFlats/Transformer_0/add", "StatefulPartitionedCall/jax2tf_apply_/ActorCriticTransformerFlats/ActorCriticTransformerFlats/Transformer_0/ones_like"], "attr": {"shrink_axis_mask": {"i": "2"}, "Index": {"type": "DT_INT32"}, "new_axis_mask": {"i": "0"}, "begin_mask": {"i": "0"}, "T": {"type": "DT_INT32"}, "end_mask": {"i": "0"}, "ellipsis_mask": {"i": "0"}}}, {"name": "StatefulPartitionedCall/jax2tf_apply_/ActorCriticTransformerFlats/ActorCriticTransformerFlats/Transformer_0/StridedSlice_1", "op": "StridedSlice", "input": ["StatefulPartitionedCall/jax2tf_apply_/ActorCriticTransformerFlats/ActorCriticTransformerFlats/pjit_fn_/AddV2", "StatefulPartitionedCall/jax2tf_apply_/ActorCriticTransformerFlats/ActorCriticTransformerFlats/Transformer_0/clip_by_value_2", "StatefulPartitionedCall/jax2tf_apply_/ActorCriticTransformerFlats/ActorCriticTransformerFlats/Transformer_0/add_1", "StatefulPartitionedCall/jax2tf_apply_/ActorCriticTransformerFlats/ActorCriticTransformerFlats/Transformer_0/ones_like_1"], "attr": {"shrink_axis_mask": {"i": "2"}, "new_axis_mask": {"i": "0"}, "Index": {"type": "DT_INT32"}, "begin_mask": {"i": "0"}, "T": {"type": "DT_INT32"}, "end_mask": {"i": "0"}, "ellipsis_mask": {"i": "0"}}}, {"name": "StatefulPartitionedCall/jax2tf_apply_/ActorCriticTransformerFlats/ActorCriticTransformerFlats/Transformer_0/scan/while_3/enter/_224", "op": "Enter", "input": ["StatefulPartitionedCall/jax2tf_apply_/ActorCriticTransformerFlats/ActorCriticTransformerFlats/pjit_fn_/AddV2_1"], "attr": {"is_constant": {"b": false}, "frame_name": {"s": "U3RhdGVmdWxQYXJ0aXRpb25lZENhbGwvamF4MnRmX2FwcGx5Xy9BY3RvckNyaXRpY1RyYW5zZm9ybWVyRmxhdHMvQWN0b3JDcml0aWNUcmFuc2Zvcm1lckZsYXRzL1RyYW5zZm9ybWVyXzAvc2Nhbi93aGlsZV8z"}, "T": {"type": "DT_INT32"}, "parallel_iterations": {"i": "10"}}}, {"name": "StatefulPartitionedCall/jax2tf_apply_/ActorCriticTransformerFlats/ActorCriticTransformerFlats/Transformer_0/scan/while_1/enter/_154", "op": "Enter", "input": ["StatefulPartitionedCall/jax2tf_apply_/ActorCriticTransformerFlats/ActorCriticTransformerFlats/pjit_fn_/AddV2_1"], "attr": {"is_constant": {"b": false}, "frame_name": {"s": "U3RhdGVmdWxQYXJ0aXRpb25lZENhbGwvamF4MnRmX2FwcGx5Xy9BY3RvckNyaXRpY1RyYW5zZm9ybWVyRmxhdHMvQWN0b3JDcml0aWNUcmFuc2Zvcm1lckZsYXRzL1RyYW5zZm9ybWVyXzAvc2Nhbi93aGlsZV8x"}, "T": {"type": "DT_INT32"}, "parallel_iterations": {"i": "10"}}}, {"name": "StatefulPartitionedCall/jax2tf_apply_/ActorCriticTransformerFlats/ActorCriticTransformerFlats/Transformer_0/pjit_fn_/Less_2", "op": "Less", "input": ["StatefulPartitionedCall/jax2tf_apply_/ActorCriticTransformerFlats/ActorCriticTransformerFlats/pjit_fn_/AddV2_1", "StatefulPartitionedCall/Const_26"], "attr": {"T": {"type": "DT_INT32"}}}, {"name": "StatefulPartitionedCall/jax2tf_apply_/ActorCriticTransformerFlats/ActorCriticTransformerFlats/Transformer_0/AddV2_2", "op": "AddV2", "input": ["StatefulPartitionedCall/jax2tf_apply_/ActorCriticTransformerFlats/ActorCriticTransformerFlats/pjit_fn_/AddV2_1", "StatefulPartitionedCall/Const_27"], "attr": {"T": {"type": "DT_INT32"}}}, {"name": "StatefulPartitionedCall/jax2tf_apply_/ActorCriticTransformerFlats/ActorCriticTransformerFlats/Transformer_0/pjit_fn_/Less_5", "op": "Less", "input": ["StatefulPartitionedCall/jax2tf_apply_/ActorCriticTransformerFlats/ActorCriticTransformerFlats/pjit_fn_/AddV2_1", "StatefulPartitionedCall/Const_43"], "attr": {"T": {"type": "DT_INT32"}}}, {"name": "StatefulPartitionedCall/jax2tf_apply_/ActorCriticTransformerFlats/ActorCriticTransformerFlats/Transformer_0/AddV2_5", "op": "AddV2", "input": ["StatefulPartitionedCall/jax2tf_apply_/ActorCriticTransformerFlats/ActorCriticTransformerFlats/pjit_fn_/AddV2_1", "StatefulPartitionedCall/Const_44"], "attr": {"T": {"type": "DT_INT32"}}}, {"name": "StatefulPartitionedCall/jax2tf_apply_/ActorCriticTransformerFlats/ActorCriticTransformerFlats/concat", "op": "ConcatV2", "input": ["StatefulPartitionedCall/jax2tf_apply_/ActorCriticTransformerFlats/ActorCriticTransformerFlats/pjit_tanh_/Tanh", "StatefulPartitionedCall/jax2tf_apply_/ActorCriticTransformerFlats/ActorCriticTransformerFlats/transpose_2", "StatefulPartitionedCall/jax2tf_apply_/ActorCriticTransformerFlats/ActorCriticTransformerFlats/Cast_1/x"], "attr": {"N": {"i": "2"}, "Tidx": {"type": "DT_INT32"}, "T": {"type": "DT_FLOAT"}}}, {"name": "StatefulPartitionedCall/jax2tf_apply_/ActorCriticTransformerFlats/ActorCriticTransformerFlats/concat_1", "op": "ConcatV2", "input": ["StatefulPartitionedCall/jax2tf_apply_/ActorCriticTransformerFlats/ActorCriticTransformerFlats/pjit_tanh_/Tanh_1", "StatefulPartitionedCall/jax2tf_apply_/ActorCriticTransformerFlats/ActorCriticTransformerFlats/transpose_5", "StatefulPartitionedCall/jax2tf_apply_/ActorCriticTransformerFlats/ActorCriticTransformerFlats/Cast_3/x"], "attr": {"N": {"i": "2"}, "Tidx": {"type": "DT_INT32"}, "T": {"type": "DT_FLOAT"}}}, {"name": "StatefulPartitionedCall/jax2tf_apply_/ActorCriticTransformerFlats/ActorCriticTransformerFlats/Transformer_0/pjit_fn_/Cast_1", "op": "Cast", "input": ["StatefulPartitionedCall/jax2tf_apply_/ActorCriticTransformerFlats/ActorCriticTransformerFlats/Transformer_0/Reshape_11"], "attr": {"SrcT": {"type": "DT_BOOL"}, "DstT": {"type": "DT_FLOAT"}, "Truncate": {"b": false}}}, {"name": "StatefulPartitionedCall/jax2tf_apply_/ActorCriticTransformerFlats/ActorCriticTransformerFlats/Transformer_0/pjit_fn_/Cast_3", "op": "Cast", "input": ["StatefulPartitionedCall/jax2tf_apply_/ActorCriticTransformerFlats/ActorCriticTransformerFlats/Transformer_0/Reshape_25"], "attr": {"SrcT": {"type": "DT_BOOL"}, "DstT": {"type": "DT_FLOAT"}, "Truncate": {"b": false}}}, {"name": "StatefulPartitionedCall/jax2tf_apply_/ActorCriticTransformerFlats/ActorCriticTransformerFlats/pjit__lambda__/Reshape", "op": "Reshape", "input": ["StatefulPartitionedCall/jax2tf_apply_/ActorCriticTransformerFlats/ActorCriticTransformerFlats/concat_5", "StatefulPartitionedCall/jax2tf_apply_/ActorCriticTransformerFlats/ActorCriticTransformerFlats/pjit__lambda__/Reshape/shape"], "attr": {"T": {"type": "DT_BOOL"}, "Tshape": {"type": "DT_INT32"}}}, {"name": "StatefulPartitionedCall/jax2tf_apply_/ActorCriticTransformerFlats/ActorCriticTransformerFlats/pjit__lambda__/Reshape_1", "op": "Reshape", "input": ["StatefulPartitionedCall/jax2tf_apply_/ActorCriticTransformerFlats/ActorCriticTransformerFlats/concat_5", "StatefulPartitionedCall/jax2tf_apply_/ActorCriticTransformerFlats/ActorCriticTransformerFlats/pjit__lambda__/Reshape_1/shape"], "attr": {"T": {"type": "DT_BOOL"}, "Tshape": {"type": "DT_INT32"}}}, {"name": "StatefulPartitionedCall/jax2tf_apply_/ActorCriticTransformerFlats/ActorCriticTransformerFlats/Reshape_18", "op": "Reshape", "input": ["StatefulPartitionedCall/jax2tf_apply_/ActorCriticTransformerFlats/ActorCriticTransformerFlats/concat_5", "StatefulPartitionedCall/jax2tf_apply_/ActorCriticTransformerFlats/ActorCriticTransformerFlats/Reshape_18/shape"], "attr": {"T": {"type": "DT_BOOL"}, "Tshape": {"type": "DT_INT32"}}}, {"name": "StatefulPartitionedCall/jax2tf_apply_/ActorCriticTransformerFlats/ActorCriticTransformerFlats/Transformer_0/pjit_fn_/Cast_2", "op": "Cast", "input": ["StatefulPartitionedCall/jax2tf_apply_/ActorCriticTransformerFlats/ActorCriticTransformerFlats/Transformer_0/Reshape_22"], "attr": {"SrcT": {"type": "DT_BOOL"}, "DstT": {"type": "DT_FLOAT"}, "Truncate": {"b": false}}}, {"name": "StatefulPartitionedCall/jax2tf_apply_/ActorCriticTransformerFlats/ActorCriticTransformerFlats/Transformer_0/pjit_fn_/Cast", "op": "Cast", "input": ["StatefulPartitionedCall/jax2tf_apply_/ActorCriticTransformerFlats/ActorCriticTransformerFlats/Transformer_0/Reshape_8"], "attr": {"SrcT": {"type": "DT_BOOL"}, "DstT": {"type": "DT_FLOAT"}, "Truncate": {"b": false}}}, {"name": "StatefulPartitionedCall/jax2tf_apply_/ActorCriticTransformerFlats/ActorCriticTransformerFlats/Transformer_0/scan/while_2/cond/_183/jax2tf_apply_/ActorCriticTransformerFlats/ActorCriticTransformerFlats/Transformer_0/scan/while_2/Const", "op": "Const", "input": ["^StatefulPartitionedCall/jax2tf_apply_/ActorCriticTransformerFlats/ActorCriticTransformerFlats/Transformer_0/scan/while_2/merge/_191"], "attr": {"value": {"tensor": {"dtype": "DT_INT32", "tensorShape": {}}}, "dtype": {"type": "DT_INT32"}}}, {"name": "StatefulPartitionedCall/jax2tf_apply_/ActorCriticTransformerFlats/ActorCriticTransformerFlats/Transformer_0/scan/while/cond/_113/jax2tf_apply_/ActorCriticTransformerFlats/ActorCriticTransformerFlats/Transformer_0/scan/while/Const", "op": "Const", "input": ["^StatefulPartitionedCall/jax2tf_apply_/ActorCriticTransformerFlats/ActorCriticTransformerFlats/Transformer_0/scan/while/merge/_121"], "attr": {"value": {"tensor": {"dtype": "DT_INT32", "tensorShape": {}}}, "dtype": {"type": "DT_INT32"}}}, {"name": "StatefulPartitionedCall/jax2tf_apply_/ActorCriticTransformerFlats/ActorCriticTransformerFlats/Transformer_0/scan/while_1/cond/_148/jax2tf_apply_/ActorCriticTransformerFlats/ActorCriticTransformerFlats/Transformer_0/scan/while_1/Const", "op": "Const", "input": ["^StatefulPartitionedCall/jax2tf_apply_/ActorCriticTransformerFlats/ActorCriticTransformerFlats/Transformer_0/scan/while_1/merge/_156"], "attr": {"value": {"tensor": {"dtype": "DT_INT32", "tensorShape": {}}}, "dtype": {"type": "DT_INT32"}}}, {"name": "StatefulPartitionedCall/jax2tf_apply_/ActorCriticTransformerFlats/ActorCriticTransformerFlats/Transformer_0/scan/while_3/cond/_218/jax2tf_apply_/ActorCriticTransformerFlats/ActorCriticTransformerFlats/Transformer_0/scan/while_3/Const", "op": "Const", "input": ["^StatefulPartitionedCall/jax2tf_apply_/ActorCriticTransformerFlats/ActorCriticTransformerFlats/Transformer_0/scan/while_3/merge/_226"], "attr": {"value": {"tensor": {"dtype": "DT_INT32", "tensorShape": {}}}, "dtype": {"type": "DT_INT32"}}}, {"name": "StatefulPartitionedCall/jax2tf_apply_/ActorCriticTransformerFlats/ActorCriticTransformerFlats/Transformer_0/Reshape_27", "op": "Reshape", "input": ["StatefulPartitionedCall/jax2tf_apply_/ActorCriticTransformerFlats/ActorCriticTransformerFlats/Transformer_0/StridedSlice_5", "StatefulPartitionedCall/jax2tf_apply_/ActorCriticTransformerFlats/ActorCriticTransformerFlats/Transformer_0/Reshape_27/shape"], "attr": {"T": {"type": "DT_INT32"}, "Tshape": {"type": "DT_INT32"}}}, {"name": "StatefulPartitionedCall/jax2tf_apply_/ActorCriticTransformerFlats/ActorCriticTransformerFlats/Transformer_0/Reshape_15", "op": "Reshape", "input": ["StatefulPartitionedCall/jax2tf_apply_/ActorCriticTransformerFlats/ActorCriticTransformerFlats/Transformer_0/StridedSlice_3", "StatefulPartitionedCall/jax2tf_apply_/ActorCriticTransformerFlats/ActorCriticTransformerFlats/Transformer_0/Reshape_15/shape"], "attr": {"T": {"type": "DT_INT32"}, "Tshape": {"type": "DT_INT32"}}}, {"name": "StatefulPartitionedCall/jax2tf_apply_/ActorCriticTransformerFlats/ActorCriticTransformerFlats/Transformer_0/Reshape_19", "op": "Reshape", "input": ["StatefulPartitionedCall/jax2tf_apply_/ActorCriticTransformerFlats/ActorCriticTransformerFlats/Transformer_0/StridedSlice_4", "StatefulPartitionedCall/jax2tf_apply_/ActorCriticTransformerFlats/ActorCriticTransformerFlats/Transformer_0/Reshape_19/shape"], "attr": {"T": {"type": "DT_INT32"}, "Tshape": {"type": "DT_INT32"}}}, {"name": "StatefulPartitionedCall/jax2tf_apply_/ActorCriticTransformerFlats/ActorCriticTransformerFlats/Transformer_0/Reshape_13", "op": "Reshape", "input": ["StatefulPartitionedCall/jax2tf_apply_/ActorCriticTransformerFlats/ActorCriticTransformerFlats/Transformer_0/StridedSlice_2", "StatefulPartitionedCall/jax2tf_apply_/ActorCriticTransformerFlats/ActorCriticTransformerFlats/Transformer_0/Reshape_13/shape"], "attr": {"T": {"type": "DT_INT32"}, "Tshape": {"type": "DT_INT32"}}}, {"name": "StatefulPartitionedCall/jax2tf_apply_/ActorCriticTransformerFlats/ActorCriticTransformerFlats/Transformer_0/Reshape_1", "op": "Reshape", "input": ["StatefulPartitionedCall/jax2tf_apply_/ActorCriticTransformerFlats/ActorCriticTransformerFlats/Transformer_0/StridedSlice", "StatefulPartitionedCall/jax2tf_apply_/ActorCriticTransformerFlats/ActorCriticTransformerFlats/Transformer_0/Reshape_1/shape"], "attr": {"T": {"type": "DT_INT32"}, "Tshape": {"type": "DT_INT32"}}}, {"name": "StatefulPartitionedCall/jax2tf_apply_/ActorCriticTransformerFlats/ActorCriticTransformerFlats/Transformer_0/Reshape_5", "op": "Reshape", "input": ["StatefulPartitionedCall/jax2tf_apply_/ActorCriticTransformerFlats/ActorCriticTransformerFlats/Transformer_0/StridedSlice_1", "StatefulPartitionedCall/jax2tf_apply_/ActorCriticTransformerFlats/ActorCriticTransformerFlats/Transformer_0/Reshape_5/shape"], "attr": {"T": {"type": "DT_INT32"}, "Tshape": {"type": "DT_INT32"}}}, {"name": "StatefulPartitionedCall/jax2tf_apply_/ActorCriticTransformerFlats/ActorCriticTransformerFlats/Transformer_0/scan/while_3/merge/_230", "op": "Merge", "input": ["StatefulPartitionedCall/jax2tf_apply_/ActorCriticTransformerFlats/ActorCriticTransformerFlats/Transformer_0/scan/while_3/enter/_224", "StatefulPartitionedCall/jax2tf_apply_/ActorCriticTransformerFlats/ActorCriticTransformerFlats/Transformer_0/scan/while_3/next_iteration/_251"], "attr": {"N": {"i": "2"}, "T": {"type": "DT_INT32"}}}, {"name": "StatefulPartitionedCall/jax2tf_apply_/ActorCriticTransformerFlats/ActorCriticTransformerFlats/Transformer_0/scan/while_1/merge/_160", "op": "Merge", "input": ["StatefulPartitionedCall/jax2tf_apply_/ActorCriticTransformerFlats/ActorCriticTransformerFlats/Transformer_0/scan/while_1/enter/_154", "StatefulPartitionedCall/jax2tf_apply_/ActorCriticTransformerFlats/ActorCriticTransformerFlats/Transformer_0/scan/while_1/next_iteration/_181"], "attr": {"N": {"i": "2"}, "T": {"type": "DT_INT32"}}}, {"name": "StatefulPartitionedCall/jax2tf_apply_/ActorCriticTransformerFlats/ActorCriticTransformerFlats/Transformer_0/SelectV2_2", "op": "SelectV2", "input": ["StatefulPartitionedCall/jax2tf_apply_/ActorCriticTransformerFlats/ActorCriticTransformerFlats/Transformer_0/pjit_fn_/Less_2", "StatefulPartitionedCall/jax2tf_apply_/ActorCriticTransformerFlats/ActorCriticTransformerFlats/Transformer_0/AddV2_2", "StatefulPartitionedCall/jax2tf_apply_/ActorCriticTransformerFlats/ActorCriticTransformerFlats/pjit_fn_/AddV2_1"], "attr": {"T": {"type": "DT_INT32"}}}, {"name": "StatefulPartitionedCall/jax2tf_apply_/ActorCriticTransformerFlats/ActorCriticTransformerFlats/Transformer_0/SelectV2_5", "op": "SelectV2", "input": ["StatefulPartitionedCall/jax2tf_apply_/ActorCriticTransformerFlats/ActorCriticTransformerFlats/Transformer_0/pjit_fn_/Less_5", "StatefulPartitionedCall/jax2tf_apply_/ActorCriticTransformerFlats/ActorCriticTransformerFlats/Transformer_0/AddV2_5", "StatefulPartitionedCall/jax2tf_apply_/ActorCriticTransformerFlats/ActorCriticTransformerFlats/pjit_fn_/AddV2_1"], "attr": {"T": {"type": "DT_INT32"}}}, {"name": "StatefulPartitionedCall/jax2tf_apply_/ActorCriticTransformerFlats/ActorCriticTransformerFlats/concat_4", "op": "ConcatV2", "input": ["StatefulPartitionedCall/jax2tf_apply_/ActorCriticTransformerFlats/ActorCriticTransformerFlats/BroadcastTo_6", "StatefulPartitionedCall/jax2tf_apply_/ActorCriticTransformerFlats/ActorCriticTransformerFlats/concat_1", "StatefulPartitionedCall/jax2tf_apply_/ActorCriticTransformerFlats/ActorCriticTransformerFlats/concat", "StatefulPartitionedCall/jax2tf_apply_/ActorCriticTransformerFlats/ActorCriticTransformerFlats/Cast_6/x"], "attr": {"N": {"i": "3"}, "T": {"type": "DT_FLOAT"}, "Tidx": {"type": "DT_INT32"}}}, {"name": "StatefulPartitionedCall/jax2tf_apply_/ActorCriticTransformerFlats/ActorCriticTransformerFlats/pjit__lambda__/LogicalAnd", "op": "LogicalAnd", "input": ["StatefulPartitionedCall/jax2tf_apply_/ActorCriticTransformerFlats/ActorCriticTransformerFlats/concat_7", "StatefulPartitionedCall/jax2tf_apply_/ActorCriticTransformerFlats/ActorCriticTransformerFlats/pjit__lambda__/Reshape"]}, {"name": "StatefulPartitionedCall/jax2tf_apply_/ActorCriticTransformerFlats/ActorCriticTransformerFlats/pjit__mean_/pjit__where_/BroadcastTo", "op": "BroadcastTo", "input": ["StatefulPartitionedCall/jax2tf_apply_/ActorCriticTransformerFlats/ActorCriticTransformerFlats/Reshape_18", "StatefulPartitionedCall/jax2tf_apply_/ActorCriticTransformerFlats/ActorCriticTransformerFlats/pjit__mean_/pjit__where_/BroadcastTo/shape"], "attr": {"T": {"type": "DT_BOOL"}, "Tidx": {"type": "DT_INT32"}}}, {"name": "StatefulPartitionedCall/jax2tf_apply_/ActorCriticTransformerFlats/ActorCriticTransformerFlats/pjit__mean_/BroadcastTo", "op": "BroadcastTo", "input": ["StatefulPartitionedCall/jax2tf_apply_/ActorCriticTransformerFlats/ActorCriticTransformerFlats/Reshape_18", "StatefulPartitionedCall/jax2tf_apply_/ActorCriticTransformerFlats/ActorCriticTransformerFlats/pjit__mean_/BroadcastTo/shape"], "attr": {"T": {"type": "DT_BOOL"}, "Tidx": {"type": "DT_INT32"}}}, {"name": "StatefulPartitionedCall/jax2tf_apply_/ActorCriticTransformerFlats/ActorCriticTransformerFlats/Transformer_0/scan/while_2/cond/_183/jax2tf_apply_/ActorCriticTransformerFlats/ActorCriticTransformerFlats/Transformer_0/scan/while/cond/Less", "op": "Less", "input": ["StatefulPartitionedCall/jax2tf_apply_/ActorCriticTransformerFlats/ActorCriticTransformerFlats/Transformer_0/scan/while_2/merge/_193", "StatefulPartitionedCall/jax2tf_apply_/ActorCriticTransformerFlats/ActorCriticTransformerFlats/Transformer_0/scan/while_2/cond/_183/jax2tf_apply_/ActorCriticTransformerFlats/ActorCriticTransformerFlats/Transformer_0/scan/while_2/Const", "^StatefulPartitionedCall/jax2tf_apply_/ActorCriticTransformerFlats/ActorCriticTransformerFlats/Transformer_0/scan/while_2/merge/_191"], "attr": {"T": {"type": "DT_INT32"}}}, {"name": "StatefulPartitionedCall/jax2tf_apply_/ActorCriticTransformerFlats/ActorCriticTransformerFlats/Transformer_0/scan/while/cond/_113/jax2tf_apply_/ActorCriticTransformerFlats/ActorCriticTransformerFlats/Transformer_0/scan/while/cond/Less", "op": "Less", "input": ["StatefulPartitionedCall/jax2tf_apply_/ActorCriticTransformerFlats/ActorCriticTransformerFlats/Transformer_0/scan/while/merge/_123", "StatefulPartitionedCall/jax2tf_apply_/ActorCriticTransformerFlats/ActorCriticTransformerFlats/Transformer_0/scan/while/cond/_113/jax2tf_apply_/ActorCriticTransformerFlats/ActorCriticTransformerFlats/Transformer_0/scan/while/Const", "^StatefulPartitionedCall/jax2tf_apply_/ActorCriticTransformerFlats/ActorCriticTransformerFlats/Transformer_0/scan/while/merge/_121"], "attr": {"T": {"type": "DT_INT32"}}}, {"name": "StatefulPartitionedCall/jax2tf_apply_/ActorCriticTransformerFlats/ActorCriticTransformerFlats/Transformer_0/scan/while_1/cond/_148/jax2tf_apply_/ActorCriticTransformerFlats/ActorCriticTransformerFlats/Transformer_0/scan/while/cond/Less", "op": "Less", "input": ["StatefulPartitionedCall/jax2tf_apply_/ActorCriticTransformerFlats/ActorCriticTransformerFlats/Transformer_0/scan/while_1/merge/_158", "StatefulPartitionedCall/jax2tf_apply_/ActorCriticTransformerFlats/ActorCriticTransformerFlats/Transformer_0/scan/while_1/cond/_148/jax2tf_apply_/ActorCriticTransformerFlats/ActorCriticTransformerFlats/Transformer_0/scan/while_1/Const", "^StatefulPartitionedCall/jax2tf_apply_/ActorCriticTransformerFlats/ActorCriticTransformerFlats/Transformer_0/scan/while_1/merge/_156"], "attr": {"T": {"type": "DT_INT32"}}}, {"name": "StatefulPartitionedCall/jax2tf_apply_/ActorCriticTransformerFlats/ActorCriticTransformerFlats/Transformer_0/scan/while_3/cond/_218/jax2tf_apply_/ActorCriticTransformerFlats/ActorCriticTransformerFlats/Transformer_0/scan/while/cond/Less", "op": "Less", "input": ["StatefulPartitionedCall/jax2tf_apply_/ActorCriticTransformerFlats/ActorCriticTransformerFlats/Transformer_0/scan/while_3/merge/_228", "StatefulPartitionedCall/jax2tf_apply_/ActorCriticTransformerFlats/ActorCriticTransformerFlats/Transformer_0/scan/while_3/cond/_218/jax2tf_apply_/ActorCriticTransformerFlats/ActorCriticTransformerFlats/Transformer_0/scan/while_3/Const", "^StatefulPartitionedCall/jax2tf_apply_/ActorCriticTransformerFlats/ActorCriticTransformerFlats/Transformer_0/scan/while_3/merge/_226"], "attr": {"T": {"type": "DT_INT32"}}}, {"name": "StatefulPartitionedCall/jax2tf_apply_/ActorCriticTransformerFlats/ActorCriticTransformerFlats/Transformer_0/scan/while_2/enter/_189", "op": "Enter", "input": ["StatefulPartitionedCall/jax2tf_apply_/ActorCriticTransformerFlats/ActorCriticTransformerFlats/Transformer_0/Reshape_27"], "attr": {"is_constant": {"b": false}, "frame_name": {"s": "U3RhdGVmdWxQYXJ0aXRpb25lZENhbGwvamF4MnRmX2FwcGx5Xy9BY3RvckNyaXRpY1RyYW5zZm9ybWVyRmxhdHMvQWN0b3JDcml0aWNUcmFuc2Zvcm1lckZsYXRzL1RyYW5zZm9ybWVyXzAvc2Nhbi93aGlsZV8y"}, "T": {"type": "DT_INT32"}, "parallel_iterations": {"i": "10"}}}, {"name": "StatefulPartitionedCall/jax2tf_apply_/ActorCriticTransformerFlats/ActorCriticTransformerFlats/Transformer_0/pjit_fn_/Less_3", "op": "Less", "input": ["StatefulPartitionedCall/jax2tf_apply_/ActorCriticTransformerFlats/ActorCriticTransformerFlats/Transformer_0/Reshape_15", "StatefulPartitionedCall/Const_38"], "attr": {"T": {"type": "DT_INT32"}}}, {"name": "StatefulPartitionedCall/jax2tf_apply_/ActorCriticTransformerFlats/ActorCriticTransformerFlats/Transformer_0/AddV2_3", "op": "AddV2", "input": ["StatefulPartitionedCall/jax2tf_apply_/ActorCriticTransformerFlats/ActorCriticTransformerFlats/Transformer_0/Reshape_15", "StatefulPartitionedCall/Const_39"], "attr": {"T": {"type": "DT_INT32"}}}, {"name": "StatefulPartitionedCall/jax2tf_apply_/ActorCriticTransformerFlats/ActorCriticTransformerFlats/Transformer_0/pjit_fn_/Less_4", "op": "Less", "input": ["StatefulPartitionedCall/jax2tf_apply_/ActorCriticTransformerFlats/ActorCriticTransformerFlats/Transformer_0/Reshape_19", "StatefulPartitionedCall/Const_41"], "attr": {"T": {"type": "DT_INT32"}}}, {"name": "StatefulPartitionedCall/jax2tf_apply_/ActorCriticTransformerFlats/ActorCriticTransformerFlats/Transformer_0/AddV2_4", "op": "AddV2", "input": ["StatefulPartitionedCall/jax2tf_apply_/ActorCriticTransformerFlats/ActorCriticTransformerFlats/Transformer_0/Reshape_19", "StatefulPartitionedCall/Const_42"], "attr": {"T": {"type": "DT_INT32"}}}, {"name": "StatefulPartitionedCall/jax2tf_apply_/ActorCriticTransformerFlats/ActorCriticTransformerFlats/Transformer_0/scan/while/enter/_119", "op": "Enter", "input": ["StatefulPartitionedCall/jax2tf_apply_/ActorCriticTransformerFlats/ActorCriticTransformerFlats/Transformer_0/Reshape_13"], "attr": {"is_constant": {"b": false}, "frame_name": {"s": "U3RhdGVmdWxQYXJ0aXRpb25lZENhbGwvamF4MnRmX2FwcGx5Xy9BY3RvckNyaXRpY1RyYW5zZm9ybWVyRmxhdHMvQWN0b3JDcml0aWNUcmFuc2Zvcm1lckZsYXRzL1RyYW5zZm9ybWVyXzAvc2Nhbi93aGlsZQ=="}, "T": {"type": "DT_INT32"}, "parallel_iterations": {"i": "10"}}}, {"name": "StatefulPartitionedCall/jax2tf_apply_/ActorCriticTransformerFlats/ActorCriticTransformerFlats/Transformer_0/pjit_fn_/Less", "op": "Less", "input": ["StatefulPartitionedCall/jax2tf_apply_/ActorCriticTransformerFlats/ActorCriticTransformerFlats/Transformer_0/Reshape_1", "StatefulPartitionedCall/Const_21"], "attr": {"T": {"type": "DT_INT32"}}}, {"name": "StatefulPartitionedCall/jax2tf_apply_/ActorCriticTransformerFlats/ActorCriticTransformerFlats/Transformer_0/AddV2", "op": "AddV2", "input": ["StatefulPartitionedCall/jax2tf_apply_/ActorCriticTransformerFlats/ActorCriticTransformerFlats/Transformer_0/Reshape_1", "StatefulPartitionedCall/Const_22"], "attr": {"T": {"type": "DT_INT32"}}}, {"name": "StatefulPartitionedCall/jax2tf_apply_/ActorCriticTransformerFlats/ActorCriticTransformerFlats/Transformer_0/pjit_fn_/Less_1", "op": "Less", "input": ["StatefulPartitionedCall/jax2tf_apply_/ActorCriticTransformerFlats/ActorCriticTransformerFlats/Transformer_0/Reshape_5", "StatefulPartitionedCall/Const_24"], "attr": {"T": {"type": "DT_INT32"}}}, {"name": "StatefulPartitionedCall/jax2tf_apply_/ActorCriticTransformerFlats/ActorCriticTransformerFlats/Transformer_0/AddV2_1", "op": "AddV2", "input": ["StatefulPartitionedCall/jax2tf_apply_/ActorCriticTransformerFlats/ActorCriticTransformerFlats/Transformer_0/Reshape_5", "StatefulPartitionedCall/Const_25"], "attr": {"T": {"type": "DT_INT32"}}}, {"name": "StatefulPartitionedCall/jax2tf_apply_/ActorCriticTransformerFlats/ActorCriticTransformerFlats/Transformer_0/Reshape_9", "op": "Reshape", "input": ["StatefulPartitionedCall/jax2tf_apply_/ActorCriticTransformerFlats/ActorCriticTransformerFlats/Transformer_0/SelectV2_2", "StatefulPartitionedCall/jax2tf_apply_/ActorCriticTransformerFlats/ActorCriticTransformerFlats/Transformer_0/Reshape_9/shape"], "attr": {"T": {"type": "DT_INT32"}, "Tshape": {"type": "DT_INT32"}}}, {"name": "StatefulPartitionedCall/jax2tf_apply_/ActorCriticTransformerFlats/ActorCriticTransformerFlats/Transformer_0/Reshape_23", "op": "Reshape", "input": ["StatefulPartitionedCall/jax2tf_apply_/ActorCriticTransformerFlats/ActorCriticTransformerFlats/Transformer_0/SelectV2_5", "StatefulPartitionedCall/jax2tf_apply_/ActorCriticTransformerFlats/ActorCriticTransformerFlats/Transformer_0/Reshape_23/shape"], "attr": {"T": {"type": "DT_INT32"}, "Tshape": {"type": "DT_INT32"}}}, {"name": "StatefulPartitionedCall/jax2tf_apply_/ActorCriticTransformerFlats/ActorCriticTransformerFlats/Transformer_0/tf_layers_0/gate1/Dense_3/MatMul", "op": "MatMul", "input": ["StatefulPartitionedCall/jax2tf_apply_/ActorCriticTransformerFlats/ActorCriticTransformerFlats/concat_4", "StatefulPartitionedCall/jax2tf_arg_49/ReadVariableOp"], "device": "/device:CPU:0", "attr": {"transpose_a": {"b": false}, "grad_a": {"b": false}, "_input_shapes": {"list": {"shape": [{"dim": [{"size": "17"}, {"size": "128"}]}, {"dim": [{"size": "128"}, {"size": "128"}]}]}}, "T": {"type": "DT_FLOAT"}, "grad_b": {"b": false}, "transpose_b": {"b": false}}}, {"name": "StatefulPartitionedCall/jax2tf_apply_/ActorCriticTransformerFlats/ActorCriticTransformerFlats/Transformer_0/tf_layers_0/ln1/ArithmeticOptimizer/ReplaceMulWithSquare_Mul", "op": "Square", "input": ["StatefulPartitionedCall/jax2tf_apply_/ActorCriticTransformerFlats/ActorCriticTransformerFlats/concat_4"], "attr": {"T": {"type": "DT_FLOAT"}}}, {"name": "StatefulPartitionedCall/jax2tf_apply_/ActorCriticTransformerFlats/ActorCriticTransformerFlats/Transformer_0/tf_layers_0/ln1/pjit__mean_/Sum", "op": "Sum", "input": ["StatefulPartitionedCall/jax2tf_apply_/ActorCriticTransformerFlats/ActorCriticTransformerFlats/concat_4", "StatefulPartitionedCall/jax2tf_apply_/ActorCriticTransformerFlats/ActorCriticTransformerFlats/Transformer_0/tf_layers_0/ln1/pjit__mean_/Sum/reduction_indices"], "attr": {"Tidx": {"type": "DT_INT32"}, "T": {"type": "DT_FLOAT"}, "keep_dims": {"b": false}}}, {"name": "StatefulPartitionedCall/jax2tf_apply_/ActorCriticTransformerFlats/ActorCriticTransformerFlats/Transformer_0/tf_layers_0/gate1/Dense_1/MatMul", "op": "MatMul", "input": ["StatefulPartitionedCall/jax2tf_apply_/ActorCriticTransformerFlats/ActorCriticTransformerFlats/concat_4", "StatefulPartitionedCall/jax2tf_arg_47/ReadVariableOp"], "device": "/device:CPU:0", "attr": {"transpose_a": {"b": false}, "grad_a": {"b": false}, "_input_shapes": {"list": {"shape": [{"dim": [{"size": "17"}, {"size": "128"}]}, {"dim": [{"size": "128"}, {"size": "128"}]}]}}, "T": {"type": "DT_FLOAT"}, "grad_b": {"b": false}, "transpose_b": {"b": false}}}, {"name": "StatefulPartitionedCall/jax2tf_apply_/ActorCriticTransformerFlats/ActorCriticTransformerFlats/pjit__lambda__/LogicalAnd_1", "op": "LogicalAnd", "input": ["StatefulPartitionedCall/jax2tf_apply_/ActorCriticTransformerFlats/ActorCriticTransformerFlats/pjit__lambda__/LogicalAnd", "StatefulPartitionedCall/jax2tf_apply_/ActorCriticTransformerFlats/ActorCriticTransformerFlats/pjit__lambda__/Reshape_1"]}, {"name": "StatefulPartitionedCall/jax2tf_apply_/ActorCriticTransformerFlats/ActorCriticTransformerFlats/pjit__mean_/Cast", "op": "Cast", "input": ["StatefulPartitionedCall/jax2tf_apply_/ActorCriticTransformerFlats/ActorCriticTransformerFlats/pjit__mean_/BroadcastTo"], "attr": {"SrcT": {"type": "DT_BOOL"}, "DstT": {"type": "DT_INT32"}, "Truncate": {"b": false}}}, {"name": "StatefulPartitionedCall/jax2tf_apply_/ActorCriticTransformerFlats/ActorCriticTransformerFlats/Transformer_0/scan/while_2/LoopCond/_197", "op": "LoopCond", "input": ["StatefulPartitionedCall/jax2tf_apply_/ActorCriticTransformerFlats/ActorCriticTransformerFlats/Transformer_0/scan/while_2/cond/_183/jax2tf_apply_/ActorCriticTransformerFlats/ActorCriticTransformerFlats/Transformer_0/scan/while/cond/Less"]}, {"name": "StatefulPartitionedCall/jax2tf_apply_/ActorCriticTransformerFlats/ActorCriticTransformerFlats/Transformer_0/scan/while/LoopCond/_127", "op": "LoopCond", "input": ["StatefulPartitionedCall/jax2tf_apply_/ActorCriticTransformerFlats/ActorCriticTransformerFlats/Transformer_0/scan/while/cond/_113/jax2tf_apply_/ActorCriticTransformerFlats/ActorCriticTransformerFlats/Transformer_0/scan/while/cond/Less"]}, {"name": "StatefulPartitionedCall/jax2tf_apply_/ActorCriticTransformerFlats/ActorCriticTransformerFlats/Transformer_0/scan/while_1/LoopCond/_162", "op": "LoopCond", "input": ["StatefulPartitionedCall/jax2tf_apply_/ActorCriticTransformerFlats/ActorCriticTransformerFlats/Transformer_0/scan/while_1/cond/_148/jax2tf_apply_/ActorCriticTransformerFlats/ActorCriticTransformerFlats/Transformer_0/scan/while/cond/Less"]}, {"name": "StatefulPartitionedCall/jax2tf_apply_/ActorCriticTransformerFlats/ActorCriticTransformerFlats/Transformer_0/scan/while_3/LoopCond/_232", "op": "LoopCond", "input": ["StatefulPartitionedCall/jax2tf_apply_/ActorCriticTransformerFlats/ActorCriticTransformerFlats/Transformer_0/scan/while_3/cond/_218/jax2tf_apply_/ActorCriticTransformerFlats/ActorCriticTransformerFlats/Transformer_0/scan/while/cond/Less"]}, {"name": "StatefulPartitionedCall/jax2tf_apply_/ActorCriticTransformerFlats/ActorCriticTransformerFlats/Transformer_0/scan/while_2/merge/_195", "op": "Merge", "input": ["StatefulPartitionedCall/jax2tf_apply_/ActorCriticTransformerFlats/ActorCriticTransformerFlats/Transformer_0/scan/while_2/enter/_189", "StatefulPartitionedCall/jax2tf_apply_/ActorCriticTransformerFlats/ActorCriticTransformerFlats/Transformer_0/scan/while_2/next_iteration/_216"], "attr": {"N": {"i": "2"}, "T": {"type": "DT_INT32"}}}, {"name": "StatefulPartitionedCall/jax2tf_apply_/ActorCriticTransformerFlats/ActorCriticTransformerFlats/Transformer_0/SelectV2_3", "op": "SelectV2", "input": ["StatefulPartitionedCall/jax2tf_apply_/ActorCriticTransformerFlats/ActorCriticTransformerFlats/Transformer_0/pjit_fn_/Less_3", "StatefulPartitionedCall/jax2tf_apply_/ActorCriticTransformerFlats/ActorCriticTransformerFlats/Transformer_0/AddV2_3", "StatefulPartitionedCall/jax2tf_apply_/ActorCriticTransformerFlats/ActorCriticTransformerFlats/Transformer_0/Reshape_15"], "attr": {"T": {"type": "DT_INT32"}}}, {"name": "StatefulPartitionedCall/jax2tf_apply_/ActorCriticTransformerFlats/ActorCriticTransformerFlats/Transformer_0/SelectV2_4", "op": "SelectV2", "input": ["StatefulPartitionedCall/jax2tf_apply_/ActorCriticTransformerFlats/ActorCriticTransformerFlats/Transformer_0/pjit_fn_/Less_4", "StatefulPartitionedCall/jax2tf_apply_/ActorCriticTransformerFlats/ActorCriticTransformerFlats/Transformer_0/AddV2_4", "StatefulPartitionedCall/jax2tf_apply_/ActorCriticTransformerFlats/ActorCriticTransformerFlats/Transformer_0/Reshape_19"], "attr": {"T": {"type": "DT_INT32"}}}, {"name": "StatefulPartitionedCall/jax2tf_apply_/ActorCriticTransformerFlats/ActorCriticTransformerFlats/Transformer_0/scan/while/merge/_125", "op": "Merge", "input": ["StatefulPartitionedCall/jax2tf_apply_/ActorCriticTransformerFlats/ActorCriticTransformerFlats/Transformer_0/scan/while/enter/_119", "StatefulPartitionedCall/jax2tf_apply_/ActorCriticTransformerFlats/ActorCriticTransformerFlats/Transformer_0/scan/while/next_iteration/_146"], "attr": {"N": {"i": "2"}, "T": {"type": "DT_INT32"}}}, {"name": "StatefulPartitionedCall/jax2tf_apply_/ActorCriticTransformerFlats/ActorCriticTransformerFlats/Transformer_0/SelectV2", "op": "SelectV2", "input": ["StatefulPartitionedCall/jax2tf_apply_/ActorCriticTransformerFlats/ActorCriticTransformerFlats/Transformer_0/pjit_fn_/Less", "StatefulPartitionedCall/jax2tf_apply_/ActorCriticTransformerFlats/ActorCriticTransformerFlats/Transformer_0/AddV2", "StatefulPartitionedCall/jax2tf_apply_/ActorCriticTransformerFlats/ActorCriticTransformerFlats/Transformer_0/Reshape_1"], "attr": {"T": {"type": "DT_INT32"}}}, {"name": "StatefulPartitionedCall/jax2tf_apply_/ActorCriticTransformerFlats/ActorCriticTransformerFlats/Transformer_0/SelectV2_1", "op": "SelectV2", "input": ["StatefulPartitionedCall/jax2tf_apply_/ActorCriticTransformerFlats/ActorCriticTransformerFlats/Transformer_0/pjit_fn_/Less_1", "StatefulPartitionedCall/jax2tf_apply_/ActorCriticTransformerFlats/ActorCriticTransformerFlats/Transformer_0/AddV2_1", "StatefulPartitionedCall/jax2tf_apply_/ActorCriticTransformerFlats/ActorCriticTransformerFlats/Transformer_0/Reshape_5"], "attr": {"T": {"type": "DT_INT32"}}}, {"name": "StatefulPartitionedCall/jax2tf_apply_/ActorCriticTransformerFlats/ActorCriticTransformerFlats/Transformer_0/Squeeze_2", "op": "Squeeze", "input": ["StatefulPartitionedCall/jax2tf_apply_/ActorCriticTransformerFlats/ActorCriticTransformerFlats/Transformer_0/Reshape_9"], "attr": {"T": {"type": "DT_INT32"}, "squeeze_dims": {"list": {"i": ["-1"]}}}}, {"name": "StatefulPartitionedCall/jax2tf_apply_/ActorCriticTransformerFlats/ActorCriticTransformerFlats/Transformer_0/Squeeze_5", "op": "Squeeze", "input": ["StatefulPartitionedCall/jax2tf_apply_/ActorCriticTransformerFlats/ActorCriticTransformerFlats/Transformer_0/Reshape_23"], "attr": {"T": {"type": "DT_INT32"}, "squeeze_dims": {"list": {"i": ["-1"]}}}}, {"name": "StatefulPartitionedCall/jax2tf_apply_/ActorCriticTransformerFlats/ActorCriticTransformerFlats/Transformer_0/tf_layers_0/gate1/pjit_fn_/AddV2_1", "op": "Sub", "input": ["StatefulPartitionedCall/jax2tf_apply_/ActorCriticTransformerFlats/ActorCriticTransformerFlats/Transformer_0/tf_layers_0/gate1/Dense_3/MatMul", "StatefulPartitionedCall/jax2tf_apply_/ActorCriticTransformerFlats/ActorCriticTransformerFlats/Transformer_0/tf_layers_0/gate1/pjit__lambda__/BroadcastTo"], "attr": {"T": {"type": "DT_FLOAT"}}}, {"name": "StatefulPartitionedCall/jax2tf_apply_/ActorCriticTransformerFlats/ActorCriticTransformerFlats/Transformer_0/tf_layers_0/ln1/pjit__mean_/Sum_1", "op": "Sum", "input": ["StatefulPartitionedCall/jax2tf_apply_/ActorCriticTransformerFlats/ActorCriticTransformerFlats/Transformer_0/tf_layers_0/ln1/ArithmeticOptimizer/ReplaceMulWithSquare_Mul", "StatefulPartitionedCall/jax2tf_apply_/ActorCriticTransformerFlats/ActorCriticTransformerFlats/Transformer_0/tf_layers_0/ln1/pjit__mean_/Sum_1/reduction_indices"], "attr": {"T": {"type": "DT_FLOAT"}, "Tidx": {"type": "DT_INT32"}, "keep_dims": {"b": false}}}, {"name": "StatefulPartitionedCall/jax2tf_apply_/ActorCriticTransformerFlats/ActorCriticTransformerFlats/Transformer_0/tf_layers_0/ln1/pjit__mean_/truediv", "op": "Mul", "input": ["StatefulPartitionedCall/jax2tf_apply_/ActorCriticTransformerFlats/ActorCriticTransformerFlats/Transformer_0/tf_layers_0/ln1/pjit__mean_/Sum", "ConstantFolding/StatefulPartitionedCall/jax2tf_apply_/ActorCriticTransformerFlats/ActorCriticTransformerFlats/Transformer_0/tf_layers_0/ln1/pjit__mean_/truediv_recip"], "attr": {"T": {"type": "DT_FLOAT"}}}, {"name": "StatefulPartitionedCall/jax2tf_apply_/ActorCriticTransformerFlats/ActorCriticTransformerFlats/Reshape_13", "op": "Reshape", "input": ["StatefulPartitionedCall/jax2tf_apply_/ActorCriticTransformerFlats/ActorCriticTransformerFlats/pjit__lambda__/LogicalAnd_1", "StatefulPartitionedCall/jax2tf_apply_/ActorCriticTransformerFlats/ActorCriticTransformerFlats/Reshape_13/shape"], "attr": {"T": {"type": "DT_BOOL"}, "Tshape": {"type": "DT_INT32"}}}, {"name": "StatefulPartitionedCall/jax2tf_apply_/ActorCriticTransformerFlats/ActorCriticTransformerFlats/pjit__mean_/Sum", "op": "Sum", "input": ["StatefulPartitionedCall/jax2tf_apply_/ActorCriticTransformerFlats/ActorCriticTransformerFlats/pjit__mean_/Cast", "StatefulPartitionedCall/jax2tf_apply_/ActorCriticTransformerFlats/ActorCriticTransformerFlats/pjit__mean_/Sum/reduction_indices"], "attr": {"T": {"type": "DT_INT32"}, "Tidx": {"type": "DT_INT32"}, "keep_dims": {"b": false}}}, {"name": "StatefulPartitionedCall/jax2tf_apply_/ActorCriticTransformerFlats/ActorCriticTransformerFlats/Transformer_0/scan/while_2/StatefulPartitionedCall/jax2tf_apply_/ActorCriticTransformerFlats/ActorCriticTransformerFlats/Transformer_0/Const_2_switch/_200", "op": "Switch", "input": ["StatefulPartitionedCall/jax2tf_apply_/ActorCriticTransformerFlats/ActorCriticTransformerFlats/Transformer_0/scan/while_2/merge/_193", "StatefulPartitionedCall/jax2tf_apply_/ActorCriticTransformerFlats/ActorCriticTransformerFlats/Transformer_0/scan/while_2/LoopCond/_197"], "attr": {"T": {"type": "DT_INT32"}}}, {"name": "StatefulPartitionedCall/jax2tf_apply_/ActorCriticTransformerFlats/ActorCriticTransformerFlats/Transformer_0/scan/while_2/StatefulPartitionedCall/jax2tf_apply_/ActorCriticTransformerFlats/ActorCriticTransformerFlats/Transformer_0/scan/while_2/loop_counter_switch/_198", "op": "Switch", "input": ["StatefulPartitionedCall/jax2tf_apply_/ActorCriticTransformerFlats/ActorCriticTransformerFlats/Transformer_0/scan/while_2/merge/_191", "StatefulPartitionedCall/jax2tf_apply_/ActorCriticTransformerFlats/ActorCriticTransformerFlats/Transformer_0/scan/while_2/LoopCond/_197"], "attr": {"T": {"type": "DT_INT32"}}}, {"name": "StatefulPartitionedCall/jax2tf_apply_/ActorCriticTransformerFlats/ActorCriticTransformerFlats/Transformer_0/scan/while/StatefulPartitionedCall/jax2tf_apply_/ActorCriticTransformerFlats/ActorCriticTransformerFlats/Transformer_0/Const_switch/_130", "op": "Switch", "input": ["StatefulPartitionedCall/jax2tf_apply_/ActorCriticTransformerFlats/ActorCriticTransformerFlats/Transformer_0/scan/while/merge/_123", "StatefulPartitionedCall/jax2tf_apply_/ActorCriticTransformerFlats/ActorCriticTransformerFlats/Transformer_0/scan/while/LoopCond/_127"], "attr": {"T": {"type": "DT_INT32"}}}, {"name": "StatefulPartitionedCall/jax2tf_apply_/ActorCriticTransformerFlats/ActorCriticTransformerFlats/Transformer_0/scan/while/StatefulPartitionedCall/jax2tf_apply_/ActorCriticTransformerFlats/ActorCriticTransformerFlats/Transformer_0/scan/while/loop_counter_switch/_128", "op": "Switch", "input": ["StatefulPartitionedCall/jax2tf_apply_/ActorCriticTransformerFlats/ActorCriticTransformerFlats/Transformer_0/scan/while/merge/_121", "StatefulPartitionedCall/jax2tf_apply_/ActorCriticTransformerFlats/ActorCriticTransformerFlats/Transformer_0/scan/while/LoopCond/_127"], "attr": {"T": {"type": "DT_INT32"}}}, {"name": "StatefulPartitionedCall/jax2tf_apply_/ActorCriticTransformerFlats/ActorCriticTransformerFlats/Transformer_0/scan/while_1/StatefulPartitionedCall/jax2tf_apply_/ActorCriticTransformerFlats/ActorCriticTransformerFlats/Transformer_0/Const_1_switch/_165", "op": "Switch", "input": ["StatefulPartitionedCall/jax2tf_apply_/ActorCriticTransformerFlats/ActorCriticTransformerFlats/Transformer_0/scan/while_1/merge/_158", "StatefulPartitionedCall/jax2tf_apply_/ActorCriticTransformerFlats/ActorCriticTransformerFlats/Transformer_0/scan/while_1/LoopCond/_162"], "attr": {"T": {"type": "DT_INT32"}}}, {"name": "StatefulPartitionedCall/jax2tf_apply_/ActorCriticTransformerFlats/ActorCriticTransformerFlats/Transformer_0/scan/while_1/StatefulPartitionedCall/jax2tf_apply_/ActorCriticTransformerFlats/ActorCriticTransformerFlats/Transformer_0/scan/while_1/loop_counter_switch/_163", "op": "Switch", "input": ["StatefulPartitionedCall/jax2tf_apply_/ActorCriticTransformerFlats/ActorCriticTransformerFlats/Transformer_0/scan/while_1/merge/_156", "StatefulPartitionedCall/jax2tf_apply_/ActorCriticTransformerFlats/ActorCriticTransformerFlats/Transformer_0/scan/while_1/LoopCond/_162"], "attr": {"T": {"type": "DT_INT32"}}}, {"name": "StatefulPartitionedCall/jax2tf_apply_/ActorCriticTransformerFlats/ActorCriticTransformerFlats/Transformer_0/scan/while_1/StatefulPartitionedCall/jax2tf_apply_/ActorCriticTransformerFlats/ActorCriticTransformerFlats/pjit_fn_/AddV2_1_switch/_167", "op": "Switch", "input": ["StatefulPartitionedCall/jax2tf_apply_/ActorCriticTransformerFlats/ActorCriticTransformerFlats/Transformer_0/scan/while_1/merge/_160", "StatefulPartitionedCall/jax2tf_apply_/ActorCriticTransformerFlats/ActorCriticTransformerFlats/Transformer_0/scan/while_1/LoopCond/_162"], "attr": {"T": {"type": "DT_INT32"}}}, {"name": "StatefulPartitionedCall/jax2tf_apply_/ActorCriticTransformerFlats/ActorCriticTransformerFlats/Transformer_0/scan/while_3/StatefulPartitionedCall/jax2tf_apply_/ActorCriticTransformerFlats/ActorCriticTransformerFlats/Transformer_0/Const_3_switch/_235", "op": "Switch", "input": ["StatefulPartitionedCall/jax2tf_apply_/ActorCriticTransformerFlats/ActorCriticTransformerFlats/Transformer_0/scan/while_3/merge/_228", "StatefulPartitionedCall/jax2tf_apply_/ActorCriticTransformerFlats/ActorCriticTransformerFlats/Transformer_0/scan/while_3/LoopCond/_232"], "attr": {"T": {"type": "DT_INT32"}}}, {"name": "StatefulPartitionedCall/jax2tf_apply_/ActorCriticTransformerFlats/ActorCriticTransformerFlats/Transformer_0/scan/while_3/StatefulPartitionedCall/jax2tf_apply_/ActorCriticTransformerFlats/ActorCriticTransformerFlats/Transformer_0/scan/while_3/loop_counter_switch/_233", "op": "Switch", "input": ["StatefulPartitionedCall/jax2tf_apply_/ActorCriticTransformerFlats/ActorCriticTransformerFlats/Transformer_0/scan/while_3/merge/_226", "StatefulPartitionedCall/jax2tf_apply_/ActorCriticTransformerFlats/ActorCriticTransformerFlats/Transformer_0/scan/while_3/LoopCond/_232"], "attr": {"T": {"type": "DT_INT32"}}}, {"name": "StatefulPartitionedCall/jax2tf_apply_/ActorCriticTransformerFlats/ActorCriticTransformerFlats/Transformer_0/scan/while_3/StatefulPartitionedCall/jax2tf_apply_/ActorCriticTransformerFlats/ActorCriticTransformerFlats/pjit_fn_/AddV2_1_switch/_237", "op": "Switch", "input": ["StatefulPartitionedCall/jax2tf_apply_/ActorCriticTransformerFlats/ActorCriticTransformerFlats/Transformer_0/scan/while_3/merge/_230", "StatefulPartitionedCall/jax2tf_apply_/ActorCriticTransformerFlats/ActorCriticTransformerFlats/Transformer_0/scan/while_3/LoopCond/_232"], "attr": {"T": {"type": "DT_INT32"}}}, {"name": "StatefulPartitionedCall/jax2tf_apply_/ActorCriticTransformerFlats/ActorCriticTransformerFlats/Transformer_0/scan/while_2/StatefulPartitionedCall/jax2tf_apply_/ActorCriticTransformerFlats/ActorCriticTransformerFlats/Transformer_0/BroadcastTo_27_switch/_202", "op": "Switch", "input": ["StatefulPartitionedCall/jax2tf_apply_/ActorCriticTransformerFlats/ActorCriticTransformerFlats/Transformer_0/scan/while_2/merge/_195", "StatefulPartitionedCall/jax2tf_apply_/ActorCriticTransformerFlats/ActorCriticTransformerFlats/Transformer_0/scan/while_2/LoopCond/_197"], "attr": {"T": {"type": "DT_INT32"}}}, {"name": "StatefulPartitionedCall/jax2tf_apply_/ActorCriticTransformerFlats/ActorCriticTransformerFlats/Transformer_0/Reshape_16", "op": "Reshape", "input": ["StatefulPartitionedCall/jax2tf_apply_/ActorCriticTransformerFlats/ActorCriticTransformerFlats/Transformer_0/SelectV2_3", "StatefulPartitionedCall/jax2tf_apply_/ActorCriticTransformerFlats/ActorCriticTransformerFlats/Transformer_0/Reshape_16/shape"], "attr": {"T": {"type": "DT_INT32"}, "Tshape": {"type": "DT_INT32"}}}, {"name": "StatefulPartitionedCall/jax2tf_apply_/ActorCriticTransformerFlats/ActorCriticTransformerFlats/Transformer_0/Reshape_20", "op": "Reshape", "input": ["StatefulPartitionedCall/jax2tf_apply_/ActorCriticTransformerFlats/ActorCriticTransformerFlats/Transformer_0/SelectV2_4", "StatefulPartitionedCall/jax2tf_apply_/ActorCriticTransformerFlats/ActorCriticTransformerFlats/Transformer_0/Reshape_20/shape"], "attr": {"T": {"type": "DT_INT32"}, "Tshape": {"type": "DT_INT32"}}}, {"name": "StatefulPartitionedCall/jax2tf_apply_/ActorCriticTransformerFlats/ActorCriticTransformerFlats/Transformer_0/scan/while/StatefulPartitionedCall/jax2tf_apply_/ActorCriticTransformerFlats/ActorCriticTransformerFlats/Transformer_0/BroadcastTo_13_switch/_132", "op": "Switch", "input": ["StatefulPartitionedCall/jax2tf_apply_/ActorCriticTransformerFlats/ActorCriticTransformerFlats/Transformer_0/scan/while/merge/_125", "StatefulPartitionedCall/jax2tf_apply_/ActorCriticTransformerFlats/ActorCriticTransformerFlats/Transformer_0/scan/while/LoopCond/_127"], "attr": {"T": {"type": "DT_INT32"}}}, {"name": "StatefulPartitionedCall/jax2tf_apply_/ActorCriticTransformerFlats/ActorCriticTransformerFlats/Transformer_0/Reshape_2", "op": "Reshape", "input": ["StatefulPartitionedCall/jax2tf_apply_/ActorCriticTransformerFlats/ActorCriticTransformerFlats/Transformer_0/SelectV2", "StatefulPartitionedCall/jax2tf_apply_/ActorCriticTransformerFlats/ActorCriticTransformerFlats/Transformer_0/Reshape_2/shape"], "attr": {"T": {"type": "DT_INT32"}, "Tshape": {"type": "DT_INT32"}}}, {"name": "StatefulPartitionedCall/jax2tf_apply_/ActorCriticTransformerFlats/ActorCriticTransformerFlats/Transformer_0/Reshape_6", "op": "Reshape", "input": ["StatefulPartitionedCall/jax2tf_apply_/ActorCriticTransformerFlats/ActorCriticTransformerFlats/Transformer_0/SelectV2_1", "StatefulPartitionedCall/jax2tf_apply_/ActorCriticTransformerFlats/ActorCriticTransformerFlats/Transformer_0/Reshape_6/shape"], "attr": {"T": {"type": "DT_INT32"}, "Tshape": {"type": "DT_INT32"}}}, {"name": "StatefulPartitionedCall/jax2tf_apply_/ActorCriticTransformerFlats/ActorCriticTransformerFlats/Transformer_0/clip_by_value_4/Minimum", "op": "Minimum", "input": ["StatefulPartitionedCall/jax2tf_apply_/ActorCriticTransformerFlats/ActorCriticTransformerFlats/Transformer_0/Squeeze_2", "StatefulPartitionedCall/jax2tf_apply_/ActorCriticTransformerFlats/ActorCriticTransformerFlats/Transformer_0/Sub_4"], "attr": {"T": {"type": "DT_INT32"}}}, {"name": "StatefulPartitionedCall/jax2tf_apply_/ActorCriticTransformerFlats/ActorCriticTransformerFlats/Transformer_0/clip_by_value_10/Minimum", "op": "Minimum", "input": ["StatefulPartitionedCall/jax2tf_apply_/ActorCriticTransformerFlats/ActorCriticTransformerFlats/Transformer_0/Squeeze_5", "StatefulPartitionedCall/jax2tf_apply_/ActorCriticTransformerFlats/ActorCriticTransformerFlats/Transformer_0/Sub_10"], "attr": {"T": {"type": "DT_INT32"}}}, {"name": "StatefulPartitionedCall/jax2tf_apply_/ActorCriticTransformerFlats/ActorCriticTransformerFlats/Transformer_0/tf_layers_0/ln1/pjit__mean_/truediv_1", "op": "Mul", "input": ["StatefulPartitionedCall/jax2tf_apply_/ActorCriticTransformerFlats/ActorCriticTransformerFlats/Transformer_0/tf_layers_0/ln1/pjit__mean_/Sum_1", "ConstantFolding/StatefulPartitionedCall/jax2tf_apply_/ActorCriticTransformerFlats/ActorCriticTransformerFlats/Transformer_0/tf_layers_0/ln1/pjit__mean_/truediv_1_recip"], "attr": {"T": {"type": "DT_FLOAT"}}}, {"name": "StatefulPartitionedCall/jax2tf_apply_/ActorCriticTransformerFlats/ActorCriticTransformerFlats/Transformer_0/tf_layers_0/ln1/ArithmeticOptimizer/ReplaceMulWithSquare_Mul_1", "op": "Square", "input": ["StatefulPartitionedCall/jax2tf_apply_/ActorCriticTransformerFlats/ActorCriticTransformerFlats/Transformer_0/tf_layers_0/ln1/pjit__mean_/truediv"], "attr": {"T": {"type": "DT_FLOAT"}}}, {"name": "StatefulPartitionedCall/jax2tf_apply_/ActorCriticTransformerFlats/ActorCriticTransformerFlats/Transformer_0/tf_layers_0/ln1/Reshape", "op": "Reshape", "input": ["StatefulPartitionedCall/jax2tf_apply_/ActorCriticTransformerFlats/ActorCriticTransformerFlats/Transformer_0/tf_layers_0/ln1/pjit__mean_/truediv", "StatefulPartitionedCall/jax2tf_apply_/ActorCriticTransformerFlats/ActorCriticTransformerFlats/Transformer_0/tf_layers_0/ln1/Reshape/shape"], "attr": {"T": {"type": "DT_FLOAT"}, "Tshape": {"type": "DT_INT32"}}}, {"name": "StatefulPartitionedCall/jax2tf_apply_/ActorCriticTransformerFlats/ActorCriticTransformerFlats/BroadcastTo_13", "op": "BroadcastTo", "input": ["StatefulPartitionedCall/jax2tf_apply_/ActorCriticTransformerFlats/ActorCriticTransformerFlats/Reshape_13", "StatefulPartitionedCall/jax2tf_apply_/ActorCriticTransformerFlats/ActorCriticTransformerFlats/BroadcastTo_13/shape"], "attr": {"Tidx": {"type": "DT_INT32"}, "T": {"type": "DT_BOOL"}}}, {"name": "StatefulPartitionedCall/jax2tf_apply_/ActorCriticTransformerFlats/ActorCriticTransformerFlats/pjit__mean_/Cast_1", "op": "Cast", "input": ["StatefulPartitionedCall/jax2tf_apply_/ActorCriticTransformerFlats/ActorCriticTransformerFlats/pjit__mean_/Sum"], "attr": {"SrcT": {"type": "DT_INT32"}, "DstT": {"type": "DT_FLOAT"}, "Truncate": {"b": false}}}, {"name": "StatefulPartitionedCall/jax2tf_apply_/ActorCriticTransformerFlats/ActorCriticTransformerFlats/Transformer_0/scan/while_2/loop_body_control/_204", "op": "Identity", "input": ["StatefulPartitionedCall/jax2tf_apply_/ActorCriticTransformerFlats/ActorCriticTransformerFlats/Transformer_0/scan/while_2/StatefulPartitionedCall/jax2tf_apply_/ActorCriticTransformerFlats/ActorCriticTransformerFlats/Transformer_0/scan/while_2/loop_counter_switch/_198:1"], "attr": {"_has_manual_control_dependencies": {"b": true}, "T": {"type": "DT_INT32"}}}, {"name": "StatefulPartitionedCall/jax2tf_apply_/ActorCriticTransformerFlats/ActorCriticTransformerFlats/Transformer_0/scan/while/loop_body_control/_134", "op": "Identity", "input": ["StatefulPartitionedCall/jax2tf_apply_/ActorCriticTransformerFlats/ActorCriticTransformerFlats/Transformer_0/scan/while/StatefulPartitionedCall/jax2tf_apply_/ActorCriticTransformerFlats/ActorCriticTransformerFlats/Transformer_0/scan/while/loop_counter_switch/_128:1"], "attr": {"_has_manual_control_dependencies": {"b": true}, "T": {"type": "DT_INT32"}}}, {"name": "StatefulPartitionedCall/jax2tf_apply_/ActorCriticTransformerFlats/ActorCriticTransformerFlats/Transformer_0/scan/while_1/loop_body_control/_169", "op": "Identity", "input": ["StatefulPartitionedCall/jax2tf_apply_/ActorCriticTransformerFlats/ActorCriticTransformerFlats/Transformer_0/scan/while_1/StatefulPartitionedCall/jax2tf_apply_/ActorCriticTransformerFlats/ActorCriticTransformerFlats/Transformer_0/scan/while_1/loop_counter_switch/_163:1"], "attr": {"_has_manual_control_dependencies": {"b": true}, "T": {"type": "DT_INT32"}}}, {"name": "StatefulPartitionedCall/jax2tf_apply_/ActorCriticTransformerFlats/ActorCriticTransformerFlats/Transformer_0/scan/while_3/loop_body_control/_239", "op": "Identity", "input": ["StatefulPartitionedCall/jax2tf_apply_/ActorCriticTransformerFlats/ActorCriticTransformerFlats/Transformer_0/scan/while_3/StatefulPartitionedCall/jax2tf_apply_/ActorCriticTransformerFlats/ActorCriticTransformerFlats/Transformer_0/scan/while_3/loop_counter_switch/_233:1"], "attr": {"_has_manual_control_dependencies": {"b": true}, "T": {"type": "DT_INT32"}}}, {"name": "StatefulPartitionedCall/jax2tf_apply_/ActorCriticTransformerFlats/ActorCriticTransformerFlats/Transformer_0/Squeeze_3", "op": "Squeeze", "input": ["StatefulPartitionedCall/jax2tf_apply_/ActorCriticTransformerFlats/ActorCriticTransformerFlats/Transformer_0/Reshape_16"], "attr": {"T": {"type": "DT_INT32"}, "squeeze_dims": {"list": {"i": ["-1"]}}}}, {"name": "StatefulPartitionedCall/jax2tf_apply_/ActorCriticTransformerFlats/ActorCriticTransformerFlats/Transformer_0/Squeeze_4", "op": "Squeeze", "input": ["StatefulPartitionedCall/jax2tf_apply_/ActorCriticTransformerFlats/ActorCriticTransformerFlats/Transformer_0/Reshape_20"], "attr": {"T": {"type": "DT_INT32"}, "squeeze_dims": {"list": {"i": ["-1"]}}}}, {"name": "StatefulPartitionedCall/jax2tf_apply_/ActorCriticTransformerFlats/ActorCriticTransformerFlats/Transformer_0/Squeeze", "op": "Squeeze", "input": ["StatefulPartitionedCall/jax2tf_apply_/ActorCriticTransformerFlats/ActorCriticTransformerFlats/Transformer_0/Reshape_2"], "attr": {"T": {"type": "DT_INT32"}, "squeeze_dims": {"list": {"i": ["-1"]}}}}, {"name": "StatefulPartitionedCall/jax2tf_apply_/ActorCriticTransformerFlats/ActorCriticTransformerFlats/Transformer_0/Squeeze_1", "op": "Squeeze", "input": ["StatefulPartitionedCall/jax2tf_apply_/ActorCriticTransformerFlats/ActorCriticTransformerFlats/Transformer_0/Reshape_6"], "attr": {"T": {"type": "DT_INT32"}, "squeeze_dims": {"list": {"i": ["-1"]}}}}, {"name": "StatefulPartitionedCall/jax2tf_apply_/ActorCriticTransformerFlats/ActorCriticTransformerFlats/Transformer_0/clip_by_value_4", "op": "Maximum", "input": ["StatefulPartitionedCall/jax2tf_apply_/ActorCriticTransformerFlats/ActorCriticTransformerFlats/Transformer_0/clip_by_value_4/Minimum", "StatefulPartitionedCall/jax2tf_apply_/ActorCriticTransformerFlats/ActorCriticTransformerFlats/Transformer_0/clip_by_value_4/y"], "attr": {"T": {"type": "DT_INT32"}}}, {"name": "StatefulPartitionedCall/jax2tf_apply_/ActorCriticTransformerFlats/ActorCriticTransformerFlats/Transformer_0/clip_by_value_10", "op": "Maximum", "input": ["StatefulPartitionedCall/jax2tf_apply_/ActorCriticTransformerFlats/ActorCriticTransformerFlats/Transformer_0/clip_by_value_10/Minimum", "StatefulPartitionedCall/jax2tf_apply_/ActorCriticTransformerFlats/ActorCriticTransformerFlats/Transformer_0/clip_by_value_10/y"], "attr": {"T": {"type": "DT_INT32"}}}, {"name": "StatefulPartitionedCall/jax2tf_apply_/ActorCriticTransformerFlats/ActorCriticTransformerFlats/Transformer_0/tf_layers_0/ln1/pjit__lambda__/Sub", "op": "Sub", "input": ["StatefulPartitionedCall/jax2tf_apply_/ActorCriticTransformerFlats/ActorCriticTransformerFlats/Transformer_0/tf_layers_0/ln1/pjit__mean_/truediv_1", "StatefulPartitionedCall/jax2tf_apply_/ActorCriticTransformerFlats/ActorCriticTransformerFlats/Transformer_0/tf_layers_0/ln1/ArithmeticOptimizer/ReplaceMulWithSquare_Mul_1"], "attr": {"T": {"type": "DT_FLOAT"}}}, {"name": "StatefulPartitionedCall/jax2tf_apply_/ActorCriticTransformerFlats/ActorCriticTransformerFlats/Transformer_0/tf_layers_0/ln1/pjit__lambda__/Sub_1", "op": "Sub", "input": ["StatefulPartitionedCall/jax2tf_apply_/ActorCriticTransformerFlats/ActorCriticTransformerFlats/concat_4", "StatefulPartitionedCall/jax2tf_apply_/ActorCriticTransformerFlats/ActorCriticTransformerFlats/Transformer_0/tf_layers_0/ln1/Reshape"], "attr": {"T": {"type": "DT_FLOAT"}}}, {"name": "StatefulPartitionedCall/jax2tf_apply_/ActorCriticTransformerFlats/ActorCriticTransformerFlats/Reshape_17", "op": "Reshape", "input": ["StatefulPartitionedCall/jax2tf_apply_/ActorCriticTransformerFlats/ActorCriticTransformerFlats/BroadcastTo_13", "StatefulPartitionedCall/jax2tf_apply_/ActorCriticTransformerFlats/ActorCriticTransformerFlats/Reshape_17/shape"], "attr": {"T": {"type": "DT_BOOL"}, "Tshape": {"type": "DT_INT32"}}}, {"name": "StatefulPartitionedCall/jax2tf_apply_/ActorCriticTransformerFlats/ActorCriticTransformerFlats/Transformer_0/scan/while_2/body/_184/jax2tf_apply_/ActorCriticTransformerFlats/ActorCriticTransformerFlats/Transformer_0/scan/while/body/strided_slice/stack", "op": "Const", "input": ["^StatefulPartitionedCall/jax2tf_apply_/ActorCriticTransformerFlats/ActorCriticTransformerFlats/Transformer_0/scan/while_2/loop_body_control/_204"], "attr": {"value": {"tensor": {"dtype": "DT_INT32", "tensorShape": {"dim": [{"size": "1"}]}}}, "dtype": {"type": "DT_INT32"}}}, {"name": "StatefulPartitionedCall/jax2tf_apply_/ActorCriticTransformerFlats/ActorCriticTransformerFlats/Transformer_0/scan/while_2/body/_184/jax2tf_apply_/ActorCriticTransformerFlats/ActorCriticTransformerFlats/Transformer_0/scan/while/body/strided_slice/stack_1", "op": "Const", "input": ["^StatefulPartitionedCall/jax2tf_apply_/ActorCriticTransformerFlats/ActorCriticTransformerFlats/Transformer_0/scan/while_2/loop_body_control/_204"], "attr": {"value": {"tensor": {"dtype": "DT_INT32", "tensorShape": {"dim": [{"size": "1"}]}}}, "dtype": {"type": "DT_INT32"}}}, {"name": "StatefulPartitionedCall/jax2tf_apply_/ActorCriticTransformerFlats/ActorCriticTransformerFlats/Transformer_0/scan/while_2/body/_184/jax2tf_apply_/ActorCriticTransformerFlats/ActorCriticTransformerFlats/Transformer_0/scan/while/body/strided_slice/stack_2", "op": "Const", "input": ["^StatefulPartitionedCall/jax2tf_apply_/ActorCriticTransformerFlats/ActorCriticTransformerFlats/Transformer_0/scan/while_2/loop_body_control/_204"], "attr": {"value": {"tensor": {"dtype": "DT_INT32", "tensorShape": {"dim": [{"size": "1"}]}}}, "dtype": {"type": "DT_INT32"}}}, {"name": "StatefulPartitionedCall/jax2tf_apply_/ActorCriticTransformerFlats/ActorCriticTransformerFlats/Transformer_0/scan/while_2/body/_184/jax2tf_apply_/ActorCriticTransformerFlats/ActorCriticTransformerFlats/Transformer_0/scan/while_2/Const_5", "op": "Const", "input": ["^StatefulPartitionedCall/jax2tf_apply_/ActorCriticTransformerFlats/ActorCriticTransformerFlats/Transformer_0/scan/while_2/loop_body_control/_204"], "attr": {"valu…
ansformerFlats/Transformer_0/tf_layers_0/gate2/pjit_sigmoid_/Const_2", "shape": [], "dtype": "float32"}, {"name": "StatefulPartitionedCall/jax2tf_arg_55/ReadVariableOp", "shape": [128, 128], "dtype": "float32"}, {"name": "StatefulPartitionedCall/jax2tf_arg_56/ReadVariableOp", "shape": [128, 128], "dtype": "float32"}, {"name": "StatefulPartitionedCall/jax2tf_apply_/ActorCriticTransformerFlats/ActorCriticTransformerFlats/Transformer_0/tf_layers_0/gate2/pjit__lambda__/BroadcastTo", "shape": [1, 128], "dtype": "float32"}, {"name": "StatefulPartitionedCall/jax2tf_arg_57/ReadVariableOp", "shape": [128, 128], "dtype": "float32"}, {"name": "StatefulPartitionedCall/jax2tf_apply_/ActorCriticTransformerFlats/ActorCriticTransformerFlats/Transformer_0/tf_layers_0/gate2/pjit_sigmoid_/Const", "shape": [], "dtype": "float32"}, {"name": "StatefulPartitionedCall/Const_17", "shape": [], "dtype": "float32"}, {"name": "StatefulPartitionedCall/jax2tf_apply_/ActorCriticTransformerFlats/ActorCriticTransformerFlats/Transformer_0/tf_layers_0/ln2/pjit__mean_/Sum_1/reduction_indices", "shape": [1], "dtype": "int32"}, {"name": "ConstantFolding/StatefulPartitionedCall/jax2tf_apply_/ActorCriticTransformerFlats/ActorCriticTransformerFlats/Transformer_0/tf_layers_0/ln2/pjit__mean_/truediv_1_recip", "shape": [], "dtype": "float32"}, {"name": "StatefulPartitionedCall/jax2tf_apply_/ActorCriticTransformerFlats/ActorCriticTransformerFlats/Transformer_0/tf_layers_0/ln2/Reshape_1/shape", "shape": [2], "dtype": "int32"}, {"name": "StatefulPartitionedCall/Const_18", "shape": [], "dtype": "float32"}, {"name": "StatefulPartitionedCall/jax2tf_apply_/ActorCriticTransformerFlats/ActorCriticTransformerFlats/Transformer_0/tf_layers_0/ln2/Reshape_2", "shape": [1, 128], "dtype": "float32"}, {"name": "StatefulPartitionedCall/jax2tf_apply_/ActorCriticTransformerFlats/ActorCriticTransformerFlats/Transformer_0/tf_layers_0/ln2/pjit__mean_/Sum/reduction_indices", "shape": [1], "dtype": "int32"}, {"name": "ConstantFolding/StatefulPartitionedCall/jax2tf_apply_/ActorCriticTransformerFlats/ActorCriticTransformerFlats/Transformer_0/tf_layers_0/ln2/pjit__mean_/truediv_recip", "shape": [], "dtype": "float32"}, {"name": "StatefulPartitionedCall/jax2tf_apply_/ActorCriticTransformerFlats/ActorCriticTransformerFlats/Transformer_0/tf_layers_0/ln2/Reshape/shape", "shape": [2], "dtype": "int32"}, {"name": "StatefulPartitionedCall/jax2tf_apply_/ActorCriticTransformerFlats/ActorCriticTransformerFlats/Transformer_0/tf_layers_0/ln2/Reshape_3", "shape": [1, 128], "dtype": "float32"}, {"name": "StatefulPartitionedCall/jax2tf_arg_45/ReadVariableOp", "shape": [128, 128], "dtype": "float32"}, {"name": "StatefulPartitionedCall/jax2tf_apply_/ActorCriticTransformerFlats/ActorCriticTransformerFlats/Transformer_0/tf_layers_0/dense1/Reshape", "shape": [1, 128], "dtype": "float32"}, {"name": "StatefulPartitionedCall/jax2tf_apply_/ActorCriticTransformerFlats/ActorCriticTransformerFlats/Transformer_0/tf_layers_0/Const_1", "shape": [], "dtype": "float32"}, {"name": "StatefulPartitionedCall/jax2tf_arg_53/ReadVariableOp", "shape": [128, 128], "dtype": "float32"}, {"name": "StatefulPartitionedCall/jax2tf_arg_54/ReadVariableOp", "shape": [128, 128], "dtype": "float32"}, {"name": "StatefulPartitionedCall/jax2tf_apply_/ActorCriticTransformerFlats/ActorCriticTransformerFlats/Transformer_0/tf_layers_0/gate1/pjit__lambda__/Cast", "shape": [], "dtype": "float32"}, {"name": "StatefulPartitionedCall/jax2tf_apply_/ActorCriticTransformerFlats/ActorCriticTransformerFlats/Transformer_0/tf_layers_0/gate1/pjit_sigmoid_/Const_2", "shape": [], "dtype": "float32"}, {"name": "StatefulPartitionedCall/jax2tf_arg_48/ReadVariableOp", "shape": [128, 128], "dtype": "float32"}, {"name": "StatefulPartitionedCall/jax2tf_arg_49/ReadVariableOp", "shape": [128, 128], "dtype": "float32"}, {"name": "StatefulPartitionedCall/jax2tf_apply_/ActorCriticTransformerFlats/ActorCriticTransformerFlats/Transformer_0/tf_layers_0/gate1/pjit__lambda__/BroadcastTo", "shape": [1, 128], "dtype": "float32"}, {"name": "StatefulPartitionedCall/jax2tf_arg_50/ReadVariableOp", "shape": [128, 128], "dtype": "float32"}, {"name": "StatefulPartitionedCall/jax2tf_apply_/ActorCriticTransformerFlats/ActorCriticTransformerFlats/Transformer_0/tf_layers_0/gate1/pjit_sigmoid_/Const", "shape": [], "dtype": "float32"}, {"name": "StatefulPartitionedCall/jax2tf_arg_43/ReadVariableOp", "shape": [128, 8, 2], "dtype": "float32"}, {"name": "StatefulPartitionedCall/jax2tf_apply_/ActorCriticTransformerFlats/ActorCriticTransformerFlats/Transformer_0/tf_layers_0/attention1/value/Reshape", "shape": [1, 8, 2], "dtype": "float32"}, {"name": "StatefulPartitionedCall/jax2tf_apply_/ActorCriticTransformerFlats/ActorCriticTransformerFlats/BroadcastTo_8", "shape": [4, 1, 17], "dtype": "bool"}, {"name": "StatefulPartitionedCall/jax2tf_apply_/ActorCriticTransformerFlats/ActorCriticTransformerFlats/BroadcastTo_9", "shape": [4, 16, 1], "dtype": "bool"}, {"name": "StatefulPartitionedCall/jax2tf_apply_/ActorCriticTransformerFlats/ActorCriticTransformerFlats/Cast_8/x", "shape": [], "dtype": "int32"}, {"name": "StatefulPartitionedCall/jax2tf_apply_/ActorCriticTransformerFlats/ActorCriticTransformerFlats/Cast_9/x", "shape": [], "dtype": "int32"}, {"name": "StatefulPartitionedCall/jax2tf_apply_/ActorCriticTransformerFlats/ActorCriticTransformerFlats/pjit__lambda__/Reshape/shape", "shape": [3], "dtype": "int32"}, {"name": "StatefulPartitionedCall/jax2tf_apply_/ActorCriticTransformerFlats/ActorCriticTransformerFlats/pjit__lambda__/Reshape_1/shape", "shape": [3], "dtype": "int32"}, {"name": "StatefulPartitionedCall/jax2tf_apply_/ActorCriticTransformerFlats/ActorCriticTransformerFlats/Reshape_13/shape", "shape": [8], "dtype": "int32"}, {"name": "StatefulPartitionedCall/jax2tf_apply_/ActorCriticTransformerFlats/ActorCriticTransformerFlats/BroadcastTo_13/shape", "shape": [8], "dtype": "int32"}, {"name": "StatefulPartitionedCall/jax2tf_apply_/ActorCriticTransformerFlats/ActorCriticTransformerFlats/Reshape_17/shape", "shape": [3], "dtype": "int32"}, {"name": "StatefulPartitionedCall/jax2tf_arg_41/ReadVariableOp", "shape": [128, 8, 2], "dtype": "float32"}, {"name": "StatefulPartitionedCall/jax2tf_apply_/ActorCriticTransformerFlats/ActorCriticTransformerFlats/Transformer_0/tf_layers_0/attention1/query/Reshape", "shape": [1, 8, 2], "dtype": "float32"}, {"name": "ConstantFolding/StatefulPartitionedCall/jax2tf_apply_/ActorCriticTransformerFlats/ActorCriticTransformerFlats/Transformer_0/tf_layers_0/attention1/pjit_true_divide_/truediv_recip", "shape": [], "dtype": "float32"}, {"name": "StatefulPartitionedCall/Const_12", "shape": [], "dtype": "float32"}, {"name": "StatefulPartitionedCall/jax2tf_apply_/ActorCriticTransformerFlats/ActorCriticTransformerFlats/Transformer_0/tf_layers_0/ln1/pjit__mean_/Sum_1/reduction_indices", "shape": [1], "dtype": "int32"}, {"name": "ConstantFolding/StatefulPartitionedCall/jax2tf_apply_/ActorCriticTransformerFlats/ActorCriticTransformerFlats/Transformer_0/tf_layers_0/ln1/pjit__mean_/truediv_1_recip", "shape": [], "dtype": "float32"}, {"name": "StatefulPartitionedCall/jax2tf_apply_/ActorCriticTransformerFlats/ActorCriticTransformerFlats/Transformer_0/tf_layers_0/ln1/Reshape_1/shape", "shape": [2], "dtype": "int32"}, {"name": "StatefulPartitionedCall/Const_13", "shape": [], "dtype": "float32"}, {"name": "StatefulPartitionedCall/jax2tf_apply_/ActorCriticTransformerFlats/ActorCriticTransformerFlats/Transformer_0/tf_layers_0/ln1/Reshape_2", "shape": [1, 128], "dtype": "float32"}, {"name": "StatefulPartitionedCall/jax2tf_apply_/ActorCriticTransformerFlats/ActorCriticTransformerFlats/Transformer_0/tf_layers_0/ln1/pjit__mean_/Sum/reduction_indices", "shape": [1], "dtype": "int32"}, {"name": "ConstantFolding/StatefulPartitionedCall/jax2tf_apply_/ActorCriticTransformerFlats/ActorCriticTransformerFlats/Transformer_0/tf_layers_0/ln1/pjit__mean_/truediv_recip", "shape": [], "dtype": "float32"}, {"name": "StatefulPartitionedCall/jax2tf_apply_/ActorCriticTransformerFlats/ActorCriticTransformerFlats/Transformer_0/tf_layers_0/ln1/Reshape/shape", "shape": [2], "dtype": "int32"}, {"name": "StatefulPartitionedCall/jax2tf_apply_/ActorCriticTransformerFlats/ActorCriticTransformerFlats/Transformer_0/tf_layers_0/ln1/Reshape_3", "shape": [1, 128], "dtype": "float32"}, {"name": "StatefulPartitionedCall/jax2tf_arg_37/ReadVariableOp", "shape": [128, 8, 2], "dtype": "float32"}, {"name": "StatefulPartitionedCall/jax2tf_apply_/ActorCriticTransformerFlats/ActorCriticTransformerFlats/Transformer_0/tf_layers_0/attention1/key/Reshape", "shape": [1, 8, 2], "dtype": "float32"}, {"name": "StatefulPartitionedCall/jax2tf_apply_/ActorCriticTransformerFlats/ActorCriticTransformerFlats/Transformer_0/tf_layers_0/attention1/pjit__where_/BroadcastTo", "shape": [8, 17, 17], "dtype": "float32"}, {"name": "StatefulPartitionedCall/jax2tf_apply_/ActorCriticTransformerFlats/ActorCriticTransformerFlats/Transformer_0/tf_layers_0/attention1/pjit__reduce_max_/Max/reduction_indices", "shape": [1], "dtype": "int32"}, {"name": "StatefulPartitionedCall/jax2tf_apply_/ActorCriticTransformerFlats/ActorCriticTransformerFlats/Transformer_0/tf_layers_0/attention1/pjit__reduce_max_/Reshape/shape", "shape": [3], "dtype": "int32"}, {"name": "StatefulPartitionedCall/jax2tf_apply_/ActorCriticTransformerFlats/ActorCriticTransformerFlats/Transformer_0/tf_layers_0/attention1/pjit__reduce_sum_/Sum/reduction_indices", "shape": [1], "dtype": "int32"}, {"name": "StatefulPartitionedCall/jax2tf_apply_/ActorCriticTransformerFlats/ActorCriticTransformerFlats/Transformer_0/tf_layers_0/attention1/pjit__reduce_sum_/Reshape/shape", "shape": [3], "dtype": "int32"}, {"name": "StatefulPartitionedCall/jax2tf_apply_/ActorCriticTransformerFlats/ActorCriticTransformerFlats/Transformer_0/tf_layers_0/attention1/...hqk_...khd-_...qhd/pjit__einsum_/transpose/perm", "shape": [3], "dtype": "int32"}, {"name": "StatefulPartitionedCall/jax2tf_arg_39/ReadVariableOp", "shape": [8, 2, 128], "dtype": "float32"}, {"name": "StatefulPartitionedCall/jax2tf_apply_/ActorCriticTransformerFlats/ActorCriticTransformerFlats/Transformer_0/tf_layers_0/attention1/out/Reshape", "shape": [1, 128], "dtype": "float32"}, {"name": "StatefulPartitionedCall/jax2tf_apply_/ActorCriticTransformerFlats/ActorCriticTransformerFlats/Transformer_0/tf_layers_0/Const", "shape": [], "dtype": "float32"}, {"name": "StatefulPartitionedCall/jax2tf_arg_46/ReadVariableOp", "shape": [128, 128], "dtype": "float32"}, {"name": "StatefulPartitionedCall/jax2tf_arg_47/ReadVariableOp", "shape": [128, 128], "dtype": "float32"}, {"name": "StatefulPartitionedCall/jax2tf_apply_/ActorCriticTransformerFlats/ActorCriticTransformerFlats/BroadcastTo_6", "shape": [1, 128], "dtype": "float32"}, {"name": "StatefulPartitionedCall/jax2tf_arg_3/ReadVariableOp", "shape": [27, 127], "dtype": "float32"}, {"name": "StatefulPartitionedCall/jax2tf_apply_/ActorCriticTransformerFlats/ActorCriticTransformerFlats/Dense_1/Reshape", "shape": [1, 127], "dtype": "float32"}, {"name": "StatefulPartitionedCall/jax2tf_apply_/ActorCriticTransformerFlats/ActorCriticTransformerFlats/transpose_5", "shape": [12, 1], "dtype": "float32"}, {"name": "StatefulPartitionedCall/jax2tf_apply_/ActorCriticTransformerFlats/ActorCriticTransformerFlats/Cast_3/x", "shape": [], "dtype": "int32"}, {"name": "StatefulPartitionedCall/jax2tf_arg_1/ReadVariableOp", "shape": [19, 127], "dtype": "float32"}, {"name": "StatefulPartitionedCall/jax2tf_apply_/ActorCriticTransformerFlats/ActorCriticTransformerFlats/Dense_0/Reshape", "shape": [1, 127], "dtype": "float32"}, {"name": "StatefulPartitionedCall/jax2tf_apply_/ActorCriticTransformerFlats/ActorCriticTransformerFlats/transpose_2", "shape": [4, 1], "dtype": "float32"}, {"name": "StatefulPartitionedCall/jax2tf_apply_/ActorCriticTransformerFlats/ActorCriticTransformerFlats/Cast_1/x", "shape": [], "dtype": "int32"}, {"name": "StatefulPartitionedCall/jax2tf_apply_/ActorCriticTransformerFlats/ActorCriticTransformerFlats/Cast_6/x", "shape": [], "dtype": "int32"}, {"name": "StatefulPartitionedCall/jax2tf_arg_51/ReadVariableOp", "shape": [128, 128], "dtype": "float32"}, {"name": "StatefulPartitionedCall/jax2tf_arg_58/ReadVariableOp", "shape": [128, 128], "dtype": "float32"}, {"name": "StatefulPartitionedCall/Const_26", "shape": [], "dtype": "int32"}, {"name": "StatefulPartitionedCall/Const_27", "shape": [], "dtype": "int32"}, {"name": "StatefulPartitionedCall/jax2tf_apply_/ActorCriticTransformerFlats/ActorCriticTransformerFlats/Transformer_0/Reshape_9/shape", "shape": [2], "dtype": "int32"}, {"name": "StatefulPartitionedCall/jax2tf_apply_/ActorCriticTransformerFlats/ActorCriticTransformerFlats/Transformer_0/Sub_4", "shape": [1], "dtype": "int32"}, {"name": "StatefulPartitionedCall/jax2tf_apply_/ActorCriticTransformerFlats/ActorCriticTransformerFlats/Transformer_0/clip_by_value_4/y", "shape": [], "dtype": "int32"}, {"name": "StatefulPartitionedCall/jax2tf_apply_/ActorCriticTransformerFlats/ActorCriticTransformerFlats/Transformer_0/GatherV2_2/axis", "shape": [], "dtype": "int32"}, {"name": "StatefulPartitionedCall/jax2tf_apply_/ActorCriticTransformerFlats/ActorCriticTransformerFlats/Transformer_0/Cast_1/x", "shape": [], "dtype": "int32"}, {"name": "StatefulPartitionedCall/jax2tf_arg_93/ReadVariableOp", "shape": [256, 128], "dtype": "float32"}, {"name": "StatefulPartitionedCall/jax2tf_apply_/ActorCriticTransformerFlats/ActorCriticTransformerFlats/Transformer_0/thruster_layers_0/Reshape", "shape": [1, 128], "dtype": "float32"}, {"name": "StatefulPartitionedCall/jax2tf_apply_/ActorCriticTransformerFlats/ActorCriticTransformerFlats/Transformer_0/Reshape_11/shape", "shape": [2], "dtype": "int32"}, {"name": "StatefulPartitionedCall/jax2tf_apply_/ActorCriticTransformerFlats/ActorCriticTransformerFlats/Transformer_0/Const_1", "shape": [], "dtype": "int32"}, {"name": "StatefulPartitionedCall/jax2tf_apply_/ActorCriticTransformerFlats/ActorCriticTransformerFlats/Transformer_0/scan/while_1/loop_counter", "shape": [], "dtype": "int32"}, {"name": "StatefulPartitionedCall/jax2tf_arg_79/ReadVariableOp", "shape": [128, 128], "dtype": "float32"}, {"name": "StatefulPartitionedCall/jax2tf_arg_86/ReadVariableOp", "shape": [128, 128], "dtype": "float32"}, {"name": "StatefulPartitionedCall/Const_43", "shape": [], "dtype": "int32"}, {"name": "StatefulPartitionedCall/Const_44", "shape": [], "dtype": "int32"}, {"name": "StatefulPartitionedCall/Const_11", "shape": [], "dtype": "int32"}, {"name": "StatefulPartitionedCall/jax2tf_apply_/ActorCriticTransformerFlats/ActorCriticTransformerFlats/Transformer_0/Reshape_23/shape", "shape": [2], "dtype": "int32"}, {"name": "StatefulPartitionedCall/jax2tf_apply_/ActorCriticTransformerFlats/ActorCriticTransformerFlats/Transformer_0/Sub_10", "shape": [1], "dtype": "int32"}, {"name": "StatefulPartitionedCall/jax2tf_apply_/ActorCriticTransformerFlats/ActorCriticTransformerFlats/Transformer_0/clip_by_value_10/y", "shape": [], "dtype": "int32"}, {"name": "StatefulPartitionedCall/jax2tf_apply_/ActorCriticTransformerFlats/ActorCriticTransformerFlats/Transformer_0/GatherV2_5/axis", "shape": [], "dtype": "int32"}, {"name": "StatefulPartitionedCall/jax2tf_arg_7/ReadVariableOp", "shape": [8, 128], "dtype": "float32"}, {"name": "StatefulPartitionedCall/jax2tf_apply_/ActorCriticTransformerFlats/ActorCriticTransformerFlats/Dense_3/Reshape", "shape": [1, 128], "dtype": "float32"}, {"name": "StatefulPartitionedCall/jax2tf_apply_/ActorCriticTransformerFlats/ActorCriticTransformerFlats/Transformer_0/Cast_3/x", "shape": [], "dtype": "int32"}, {"name": "StatefulPartitionedCall/jax2tf_arg_95/ReadVariableOp", "shape": [256, 128], "dtype": "float32"}, {"name": "StatefulPartitionedCall/jax2tf_apply_/ActorCriticTransformerFlats/ActorCriticTransformerFlats/Transformer_0/thruster_layers_1/Reshape", "shape": [1, 128], "dtype": "float32"}, {"name": "StatefulPartitionedCall/jax2tf_apply_/ActorCriticTransformerFlats/ActorCriticTransformerFlats/Transformer_0/Reshape_25/shape", "shape": [2], "dtype": "int32"}, {"name": "StatefulPartitionedCall/jax2tf_apply_/ActorCriticTransformerFlats/ActorCriticTransformerFlats/Transformer_0/Const_3", "shape": [], "dtype": "int32"}, {"name": "StatefulPartitionedCall/jax2tf_apply_/ActorCriticTransformerFlats/ActorCriticTransformerFlats/Transformer_0/scan/while_3/loop_counter", "shape": [], "dtype": "int32"}, {"name": "StatefulPartitionedCall/jax2tf_apply_/ActorCriticTransformerFlats/ActorCriticTransformerFlats/pjit__mean_/pjit__where_/BroadcastTo_1", "shape": [17, 128], "dtype": "float32"}, {"name": "StatefulPartitionedCall/jax2tf_apply_/ActorCriticTransformerFlats/ActorCriticTransformerFlats/pjit__mean_/Sum_1/reduction_indices", "shape": [1], "dtype": "int32"}, {"name": "StatefulPartitionedCall/jax2tf_apply_/ActorCriticTransformerFlats/ActorCriticTransformerFlats/BroadcastTo_7", "shape": [1], "dtype": "bool"}, {"name": "StatefulPartitionedCall/jax2tf_apply_/ActorCriticTransformerFlats/ActorCriticTransformerFlats/Cast_7/x", "shape": [], "dtype": "int32"}, {"name": "StatefulPartitionedCall/jax2tf_apply_/ActorCriticTransformerFlats/ActorCriticTransformerFlats/Reshape_18/shape", "shape": [2], "dtype": "int32"}, {"name": "StatefulPartitionedCall/jax2tf_apply_/ActorCriticTransformerFlats/ActorCriticTransformerFlats/pjit__mean_/BroadcastTo/shape", "shape": [2], "dtype": "int32"}, {"name": "StatefulPartitionedCall/jax2tf_apply_/ActorCriticTransformerFlats/ActorCriticTransformerFlats/pjit__mean_/Sum/reduction_indices", "shape": [1], "dtype": "int32"}, {"name": "StatefulPartitionedCall/jax2tf_apply_/ActorCriticTransformerFlats/ActorCriticTransformerFlats/GeneralActorCriticRNN_0/Dense_1/ExpandDims/dim", "shape": [], "dtype": "int32"}, {"name": "StatefulPartitionedCall/jax2tf_arg_11/ReadVariableOp", "shape": [128, 128], "dtype": "float32"}, {"name": "StatefulPartitionedCall/jax2tf_arg_10/ReadVariableOp", "shape": [128], "dtype": "float32"}, {"name": "StatefulPartitionedCall/jax2tf_apply_/ActorCriticTransformerFlats/ActorCriticTransformerFlats/GeneralActorCriticRNN_0/Dense_3/ExpandDims/dim", "shape": [], "dtype": "int32"}, {"name": "StatefulPartitionedCall/jax2tf_arg_19/ReadVariableOp", "shape": [128, 128], "dtype": "float32"}, {"name": "StatefulPartitionedCall/jax2tf_arg_18/ReadVariableOp", "shape": [128], "dtype": "float32"}, {"name": "StatefulPartitionedCall/jax2tf_apply_/ActorCriticTransformerFlats/ActorCriticTransformerFlats/GeneralActorCriticRNN_0/Dense_5/ExpandDims/dim", "shape": [], "dtype": "int32"}, {"name": "StatefulPartitionedCall/jax2tf_arg_23/ReadVariableOp", "shape": [128, 128], "dtype": "float32"}, {"name": "StatefulPartitionedCall/jax2tf_arg_22/ReadVariableOp", "shape": [128], "dtype": "float32"}, {"name": "StatefulPartitionedCall/jax2tf_apply_/ActorCriticTransformerFlats/ActorCriticTransformerFlats/GeneralActorCriticRNN_0/Dense_7/ExpandDims/dim", "shape": [], "dtype": "int32"}, {"name": "StatefulPartitionedCall/jax2tf_arg_27/ReadVariableOp", "shape": [128, 128], "dtype": "float32"}, {"name": "StatefulPartitionedCall/jax2tf_arg_26/ReadVariableOp", "shape": [128], "dtype": "float32"}, {"name": "StatefulPartitionedCall/jax2tf_apply_/ActorCriticTransformerFlats/ActorCriticTransformerFlats/GeneralActorCriticRNN_0/Dense_9/ExpandDims/dim", "shape": [], "dtype": "int32"}, {"name": "StatefulPartitionedCall/jax2tf_arg_31/ReadVariableOp", "shape": [128, 128], "dtype": "float32"}, {"name": "StatefulPartitionedCall/jax2tf_arg_30/ReadVariableOp", "shape": [128], "dtype": "float32"}, {"name": "StatefulPartitionedCall/jax2tf_apply_/ActorCriticTransformerFlats/ActorCriticTransformerFlats/GeneralActorCriticRNN_0/Dense_11/ExpandDims/dim", "shape": [], "dtype": "int32"}, {"name": "StatefulPartitionedCall/jax2tf_arg_15/ReadVariableOp", "shape": [128, 1], "dtype": "float32"}, {"name": "StatefulPartitionedCall/jax2tf_arg_14/ReadVariableOp", "shape": [1], "dtype": "float32"}, {"name": "StatefulPartitionedCall/jax2tf_apply_/ActorCriticTransformerFlats/ActorCriticTransformerFlats/GeneralActorCriticRNN_0/pjit__squeeze_/Reshape/shape_1", "shape": [0], "dtype": "int32"}, {"name": "StatefulPartitionedCall/jax2tf_apply_/ActorCriticTransformerFlats/ActorCriticTransformerFlats/Transformer_0/scan/while_2/cond/_183/jax2tf_apply_/ActorCriticTransformerFlats/ActorCriticTransformerFlats/Transformer_0/scan/while_2/Const", "shape": [], "dtype": "int32"}, {"name": "StatefulPartitionedCall/jax2tf_apply_/ActorCriticTransformerFlats/ActorCriticTransformerFlats/Transformer_0/scan/while/cond/_113/jax2tf_apply_/ActorCriticTransformerFlats/ActorCriticTransformerFlats/Transformer_0/scan/while/Const", "shape": [], "dtype": "int32"}, {"name": "StatefulPartitionedCall/jax2tf_apply_/ActorCriticTransformerFlats/ActorCriticTransformerFlats/Transformer_0/scan/while_1/cond/_148/jax2tf_apply_/ActorCriticTransformerFlats/ActorCriticTransformerFlats/Transformer_0/scan/while_1/Const", "shape": [], "dtype": "int32"}, {"name": "StatefulPartitionedCall/jax2tf_apply_/ActorCriticTransformerFlats/ActorCriticTransformerFlats/Transformer_0/scan/while_3/cond/_218/jax2tf_apply_/ActorCriticTransformerFlats/ActorCriticTransformerFlats/Transformer_0/scan/while_3/Const", "shape": [], "dtype": "int32"}, {"name": "StatefulPartitionedCall/jax2tf_apply_/ActorCriticTransformerFlats/ActorCriticTransformerFlats/Transformer_0/scan/while_2/body/_184/jax2tf_apply_/ActorCriticTransformerFlats/ActorCriticTransformerFlats/Transformer_0/scan/while/body/strided_slice/stack", "shape": [1], "dtype": "int32"}, {"name": "StatefulPartitionedCall/jax2tf_apply_/ActorCriticTransformerFlats/ActorCriticTransformerFlats/Transformer_0/scan/while_2/body/_184/jax2tf_apply_/ActorCriticTransformerFlats/ActorCriticTransformerFlats/Transformer_0/scan/while/body/strided_slice/stack_1", "shape": [1], "dtype": "int32"}, {"name": "StatefulPartitionedCall/jax2tf_apply_/ActorCriticTransformerFlats/ActorCriticTransformerFlats/Transformer_0/scan/while_2/body/_184/jax2tf_apply_/ActorCriticTransformerFlats/ActorCriticTransformerFlats/Transformer_0/scan/while/body/strided_slice/stack_2", "shape": [1], "dtype": "int32"}, {"name": "StatefulPartitionedCall/jax2tf_apply_/ActorCriticTransformerFlats/ActorCriticTransformerFlats/Transformer_0/scan/while_2/body/_184/jax2tf_apply_/ActorCriticTransformerFlats/ActorCriticTransformerFlats/Transformer_0/scan/while_2/Const_5", "shape": [], "dtype": "int32"}, {"name": "StatefulPartitionedCall/jax2tf_apply_/ActorCriticTransformerFlats/ActorCriticTransformerFlats/Transformer_0/scan/while_2/body/_184/jax2tf_apply_/ActorCriticTransformerFlats/ActorCriticTransformerFlats/Transformer_0/scan/while_2/Const_6", "shape": [], "dtype": "int32"}, {"name": "StatefulPartitionedCall/jax2tf_apply_/ActorCriticTransformerFlats/ActorCriticTransformerFlats/Transformer_0/scan/while_2/body/_184/jax2tf_apply_/ActorCriticTransformerFlats/ActorCriticTransformerFlats/Transformer_0/scan/while_2/Const", "shape": [], "dtype": "int32"}, {"name": "StatefulPartitionedCall/jax2tf_apply_/ActorCriticTransformerFlats/ActorCriticTransformerFlats/Transformer_0/scan/while_2/body/_184/jax2tf_apply_/ActorCriticTransformerFlats/ActorCriticTransformerFlats/Transformer_0/scan/while_2/Const_1", "shape": [], "dtype": "int32"}, {"name": "StatefulPartitionedCall/jax2tf_apply_/ActorCriticTransformerFlats/ActorCriticTransformerFlats/Transformer_0/scan/while_2/body/_184/jax2tf_apply_/ActorCriticTransformerFlats/ActorCriticTransformerFlats/Transformer_0/scan/while/body/Sub", "shape": [1], "dtype": "int32"}, {"name": "StatefulPartitionedCall/jax2tf_apply_/ActorCriticTransformerFlats/ActorCriticTransformerFlats/Transformer_0/scan/while_2/body/_184/jax2tf_apply_/ActorCriticTransformerFlats/ActorCriticTransformerFlats/Transformer_0/scan/while/body/clip_by_value/y", "shape": [], "dtype": "int32"}, {"name": "StatefulPartitionedCall/jax2tf_apply_/ActorCriticTransformerFlats/ActorCriticTransformerFlats/Transformer_0/scan/while_2/body/_184/jax2tf_apply_/ActorCriticTransformerFlats/ActorCriticTransformerFlats/Transformer_0/scan/while/body/Slice/size", "shape": [1], "dtype": "int32"}, {"name": "StatefulPartitionedCall/jax2tf_apply_/ActorCriticTransformerFlats/ActorCriticTransformerFlats/Transformer_0/scan/while_2/body/_184/jax2tf_apply_/ActorCriticTransformerFlats/ActorCriticTransformerFlats/Transformer_0/scan/while/body/Reshape/shape_1", "shape": [0], "dtype": "int32"}, {"name": "StatefulPartitionedCall/jax2tf_apply_/ActorCriticTransformerFlats/ActorCriticTransformerFlats/Transformer_0/scan/while_2/body/_184/jax2tf_apply_/ActorCriticTransformerFlats/ActorCriticTransformerFlats/Transformer_0/scan/while/body/Reshape_2/shape", "shape": [1], "dtype": "int32"}, {"name": "StatefulPartitionedCall/jax2tf_apply_/ActorCriticTransformerFlats/ActorCriticTransformerFlats/Transformer_0/scan/while_2/body/_184/jax2tf_apply_/ActorCriticTransformerFlats/ActorCriticTransformerFlats/Transformer_0/scan/while_2/Const_2", "shape": [], "dtype": "int32"}, {"name": "StatefulPartitionedCall/jax2tf_apply_/ActorCriticTransformerFlats/ActorCriticTransformerFlats/Transformer_0/scan/while_2/body/_184/jax2tf_apply_/ActorCriticTransformerFlats/ActorCriticTransformerFlats/Transformer_0/scan/while_2/Const_3", "shape": [], "dtype": "int32"}, {"name": "StatefulPartitionedCall/jax2tf_apply_/ActorCriticTransformerFlats/ActorCriticTransformerFlats/Transformer_0/scan/while_2/body/_184/jax2tf_apply_/ActorCriticTransformerFlats/ActorCriticTransformerFlats/Transformer_0/scan/while_2/Const_4", "shape": [], "dtype": "int32"}, {"name": "StatefulPartitionedCall/jax2tf_apply_/ActorCriticTransformerFlats/ActorCriticTransformerFlats/Transformer_0/scan/while_2/body/_184/jax2tf_apply_/ActorCriticTransformerFlats/ActorCriticTransformerFlats/Transformer_0/scan/while/body/Sub_1", "shape": [2], "dtype": "int32"}, {"name": "StatefulPartitionedCall/jax2tf_apply_/ActorCriticTransformerFlats/ActorCriticTransformerFlats/Transformer_0/scan/while_2/body/_184/jax2tf_apply_/ActorCriticTransformerFlats/ActorCriticTransformerFlats/Transformer_0/scan/while/body/clip_by_value_1/y", "shape": [], "dtype": "int32"}, {"name": "StatefulPartitionedCall/jax2tf_apply_/ActorCriticTransformerFlats/ActorCriticTransformerFlats/Transformer_0/scan/while_2/body/_184/jax2tf_apply_/ActorCriticTransformerFlats/ActorCriticTransformerFlats/Transformer_0/scan/while/body/Slice_1/size", "shape": [2], "dtype": "int32"}, {"name": "StatefulPartitionedCall/jax2tf_apply_/ActorCriticTransformerFlats/ActorCriticTransformerFlats/Transformer_0/scan/while_2/body/_184/jax2tf_apply_/ActorCriticTransformerFlats/ActorCriticTransformerFlats/Transformer_0/scan/while/body/Reshape_1/shape", "shape": [1], "dtype": "int32"}, {"name": "StatefulPartitionedCall/jax2tf_apply_/ActorCriticTransformerFlats/ActorCriticTransformerFlats/Transformer_0/scan/while_2/body/_184/jax2tf_apply_/ActorCriticTransformerFlats/ActorCriticTransformerFlats/Transformer_0/scan/while/body/strided_slice_1/stack", "shape": [1], "dtype": "int32"}, {"name": "StatefulPartitionedCall/jax2tf_apply_/ActorCriticTransformerFlats/ActorCriticTransformerFlats/Transformer_0/scan/while_2/body/_184/jax2tf_apply_/ActorCriticTransformerFlats/ActorCriticTransformerFlats/Transformer_0/scan/while/body/strided_slice_1/stack_1", "shape": [1], "dtype": "int32"}, {"name": "StatefulPartitionedCall/jax2tf_apply_/ActorCriticTransformerFlats/ActorCriticTransformerFlats/Transformer_0/scan/while_2/body/_184/jax2tf_apply_/ActorCriticTransformerFlats/ActorCriticTransformerFlats/Transformer_0/scan/while/body/strided_slice_1/stack_2", "shape": [1], "dtype": "int32"}, {"name": "StatefulPartitionedCall/jax2tf_apply_/ActorCriticTransformerFlats/ActorCriticTransformerFlats/Transformer_0/scan/while_2/body/_184/jax2tf_apply_/ActorCriticTransformerFlats/ActorCriticTransformerFlats/Transformer_0/scan/while_2/Const_7", "shape": [], "dtype": "int32"}, {"name": "StatefulPartitionedCall/jax2tf_apply_/ActorCriticTransformerFlats/ActorCriticTransformerFlats/Transformer_0/scan/while_2/body/_184/jax2tf_apply_/ActorCriticTransformerFlats/ActorCriticTransformerFlats/Transformer_0/scan/while_2/add/y", "shape": [], "dtype": "int32"}, {"name": "StatefulPartitionedCall/jax2tf_apply_/ActorCriticTransformerFlats/ActorCriticTransformerFlats/Transformer_0/scan/while/body/_114/jax2tf_apply_/ActorCriticTransformerFlats/ActorCriticTransformerFlats/Transformer_0/scan/while/body/strided_slice/stack", "shape": [1], "dtype": "int32"}, {"name": "StatefulPartitionedCall/jax2tf_apply_/ActorCriticTransformerFlats/ActorCriticTransformerFlats/Transformer_0/scan/while/body/_114/jax2tf_apply_/ActorCriticTransformerFlats/ActorCriticTransformerFlats/Transformer_0/scan/while/body/strided_slice/stack_1", "shape": [1], "dtype": "int32"}, {"name": "StatefulPartitionedCall/jax2tf_apply_/ActorCriticTransformerFlats/ActorCriticTransformerFlats/Transformer_0/scan/while/body/_114/jax2tf_apply_/ActorCriticTransformerFlats/ActorCriticTransformerFlats/Transformer_0/scan/while/body/strided_slice/stack_2", "shape": [1], "dtype": "int32"}, {"name": "StatefulPartitionedCall/jax2tf_apply_/ActorCriticTransformerFlats/ActorCriticTransformerFlats/Transformer_0/scan/while/body/_114/jax2tf_apply_/ActorCriticTransformerFlats/ActorCriticTransformerFlats/Transformer_0/scan/while/Const_5", "shape": [], "dtype": "int32"}, {"name": "StatefulPartitionedCall/jax2tf_apply_/ActorCriticTransformerFlats/ActorCriticTransformerFlats/Transformer_0/scan/while/body/_114/jax2tf_apply_/ActorCriticTransformerFlats/ActorCriticTransformerFlats/Transformer_0/scan/while/Const_6", "shape": [], "dtype": "int32"}, {"name": "StatefulPartitionedCall/jax2tf_apply_/ActorCriticTransformerFlats/ActorCriticTransformerFlats/Transformer_0/scan/while/body/_114/jax2tf_apply_/ActorCriticTransformerFlats/ActorCriticTransformerFlats/Transformer_0/scan/while/Const", "shape": [], "dtype": "int32"}, {"name": "StatefulPartitionedCall/jax2tf_apply_/ActorCriticTransformerFlats/ActorCriticTransformerFlats/Transformer_0/scan/while/body/_114/jax2tf_apply_/ActorCriticTransformerFlats/ActorCriticTransformerFlats/Transformer_0/scan/while/Const_1", "shape": [], "dtype": "int32"}, {"name": "StatefulPartitionedCall/jax2tf_apply_/ActorCriticTransformerFlats/ActorCriticTransformerFlats/Transformer_0/scan/while/body/_114/jax2tf_apply_/ActorCriticTransformerFlats/ActorCriticTransformerFlats/Transformer_0/scan/while/body/Sub", "shape": [1], "dtype": "int32"}, {"name": "StatefulPartitionedCall/jax2tf_apply_/ActorCriticTransformerFlats/ActorCriticTransformerFlats/Transformer_0/scan/while/body/_114/jax2tf_apply_/ActorCriticTransformerFlats/ActorCriticTransformerFlats/Transformer_0/scan/while/body/clip_by_value/y", "shape": [], "dtype": "int32"}, {"name": "StatefulPartitionedCall/jax2tf_apply_/ActorCriticTransformerFlats/ActorCriticTransformerFlats/Transformer_0/scan/while/body/_114/jax2tf_apply_/ActorCriticTransformerFlats/ActorCriticTransformerFlats/Transformer_0/scan/while/body/Slice/size", "shape": [1], "dtype": "int32"}, {"name": "StatefulPartitionedCall/jax2tf_apply_/ActorCriticTransformerFlats/ActorCriticTransformerFlats/Transformer_0/scan/while/body/_114/jax2tf_apply_/ActorCriticTransformerFlats/ActorCriticTransformerFlats/Transformer_0/scan/while/body/Reshape/shape_1", "shape": [0], "dtype": "int32"}, {"name": "StatefulPartitionedCall/jax2tf_apply_/ActorCriticTransformerFlats/ActorCriticTransformerFlats/Transformer_0/scan/while/body/_114/jax2tf_apply_/ActorCriticTransformerFlats/ActorCriticTransformerFlats/Transformer_0/scan/while/body/Reshape_2/shape", "shape": [1], "dtype": "int32"}, {"name": "StatefulPartitionedCall/jax2tf_apply_/ActorCriticTransformerFlats/ActorCriticTransformerFlats/Transformer_0/scan/while/body/_114/jax2tf_apply_/ActorCriticTransformerFlats/ActorCriticTransformerFlats/Transformer_0/scan/while/Const_2", "shape": [], "dtype": "int32"}, {"name": "StatefulPartitionedCall/jax2tf_apply_/ActorCriticTransformerFlats/ActorCriticTransformerFlats/Transformer_0/scan/while/body/_114/jax2tf_apply_/ActorCriticTransformerFlats/ActorCriticTransformerFlats/Transformer_0/scan/while/Const_3", "shape": [], "dtype": "int32"}, {"name": "StatefulPartitionedCall/jax2tf_apply_/ActorCriticTransformerFlats/ActorCriticTransformerFlats/Transformer_0/scan/while/body/_114/jax2tf_apply_/ActorCriticTransformerFlats/ActorCriticTransformerFlats/Transformer_0/scan/while/Const_4", "shape": [], "dtype": "int32"}, {"name": "StatefulPartitionedCall/jax2tf_apply_/ActorCriticTransformerFlats/ActorCriticTransformerFlats/Transformer_0/scan/while/body/_114/jax2tf_apply_/ActorCriticTransformerFlats/ActorCriticTransformerFlats/Transformer_0/scan/while/body/Sub_1", "shape": [2], "dtype": "int32"}, {"name": "StatefulPartitionedCall/jax2tf_apply_/ActorCriticTransformerFlats/ActorCriticTransformerFlats/Transformer_0/scan/while/body/_114/jax2tf_apply_/ActorCriticTransformerFlats/ActorCriticTransformerFlats/Transformer_0/scan/while/body/clip_by_value_1/y", "shape": [], "dtype": "int32"}, {"name": "StatefulPartitionedCall/jax2tf_apply_/ActorCriticTransformerFlats/ActorCriticTransformerFlats/Transformer_0/scan/while/body/_114/jax2tf_apply_/ActorCriticTransformerFlats/ActorCriticTransformerFlats/Transformer_0/scan/while/body/Slice_1/size", "shape": [2], "dtype": "int32"}, {"name": "StatefulPartitionedCall/jax2tf_apply_/ActorCriticTransformerFlats/ActorCriticTransformerFlats/Transformer_0/scan/while/body/_114/jax2tf_apply_/ActorCriticTransformerFlats/ActorCriticTransformerFlats/Transformer_0/scan/while/body/Reshape_1/shape", "shape": [1], "dtype": "int32"}, {"name": "StatefulPartitionedCall/jax2tf_apply_/ActorCriticTransformerFlats/ActorCriticTransformerFlats/Transformer_0/scan/while/body/_114/jax2tf_apply_/ActorCriticTransformerFlats/ActorCriticTransformerFlats/Transformer_0/scan/while/body/strided_slice_1/stack", "shape": [1], "dtype": "int32"}, {"name": "StatefulPartitionedCall/jax2tf_apply_/ActorCriticTransformerFlats/ActorCriticTransformerFlats/Transformer_0/scan/while/body/_114/jax2tf_apply_/ActorCriticTransformerFlats/ActorCriticTransformerFlats/Transformer_0/scan/while/body/strided_slice_1/stack_1", "shape": [1], "dtype": "int32"}, {"name": "StatefulPartitionedCall/jax2tf_apply_/ActorCriticTransformerFlats/ActorCriticTransformerFlats/Transformer_0/scan/while/body/_114/jax2tf_apply_/ActorCriticTransformerFlats/ActorCriticTransformerFlats/Transformer_0/scan/while/body/strided_slice_1/stack_2", "shape": [1], "dtype": "int32"}, {"name": "StatefulPartitionedCall/jax2tf_apply_/ActorCriticTransformerFlats/ActorCriticTransformerFlats/Transformer_0/scan/while/body/_114/jax2tf_apply_/ActorCriticTransformerFlats/ActorCriticTransformerFlats/Transformer_0/scan/while/Const_7", "shape": [], "dtype": "int32"}, {"name": "StatefulPartitionedCall/jax2tf_apply_/ActorCriticTransformerFlats/ActorCriticTransformerFlats/Transformer_0/scan/while/body/_114/jax2tf_apply_/ActorCriticTransformerFlats/ActorCriticTransformerFlats/Transformer_0/scan/while/add/y", "shape": [], "dtype": "int32"}, {"name": "StatefulPartitionedCall/jax2tf_apply_/ActorCriticTransformerFlats/ActorCriticTransformerFlats/Transformer_0/scan/while_1/body/_149/jax2tf_apply_/ActorCriticTransformerFlats/ActorCriticTransformerFlats/Transformer_0/scan/while/body/strided_slice/stack", "shape": [1], "dtype": "int32"}, {"name": "StatefulPartitionedCall/jax2tf_apply_/ActorCriticTransformerFlats/ActorCriticTransformerFlats/Transformer_0/scan/while_1/body/_149/jax2tf_apply_/ActorCriticTransformerFlats/ActorCriticTransformerFlats/Transformer_0/scan/while/body/strided_slice/stack_1", "shape": [1], "dtype": "int32"}, {"name": "StatefulPartitionedCall/jax2tf_apply_/ActorCriticTransformerFlats/ActorCriticTransformerFlats/Transformer_0/scan/while_1/body/_149/jax2tf_apply_/ActorCriticTransformerFlats/ActorCriticTransformerFlats/Transformer_0/scan/while/body/strided_slice/stack_2", "shape": [1], "dtype": "int32"}, {"name": "StatefulPartitionedCall/jax2tf_apply_/ActorCriticTransformerFlats/ActorCriticTransformerFlats/Transformer_0/scan/while_1/body/_149/jax2tf_apply_/ActorCriticTransformerFlats/ActorCriticTransformerFlats/Transformer_0/scan/while_1/Const_5", "shape": [], "dtype": "int32"}, {"name": "StatefulPartitionedCall/jax2tf_apply_/ActorCriticTransformerFlats/ActorCriticTransformerFlats/Transformer_0/scan/while_1/body/_149/jax2tf_apply_/ActorCriticTransformerFlats/ActorCriticTransformerFlats/Transformer_0/scan/while_1/Const_6", "shape": [], "dtype": "int32"}, {"name": "StatefulPartitionedCall/jax2tf_apply_/ActorCriticTransformerFlats/ActorCriticTransformerFlats/Transformer_0/scan/while_1/body/_149/jax2tf_apply_/ActorCriticTransformerFlats/ActorCriticTransformerFlats/Transformer_0/scan/while_1/Const", "shape": [], "dtype": "int32"}, {"name": "StatefulPartitionedCall/jax2tf_apply_/ActorCriticTransformerFlats/ActorCriticTransformerFlats/Transformer_0/scan/while_1/body/_149/jax2tf_apply_/ActorCriticTransformerFlats/ActorCriticTransformerFlats/Transformer_0/scan/while_1/Const_1", "shape": [], "dtype": "int32"}, {"name": "StatefulPartitionedCall/jax2tf_apply_/ActorCriticTransformerFlats/ActorCriticTransformerFlats/Transformer_0/scan/while_1/body/_149/jax2tf_apply_/ActorCriticTransformerFlats/ActorCriticTransformerFlats/Transformer_0/scan/while/body/Sub", "shape": [1], "dtype": "int32"}, {"name": "StatefulPartitionedCall/jax2tf_apply_/ActorCriticTransformerFlats/ActorCriticTransformerFlats/Transformer_0/scan/while_1/body/_149/jax2tf_apply_/ActorCriticTransformerFlats/ActorCriticTransformerFlats/Transformer_0/scan/while/body/clip_by_value/y", "shape": [], "dtype": "int32"}, {"name": "StatefulPartitionedCall/jax2tf_apply_/ActorCriticTransformerFlats/ActorCriticTransformerFlats/Transformer_0/scan/while_1/body/_149/jax2tf_apply_/ActorCriticTransformerFlats/ActorCriticTransformerFlats/Transformer_0/scan/while/body/Slice/size", "shape": [1], "dtype": "int32"}, {"name": "StatefulPartitionedCall/jax2tf_apply_/ActorCriticTransformerFlats/ActorCriticTransformerFlats/Transformer_0/scan/while_1/body/_149/jax2tf_apply_/ActorCriticTransformerFlats/ActorCriticTransformerFlats/Transformer_0/scan/while/body/Reshape/shape_1", "shape": [0], "dtype": "int32"}, {"name": "StatefulPartitionedCall/jax2tf_apply_/ActorCriticTransformerFlats/ActorCriticTransformerFlats/Transformer_0/scan/while_1/body/_149/jax2tf_apply_/ActorCriticTransformerFlats/ActorCriticTransformerFlats/Transformer_0/scan/while/body/Reshape_2/shape", "shape": [1], "dtype": "int32"}, {"name": "StatefulPartitionedCall/jax2tf_apply_/ActorCriticTransformerFlats/ActorCriticTransformerFlats/Transformer_0/scan/while_1/body/_149/jax2tf_apply_/ActorCriticTransformerFlats/ActorCriticTransformerFlats/Transformer_0/scan/while_1/Const_2", "shape": [], "dtype": "int32"}, {"name": "StatefulPartitionedCall/jax2tf_apply_/ActorCriticTransformerFlats/ActorCriticTransformerFlats/Transformer_0/scan/while_1/body/_149/jax2tf_apply_/ActorCriticTransformerFlats/ActorCriticTransformerFlats/Transformer_0/scan/while_1/Const_3", "shape": [], "dtype": "int32"}, {"name": "StatefulPartitionedCall/jax2tf_apply_/ActorCriticTransformerFlats/ActorCriticTransformerFlats/Transformer_0/scan/while_1/body/_149/jax2tf_apply_/ActorCriticTransformerFlats/ActorCriticTransformerFlats/Transformer_0/scan/while_1/Const_4", "shape": [], "dtype": "int32"}, {"name": "StatefulPartitionedCall/jax2tf_apply_/ActorCriticTransformerFlats/ActorCriticTransformerFlats/Transformer_0/scan/while_1/body/_149/jax2tf_apply_/ActorCriticTransformerFlats/ActorCriticTransformerFlats/Transformer_0/scan/while/body/Sub_1", "shape": [2], "dtype": "int32"}, {"name": "StatefulPartitionedCall/jax2tf_apply_/ActorCriticTransformerFlats/ActorCriticTransformerFlats/Transformer_0/scan/while_1/body/_149/jax2tf_apply_/ActorCriticTransformerFlats/ActorCriticTransformerFlats/Transformer_0/scan/while/body/clip_by_value_1/y", "shape": [], "dtype": "int32"}, {"name": "StatefulPartitionedCall/jax2tf_apply_/ActorCriticTransformerFlats/ActorCriticTransformerFlats/Transformer_0/scan/while_1/body/_149/jax2tf_apply_/ActorCriticTransformerFlats/ActorCriticTransformerFlats/Transformer_0/scan/while/body/Slice_1/size", "shape": [2], "dtype": "int32"}, {"name": "StatefulPartitionedCall/jax2tf_apply_/ActorCriticTransformerFlats/ActorCriticTransformerFlats/Transformer_0/scan/while_1/body/_149/jax2tf_apply_/ActorCriticTransformerFlats/ActorCriticTransformerFlats/Transformer_0/scan/while/body/Reshape_1/shape", "shape": [1], "dtype": "int32"}, {"name": "StatefulPartitionedCall/jax2tf_apply_/ActorCriticTransformerFlats/ActorCriticTransformerFlats/Transformer_0/scan/while_1/body/_149/jax2tf_apply_/ActorCriticTransformerFlats/ActorCriticTransformerFlats/Transformer_0/scan/while/body/strided_slice_1/stack", "shape": [1], "dtype": "int32"}, {"name": "StatefulPartitionedCall/jax2tf_apply_/ActorCriticTransformerFlats/ActorCriticTransformerFlats/Transformer_0/scan/while_1/body/_149/jax2tf_apply_/ActorCriticTransformerFlats/ActorCriticTransformerFlats/Transformer_0/scan/while/body/strided_slice_1/stack_1", "shape": [1], "dtype": "int32"}, {"name": "StatefulPartitionedCall/jax2tf_apply_/ActorCriticTransformerFlats/ActorCriticTransformerFlats/Transformer_0/scan/while_1/body/_149/jax2tf_apply_/ActorCriticTransformerFlats/ActorCriticTransformerFlats/Transformer_0/scan/while/body/strided_slice_1/stack_2", "shape": [1], "dtype": "int32"}, {"name": "StatefulPartitionedCall/jax2tf_apply_/ActorCriticTransformerFlats/ActorCriticTransformerFlats/Transformer_0/scan/while_1/body/_149/jax2tf_apply_/ActorCriticTransformerFlats/ActorCriticTransformerFlats/Transformer_0/scan/while_1/Const_7", "shape": [], "dtype": "int32"}, {"name": "StatefulPartitionedCall/jax2tf_apply_/ActorCriticTransformerFlats/ActorCriticTransformerFlats/Transformer_0/scan/while_1/body/_149/jax2tf_apply_/ActorCriticTransformerFlats/ActorCriticTransformerFlats/Transformer_0/scan/while_1/add/y", "shape": [], "dtype": "int32"}, {"name": "StatefulPartitionedCall/jax2tf_apply_/ActorCriticTransformerFlats/ActorCriticTransformerFlats/Transformer_0/scan/while_3/body/_219/jax2tf_apply_/ActorCriticTransformerFlats/ActorCriticTransformerFlats/Transformer_0/scan/while/body/strided_slice/stack", "shape": [1], "dtype": "int32"}, {"name": "StatefulPartitionedCall/jax2tf_apply_/ActorCriticTransformerFlats/ActorCriticTransformerFlats/Transformer_0/scan/while_3/body/_219/jax2tf_apply_/ActorCriticTransformerFlats/ActorCriticTransformerFlats/Transformer_0/scan/while/body/strided_slice/stack_1", "shape": [1], "dtype": "int32"}, {"name": "StatefulPartitionedCall/jax2tf_apply_/ActorCriticTransformerFlats/ActorCriticTransformerFlats/Transformer_0/scan/while_3/body/_219/jax2tf_apply_/ActorCriticTransformerFlats/ActorCriticTransformerFlats/Transformer_0/scan/while/body/strided_slice/stack_2", "shape": [1], "dtype": "int32"}, {"name": "StatefulPartitionedCall/jax2tf_apply_/ActorCriticTransformerFlats/ActorCriticTransformerFlats/Transformer_0/scan/while_3/body/_219/jax2tf_apply_/ActorCriticTransformerFlats/ActorCriticTransformerFlats/Transformer_0/scan/while_3/Const_5", "shape": [], "dtype": "int32"}, {"name": "StatefulPartitionedCall/jax2tf_apply_/ActorCriticTransformerFlats/ActorCriticTransformerFlats/Transformer_0/scan/while_3/body/_219/jax2tf_apply_/ActorCriticTransformerFlats/ActorCriticTransformerFlats/Transformer_0/scan/while_3/Const_6", "shape": [], "dtype": "int32"}, {"name": "StatefulPartitionedCall/jax2tf_apply_/ActorCriticTransformerFlats/ActorCriticTransformerFlats/Transformer_0/scan/while_3/body/_219/jax2tf_apply_/ActorCriticTransformerFlats/ActorCriticTransformerFlats/Transformer_0/scan/while_3/Const", "shape": [], "dtype": "int32"}, {"name": "StatefulPartitionedCall/jax2tf_apply_/ActorCriticTransformerFlats/ActorCriticTransformerFlats/Transformer_0/scan/while_3/body/_219/jax2tf_apply_/ActorCriticTransformerFlats/ActorCriticTransformerFlats/Transformer_0/scan/while_3/Const_1", "shape": [], "dtype": "int32"}, {"name": "StatefulPartitionedCall/jax2tf_apply_/ActorCriticTransformerFlats/ActorCriticTransformerFlats/Transformer_0/scan/while_3/body/_219/jax2tf_apply_/ActorCriticTransformerFlats/ActorCriticTransformerFlats/Transformer_0/scan/while/body/Sub", "shape": [1], "dtype": "int32"}, {"name": "StatefulPartitionedCall/jax2tf_apply_/ActorCriticTransformerFlats/ActorCriticTransformerFlats/Transformer_0/scan/while_3/body/_219/jax2tf_apply_/ActorCriticTransformerFlats/ActorCriticTransformerFlats/Transformer_0/scan/while/body/clip_by_value/y", "shape": [], "dtype": "int32"}, {"name": "StatefulPartitionedCall/jax2tf_apply_/ActorCriticTransformerFlats/ActorCriticTransformerFlats/Transformer_0/scan/while_3/body/_219/jax2tf_apply_/ActorCriticTransformerFlats/ActorCriticTransformerFlats/Transformer_0/scan/while/body/Slice/size", "shape": [1], "dtype": "int32"}, {"name": "StatefulPartitionedCall/jax2tf_apply_/ActorCriticTransformerFlats/ActorCriticTransformerFlats/Transformer_0/scan/while_3/body/_219/jax2tf_apply_/ActorCriticTransformerFlats/ActorCriticTransformerFlats/Transformer_0/scan/while/body/Reshape/shape_1", "shape": [0], "dtype": "int32"}, {"name": "StatefulPartitionedCall/jax2tf_apply_/ActorCriticTransformerFlats/ActorCriticTransformerFlats/Transformer_0/scan/while_3/body/_219/jax2tf_apply_/ActorCriticTransformerFlats/ActorCriticTransformerFlats/Transformer_0/scan/while/body/Reshape_2/shape", "shape": [1], "dtype": "int32"}, {"name": "StatefulPartitionedCall/jax2tf_apply_/ActorCriticTransformerFlats/ActorCriticTransformerFlats/Transformer_0/scan/while_3/body/_219/jax2tf_apply_/ActorCriticTransformerFlats/ActorCriticTransformerFlats/Transformer_0/scan/while_3/Const_2", "shape": [], "dtype": "int32"}, {"name": "StatefulPartitionedCall/jax2tf_apply_/ActorCriticTransformerFlats/ActorCriticTransformerFlats/Transformer_0/scan/while_3/body/_219/jax2tf_apply_/ActorCriticTransformerFlats/ActorCriticTransformerFlats/Transformer_0/scan/while_3/Const_3", "shape": [], "dtype": "int32"}, {"name": "StatefulPartitionedCall/jax2tf_apply_/ActorCriticTransformerFlats/ActorCriticTransformerFlats/Transformer_0/scan/while_3/body/_219/jax2tf_apply_/ActorCriticTransformerFlats/ActorCriticTransformerFlats/Transformer_0/scan/while_3/Const_4", "shape": [], "dtype": "int32"}, {"name": "StatefulPartitionedCall/jax2tf_apply_/ActorCriticTransformerFlats/ActorCriticTransformerFlats/Transformer_0/scan/while_3/body/_219/jax2tf_apply_/ActorCriticTransformerFlats/ActorCriticTransformerFlats/Transformer_0/scan/while/body/Sub_1", "shape": [2], "dtype": "int32"}, {"name": "StatefulPartitionedCall/jax2tf_apply_/ActorCriticTransformerFlats/ActorCriticTransformerFlats/Transformer_0/scan/while_3/body/_219/jax2tf_apply_/ActorCriticTransformerFlats/ActorCriticTransformerFlats/Transformer_0/scan/while/body/clip_by_value_1/y", "shape": [], "dtype": "int32"}, {"name": "StatefulPartitionedCall/jax2tf_apply_/ActorCriticTransformerFlats/ActorCriticTransformerFlats/Transformer_0/scan/while_3/body/_219/jax2tf_apply_/ActorCriticTransformerFlats/ActorCriticTransformerFlats/Transformer_0/scan/while/body/Slice_1/size", "shape": [2], "dtype": "int32"}, {"name": "StatefulPartitionedCall/jax2tf_apply_/ActorCriticTransformerFlats/ActorCriticTransformerFlats/Transformer_0/scan/while_3/body/_219/jax2tf_apply_/ActorCriticTransformerFlats/ActorCriticTransformerFlats/Transformer_0/scan/while/body/Reshape_1/shape", "shape": [1], "dtype": "int32"}, {"name": "StatefulPartitionedCall/jax2tf_apply_/ActorCriticTransformerFlats/ActorCriticTransformerFlats/Transformer_0/scan/while_3/body/_219/jax2tf_apply_/ActorCriticTransformerFlats/ActorCriticTransformerFlats/Transformer_0/scan/while/body/strided_slice_1/stack", "shape": [1], "dtype": "int32"}, {"name": "StatefulPartitionedCall/jax2tf_apply_/ActorCriticTransformerFlats/ActorCriticTransformerFlats/Transformer_0/scan/while_3/body/_219/jax2tf_apply_/ActorCriticTransformerFlats/ActorCriticTransformerFlats/Transformer_0/scan/while/body/strided_slice_1/stack_1", "shape": [1], "dtype": "int32"}, {"name": "StatefulPartitionedCall/jax2tf_apply_/ActorCriticTransformerFlats/ActorCriticTransformerFlats/Transformer_0/scan/while_3/body/_219/jax2tf_apply_/ActorCriticTransformerFlats/ActorCriticTransformerFlats/Transformer_0/scan/while/body/strided_slice_1/stack_2", "shape": [1], "dtype": "int32"}, {"name": "StatefulPartitionedCall/jax2tf_apply_/ActorCriticTransformerFlats/ActorCriticTransformerFlats/Transformer_0/scan/while_3/body/_219/jax2tf_apply_/ActorCriticTransformerFlats/ActorCriticTransformerFlats/Transformer_0/scan/while_3/Const_7", "shape": [], "dtype": "int32"}, {"name": "StatefulPartitionedCall/jax2tf_apply_/ActorCriticTransformerFlats/ActorCriticTransformerFlats/Transformer_0/scan/while_3/body/_219/jax2tf_apply_/ActorCriticTransformerFlats/ActorCriticTransformerFlats/Transformer_0/scan/while_3/add/y", "shape": [], "dtype": "int32"}, {"name": "ConstantFolding/StatefulPartitionedCall/jax2tf_apply_/ActorCriticTransformerFlats/ActorCriticTransformerFlats/Transformer_0/scan/while_2/body/_184/jax2tf_apply_/ActorCriticTransformerFlats/ActorCriticTransformerFlats/Transformer_0/scan/while/body/stack_const_axis", "shape": [], "dtype": "int32"}, {"name": "ConstantFolding/StatefulPartitionedCall/jax2tf_apply_/ActorCriticTransformerFlats/ActorCriticTransformerFlats/Transformer_0/scan/while/body/_114/jax2tf_apply_/ActorCriticTransformerFlats/ActorCriticTransformerFlats/Transformer_0/scan/while/body/stack_const_axis", "shape": [], "dtype": "int32"}, {"name": "ConstantFolding/StatefulPartitionedCall/jax2tf_apply_/ActorCriticTransformerFlats/ActorCriticTransformerFlats/Transformer_0/scan/while_1/body/_149/jax2tf_apply_/ActorCriticTransformerFlats/ActorCriticTransformerFlats/Transformer_0/scan/while/body/stack_const_axis", "shape": [], "dtype": "int32"}, {"name": "ConstantFolding/StatefulPartitionedCall/jax2tf_apply_/ActorCriticTransformerFlats/ActorCriticTransformerFlats/Transformer_0/scan/while_3/body/_219/jax2tf_apply_/ActorCriticTransformerFlats/ActorCriticTransformerFlats/Transformer_0/scan/while/body/stack_const_axis", "shape": [], "dtype": "int32"}]}]}